rnn_model.pth (torch, 11092 bytes, 10 tensors)

rnn.weight_ih_l0 f4 [20, 9]
0.21941134 0.17773235 -0.110259056 -0.08321036 0.20291457 0.16341291 -0.14106914 0.031145623
0.17045869 0.20673922 -0.1390436 -0.16497827 0.21339062 -0.05995552 -0.09614622 0.1864569
0.1593832 0.06898402 -0.10025465 0.050258894 0.00685201 0.009194439 0.1729572 -0.14422286
-0.22981396 -0.07770475 -0.20545703 -0.06392181 -0.030774172 0.2676681 0.03638583 0.09570381
0.2957122 0.087018244 0.030199828 0.3075073 -0.0975593 0.11985703 0.121273465 -0.01805951
-0.18456165 -0.040387698 0.0271551 0.1953265 0.16973852 0.1359519 0.2260155 0.24971184
-0.0444639 0.039824694 0.07240905 -0.10561298 -0.044727102 -0.15417942 -0.03303303 -0.14662287
-0.20279947 -0.08763934 0.010069755 0.025387643 -0.010334879 -0.149086 0.13993311 0.035217877
-0.022226132 0.036778327 0.040548164 -0.096626684 0.111471795 0.16600509 0.087751545 -0.043045674
0.21247865 0.20900063 0.19433336 -0.09661346 -0.15993945 0.15056682 -0.19637828 -0.023238461
0.16348118 -0.048297513 -0.22031435 -0.106866226 -0.166997 0.13265315 0.20196712 -0.0071329596
-0.0936533 -0.038487855 0.13911767 -0.061026562 -0.19179834 -0.1927666 -0.20890704 -0.024523102
-0.084416814 -0.011176718 0.070292115 0.042708125 0.18553326 0.1571917 -0.15812658 0.07669447
0.13597001 -0.110746786 0.0021781619 0.049586147 0.07937036 -0.22758174 0.11499266 0.030633561
0.100569725 -0.21286663 -0.23967613 -0.012573352 -0.18808822 0.15189226 0.111436315 0.11821399
0.15658107 -0.08894339 0.04549137 -0.10370854 0.16703087 0.005530748 -0.09700278 0.044569153
-0.20669268 0.19494839 0.040373333 0.023135481 -0.1940944 -0.018956872 0.09089954 -0.016153865
-0.1713954 -0.21751061 0.07103953 -0.13159795 0.021859111 -0.07753774 0.00540589 0.153936
0.12142665 0.16083008 -0.19860886 -0.13617222 -0.18068966 0.18469593 -0.0055520507 -0.039588813
0.07901905 -0.08845251 -0.022288648 -0.20082057 0.16537054 0.1961806 0.10974667 -0.12598978
0.13383186 -0.09422784 0.15336792 -0.018320743 0.063124664 0.15608725 -0.058591496 -0.06524811
0.12687756 -0.017173138 0.19849682 -0.0025488508 -0.14885747 -0.11050992 -0.08902139 0.14142777
0.14489809 -0.2105156 0.07189408 0.21219729
00000000: 5ead 603e 78ff 353e 80cf e1bd 316a aabd
00000010: d6c8 4f3e b755 273e 6e74 10be 1b25 ff3c
00000020: b98c 2e3e 72b3 533e 7261 0ebe 10f0 28be
00000030: 1283 5a3e eb93 75bd 4fe8 c4bd 8fee 3e3e
00000040: 5935 233e 7e47 8d3d 4f52 cdbd 45dc 4d3d
00000050: d386 e03b 46a4 163c b11b 313e 28af 13be
00000060: 5a54 6bbe ab23 9fbd 5463 52be 70e9 82bd
00000070: 1e1a fcbc cb0b 893e 4f09 153d 5c00 c43d
00000080: 9767 973e 9f36 b23d a165 f73c 9971 9d3e
00000090: 2ccd c7bd 9a77 f53d 395e f83d 8af1 93bc
000000a0: bbfd 3cbe 926d 25bd 5f74 de3c ac03 483e
000000b0: efcf 2d3e fa36 0b3e 9b70 673e 76b4 7f3e
000000c0: c71f 36bd 381f 233d 324b 943d 9e4b d8bd
000000d0: c433 37bd 36e1 1dbe a44d 07bd 4e24 16be
000000e0: aaaa 4fbe 417c b3bd 9dfb 243c bff9 cf3c
000000f0: a053 29bc 00aa 18be a04a 0f3e 9f40 103d
00000100: 9413 b6bc dfa4 163d d515 263d 36e4 c5bd
00000110: 534b e43d 3dfd 293e 15b7 b33d a950 30bd
00000120: 0194 593e 4304 563e 53ff 463e 47dd c5bd
00000130: 2bc7 23be 302e 1a3e 6317 49be 965e bebc
00000140: 9c67 273e 9dd3 45bd 169a 61be aedc dabd
00000150: 4301 2bbe 3ad6 073e 78d0 4e3e 9abb e9bb
00000160: 4dcd bfbd 71a5 1dbd dd74 0e3e fdf6 79bd
00000170: c966 44be 9c64 45be baeb 55be ace4 c8bc
00000180: b9e2 acbd 8e1e 37bc 50f5 8f3d b7ee 2e3d
00000190: 6efc 3d3e dcf6 203e efeb 21be fe11 9d3d
000001a0: b93b 0b3e 36cf e2bd 7ebf 0e3b d81a 4b3d
000001b0: ed8c a23d 300b 69be 4681 eb3d 3cf3 fa3c
000001c0: 80f7 cd3d b6f9 59be a96d 75be 7600 4ebc
000001d0: 339a 40be a589 1b3e b938 e43d 2d1a f23d
000001e0: ca56 203e f427 b6bd 2955 3a3d 2565 d4bd
000001f0: 240a 2b3e 473b b53b 65a9 c6bd 258e 363d
00000200: 3fa7 53be 8da0 473e 825e 253d 9f86 bd3c
00000210: afc0 46be 714b 9bbc 8a29 ba3d 1c55 84bc
00000220: 4782 2fbe 1abb 5ebe 2c7d 913d 9dc1 06be
00000230: e111 b33c 1bcc 9ebd e423 b13b 66a1 1d3e
00000240: 89ae f83d a4b0 243e 1f60 4bbe bb70 0bbe
00000250: b606 39be ee20 3d3e faed b5bb e127 22bd
00000260: bdd4 a13d 9726 b5bd af96 b6bc e8a3 4dbe
00000270: e556 293e 91e3 483e ddc2 e03d 7703 01be
00000280: 380b 093e 87fa c0bd 7b0c 1d3e 6215 96bc
00000290: 8147 813d 56d5 1f3e a3fd 6fbd cda0 85bd
000002a0: 31ec 013e aeae 8cbc c042 4b3e 9f0a 27bb
000002b0: 186e 18be 0653 e2bd d950 b6bd 71d2 103e
000002c0: 2a60 143e 6791 57be 343d 933d 3f4a 593e

rnn.weight_hh_l0 f4 [20, 20]
0.03399817 -0.19701666 -0.14330053 -0.07982816 -0.14989072 0.08709782 0.17145525 0.1294579
0.20335026 0.11295874 -0.01973883 -0.02117292 -0.036450792 -0.109166265 0.124307156 0.12021628
-0.051591102 -0.06834059 -0.13202275 0.08462641 -0.14555846 0.09712561 -0.016330322 -0.20129474
-0.1086719 -0.22015172 -0.064906605 -0.042135365 -0.03009258 0.014197122 0.031754956 -0.006369533
0.18063776 0.09756504 -0.1691275 -0.19827087 -0.15464456 -0.017179424 -0.0801982 0.105214536
-0.07779629 0.07281835 0.11336112 -0.14893474 0.023177605 -0.048144165 -0.13465412 0.1694702
0.02665831 -0.04074833 0.10359709 0.09529667 -0.031228596 -0.18715143 -0.18474959 0.2021205
0.052222922 -0.1495845 -0.11037913 0.0012530993 0.14745604 -0.18251435 -0.08115111 0.2477086
0.090541765 0.33268568 0.1740164 0.19575398 -0.15443558 -0.06605006 -0.034050483 0.31923163
-0.06187239 0.24809884 0.18598548 0.052040763 0.17543525 0.15022679 0.250685 0.053066473
0.11418905 -0.0059748907 -0.16957714 -0.06471181 -0.22539294 -0.12147624 -0.022723988 0.067170836
-0.055383306 0.01919534 -0.022079537 -0.11951665 0.012383158 0.13500337 -0.072203964 -0.17937328
-0.1727747 0.08232874 0.026524475 -0.20223211 0.14774418 -0.07118561 0.04040794 0.06180393
-0.22028679 -0.008655622 -0.004034393 0.16543193 0.14050506 -0.18748614 0.07060793 0.1671099
0.21159624 -0.057029612 -0.1232035 0.047800746 0.06214612 -0.084423274 0.050051015 0.06844896
-0.15309927 -0.03545521 -0.11110319 -0.23382711 -0.090842426 -0.0838231 -0.23927096 -0.08266776
0.15652406 -0.052821033 -0.056140307 0.16208063 -0.07061727 -0.19294545 -0.113731176 0.1243582
-0.00919388 0.16088343 -0.17122883 -0.045448206 -0.1679214 0.16099973 0.07646689 0.2722422
-0.15653127 0.008983202 0.034160323 -0.050176892 -0.009390182 0.04698296 0.08125604 -0.09540577
0.12767012 0.0358945 0.1035522 0.10226328 -0.20750298 0.03326482 0.14754207 0.06718934
-0.1706709 0.16378954 -0.18574414 -0.18810882 -0.13102308 -0.054208647 -7.063842e-06 -0.20152195
-0.092621945 -0.053247087 -0.21381621 0.00488411 0.025807759 -0.049500257 -0.12103244 -0.069523215
-0.06112028 0.15000439 -0.13529088 -0.0023074239 0.057188552 0.10338826 -0.12504977 -0.039942842
-0.15174527 0.13758934 0.027279608 0.19952932 -0.032241095 -0.22587478 -0.071024686 -0.038076
0.091679715 0.031235948 -0.12697859 0.02792192 -0.2298785 -0.22996378 0.02162463 -0.014726928
-0.054487124 -0.008219887 0.031902853 -0.031554434 -0.17079675 0.27543247 -0.11425131 0.15889838
0.1397024 0.067662194 0.106211744 -0.006916219 -0.21436991 0.011847165 0.16562526 -0.14473844
0.058838088 -0.22420673 -0.09459658 -0.08364361 0.042464618 0.050424796 -0.060949262 -0.16552395
0.08892237 0.14979583 0.05053939 0.0968154 0.026920553 0.14867501 0.045782633 -0.16637473
-0.06884574 0.01175103 -0.18420352 -0.010399471 0.041366164 -0.06847502 -0.18359692 -0.061805874
-0.22675636 -0.17235892 0.035524186 -0.19661361 0.048499137 0.005735415 0.16595438 -0.15415972
-0.23339637 0.04997085 0.06641535 0.15311998 0.17158425 0.04664873 0.09488796 0.08165318
00000000: aa41 0b3d bcbe 49be 60bd 12be f27c a3bd
00000010: f47c 19be 5860 b23d f791 2f3e 9d90 043e
00000020: 0d3b 503e e956 e73d 54b3 a1bc d572 adbc
00000030: 6d4d 15bd 9092 dfbd c094 fe3d f433 f63d
00000040: 3151 53bd 27f6 8bbd f930 07be 9c50 ad3d
00000050: 470d 15be cbe9 c63d 2bc7 85bc 3520 4ebe
00000060: 608f debd 746f 61be c1ed 84bd 2296 2cbd
00000070: b784 f6bc 0c9b 683c 7c11 023d 84b7 d0bb
00000080: 1bf9 383e 2ed0 c73d c22f 2dbe 8507 4bbe
00000090: 255b 1ebe ddbb 8cbc f43e a4bd b87a d73d
000000a0: a953 9fbd c921 953d e029 e83d 5982 18be
000000b0: f6de bd3c d132 45bd c5e2 09be 9989 2d3e
000000c0: 8762 da3c b9e7 26bd b62a d43d e72a c33d
000000d0: 1dd3 ffbc a0a4 3fbe ff2e 3dbe adf8 4e3e
000000e0: b4e7 553d ae2c 19be 740e e2bd 093f a43a
000000f0: b7fe 163e 0be5 3abe 8e32 a6bd 53a7 7d3e
00000100: f66d b93d c755 aa3e 5b31 323e bb73 483e
00000110: 5c24 1ebe 4145 87bd 8578 0bbd 5472 a33e
00000120: e76d 7dbd 9f0d 7e3e fa72 3e3e b228 553d
00000130: 4ca5 333e 0dd5 193e c959 803e 3b5c 593d
00000140: f3db e93d 04c9 c3bb a1a5 2dbe a087 84bd
00000150: 68cd 66be 89c8 f8bd a827 babc dd90 893d
00000160: 9bd9 62bd 8c3f 9d3c 25e0 b4bc 25c5 f4bd
00000170: bbe2 4a3c 533e 0a3e acdf 93bd a1ad 37be
00000180: daeb 30be f89b a83d db49 d93c ef15 4fbe
00000190: 404a 173e c3c9 91bd cc82 253d 1e26 7d3d
000001a0: dc92 61be 4fd0 0dbc f132 84bb fd66 293e
000001b0: 8fe0 0f3e 5efc 3fbe e49a 903d dc1e 2b3e
000001c0: afac 583e e297 69bd 1e52 fcbd b7ca 433d
000001d0: ee8c 7e3d 1ce6 acbd 4b02 4d3d f82e 8c3d
000001e0: 0ec6 1cbe 7b39 11bd 128a e3bd 6070 6fbe
000001f0: 980b babd 72ab abbd 7203 75be b74d a9bd
00000200: d847 203e de5a 58bd 61f3 65bd 77f8 253e
00000210: ca9f 90bd 7e93 45be e4eb e8bd 83af fe3d
00000220: eda1 16bc a0be 243e 9c56 2fbe e627 3abd
00000230: 96f3 2bbe 1ddd 243e ac9a 9c3d 5463 8b3e
00000240: bc49 20be 482e 133c b2eb 0b3d 4986 4dbd
00000250: 47d9 19bc 3471 403d 9169 a63d 1a64 c3bd
00000260: f5bb 023e 1c06 133d 2d13 d43d 696f d13d
00000270: a97b 54be b140 083d 4515 173e 919a 893d
00000280: 5ac4 2ebe 72b8 273e b633 3ebe 999f 40be
00000290: ea2a 06be e309 5ebd f105 edb6 c55b 4ebe
000002a0: 93b0 bdbd 9e19 5abd a3f2 5abe e20a a03b
000002b0: cb6a d33c c8c0 4abd dbdf f7bd 3062 8ebd
000002c0: 4259 7abd c09a 193e b189 0abe 2638 17bb
000002d0: 8b3e 6a3d 39bd d33d 0c0d 00be 1b9b 23bd
000002e0: 1d63 1bbe 38e4 0c3e 7c79 df3c 6a51 4c3e
000002f0: 3d0f 04bd b84b 67be 6475 91bd 94f5 1bbd
00000300: 93c2 bb3d 88e2 ff3c ad06 02be 83bc e43c
00000310: 4565 6bbe a07b 6bbe 2326 b13c 3749 71bc
00000320: e42d 5fbd b4ac 06bc 91ac 023d 393f 01bd
00000330: 58e5 2ebe 7c05 8d3e 97fc e9bd 42b6 223e
00000340: 250e 0f3e 7a92 8a3d 8b85 d93d 73a1 e2bb
00000350: c983 5bbe 9d1a 423c ab99 293e 5036 14be
00000360: 3500 713d 7396 65be dabb c1bd 574d abbd
00000370: 61ef 2d3d 3b8a 4e3d efa5 79bd 1c7f 29be
00000380: ee1c b63d 1464 193e 6402 4f3d 2747 c63d
00000390: 7e88 dc3c 433e 183e 9286 3b3d 235e 2abe
000003a0: fffe 8cbd 6487 403c d99f 3cbe 8b62 2abc
000003b0: 916f 293d a23c 8cbd d500 3cbe 2828 7dbd
000003c0: d232 68be db7e 30be cf81 113d 1455 49be
000003d0: 08a7 463d 26f0 bb3b f2ef 293e 0cdc 1dbe
000003e0: 75ff 6ebe 3cae 4c3d c504 883d 7ccb 1c3e
000003f0: c8b3 2f3e bd12 3f3d 9e54 c23d c839 a73d

rnn.bias_ih_l0 f4 [20]
0.22315487 0.17961918 0.049207956 0.1500912 -0.21700479 0.017328486 -0.17549811 -0.17368774
0.018645791 -0.069764145 0.03829544 0.10191984 -0.016234023 -0.19121385 -0.20186864 0.08498282
-0.06209303 0.06328536 0.21249989 -0.09741049
00000000: b682 643e 17ee 373e 488e 493d 82b1 193e
00000010: 8136 5ebe 78f4 8d3c c7b5 33be 33db 31be
00000020: 0fbf 983c 81e0 8ebd aedb 1c3d 59bb d03d
00000030: 37fd 84bc 90cd 43be a7b6 4ebe 790b ae3d
00000040: 4355 7ebd c19b 813d 9299 593e 277f c7bd

rnn.bias_hh_l0 f4 [20]
0.068203606 -0.16419034 0.18597567 -0.0486587 -0.1021732 -0.13640721 -0.22095612 -0.101189494
0.03189967 -0.060873855 -0.18337868 0.09505303 -0.052727968 0.1052031 0.031908493 -0.21079288
0.08073993 -0.03303042 -0.0411625 -0.16326258
00000000: 55ae 8b3d 8321 28be 6870 3e3e 584e 47bd
00000010: 2f40 d1bd 55ae 0bbe 5242 62be 703c cfbd
00000020: 3aa9 023d dd56 79bd 9fc7 3bbe 2aab c23d
00000030: 48f9 57bd b974 d73d 7bb2 023d 17da 57be
00000040: fa5a a53d e84a 07bd 029a 28bd 4e2e 27be

rnn.weight_ih_l1 f4 [20, 20]
-0.1908078 0.20181732 0.012432165 -0.113719985 -0.07444186 -0.024796795 -0.117895134 -0.03084591
-0.1095642 -0.06940417 0.09139698 -0.14404787 -0.1934097 0.06712292 0.13359463 -0.19382814
-0.193331 0.016370866 0.13882735 -0.04953182 0.06961959 0.18062137 -0.15156905 -0.011179283
-0.017312786 -0.117376946 -0.11412327 -0.09910929 0.121088855 -0.045405596 -0.18759742 0.18113217
0.14658219 -0.2003536 -0.17761102 0.18596706 0.011545552 0.18352483 0.014964841 -0.23167315
-0.1448989 0.0718485 0.060206376 -0.16337343 0.092547074 0.20463865 0.1453323 -0.19922982
-0.025155777 -0.0004583843 0.1843561 0.08134219 0.012203147 -0.1273997 -0.13776474 0.04610015
0.03865518 0.017268445 -0.12873116 -0.033132143 0.0052669435 0.1688178 -0.15623656 -0.14186892
0.024967672 -0.0010951812 -0.11101572 -0.045267746 -0.081660815 0.13232087 -0.14374518 0.13534364
0.206423 0.047289766 -0.006526989 -0.07553125 -0.1701432 0.0976638 -0.136391 -0.19017628
-0.22741671 0.18131374 0.08085672 -0.03763314 -0.012353326 0.11075416 0.122301094 -0.22704238
0.07671555 0.19789517 -0.0075345584 0.20201567 0.16951202 0.17501226 -0.14622302 -0.012019045
0.10636358 -0.13998558 -0.06497848 0.03253418 0.008160946 0.12703589 0.17306072 0.012967972
-0.15153973 -0.21686302 -0.12554818 -0.19293407 0.15180908 0.08903475 -0.08508592 -0.13662042
-0.0054949457 0.01950481 -0.025052818 -0.14814654 -0.092863746 -0.18070608 0.06799049 0.062260997
-0.18765673 0.11486513 0.07575093 -0.1511433 0.22038682 0.11789688 0.18487622 -0.18987483
0.09093641 0.15966 0.05577612 0.021692991 -0.20857841 -0.10400524 -0.20875593 0.15457337
0.095341444 0.096480966 -0.11634797 0.14490049 0.06962656 -0.20802562 -0.032348856 -0.16710465
0.21971226 -0.10682723 0.13642713 -0.116622776 -0.009117645 -0.14171499 -0.035186093 -0.012383597
0.08402815 0.11240852 -0.09255773 -0.22402547 -0.15036196 0.18065089 -0.16458008 -0.071167655
-0.2220656 0.20406048 -0.1480505 -0.19878554 -0.048268616 -0.069405235 0.20974706 -0.0014352927
-0.11032556 -0.089907326 0.17947653 0.08169557 0.036681756 -0.18777873 -0.1973183 0.03546342
-0.09419465 -0.10927166 0.18885322 0.0911584 -0.14464732 -0.13341811 0.14120959 -0.15348807
-0.19206183 -0.2770784 -0.042198583 0.029752184 0.21818899 0.14663652 -0.10509122 -0.2269046
-0.0784893 -0.18104 0.110602826 0.10707794 -0.17322828 0.16063768 -0.14507824 0.0066933753
-0.2838127 0.07205348 -0.0810757 0.1147016 -0.20423308 -0.15525581 0.14895849 -0.19229625
0.09593425 -0.001597921 0.027519362 0.09806352 -0.2085568 0.0055628107 0.056191783 -0.15751769
0.1049695 -0.024986345 -0.18774134 -0.18042542 0.16891913 0.079010725 -0.044995137 -0.20002252
0.17719352 0.15208729 0.113316566 -0.019349914 -0.028406281 0.037369434 0.122596346 -0.11770112
-0.23789026 0.064125806 0.033783108 0.01948276 -0.15748614 -0.25088853 -0.0017222877 0.07207112
-0.05430982 0.21487539 -0.13906528 -0.08489586 0.12417568 0.13753314 0.17716658 0.20513564
-0.13177916 0.1324733 -0.0668536 0.18847956 -0.019310536 -0.24326411 -0.054942854 0.0008644791
00000000: 1f63 43be 33a9 4e3e 48b0 4b3c 06e6 e8bd
00000010: f974 98bd a622 cbbc 0173 f1bd 90b0 fcbc
00000020: 3263 e0bd c623 8ebd 572e bb3d 4981 13be
00000030: 310d 46be be77 893d 08cd 083e e27a 46be
00000040: 90f8 45be 321c 863c c228 0e3e e1e1 4abd
00000050: b794 8e3d cff4 383e eb34 1bbe 5029 37bc
00000060: 8bd3 8dbc 5363 f0bd 76b9 e9bd d0f9 cabd
00000070: 6ffd f73d 38fb 39bd 8a19 40be b67a 393e
00000080: a419 163e 7e29 4dbe aadf 35be 266e 3e3e
00000090: 8e29 3d3c efed 3b3e 182f 753c ba3b 6dbe
000000a0: 6160 14be 4e25 933d f69a 763d 5d4b 27be
000000b0: 5289 bd3d cb8c 513e fed1 143e e702 4cbe
000000c0: 7d13 cebc 4d53 f0b9 d8c7 3c3e bc96 a63d
000000d0: b5ef 473c 1175 02be 3312 0dbe 83d3 3c3d
000000e0: e554 1e3d 8e76 8d3c 1ad2 03be 92b5 07bd
000000f0: 5396 ac3b 93de 2c3e 7afc 1fbe 1646 11be
00000100: 0189 cc3c 2f8c 8fba 365c e3bd ac6a 39bd
00000110: c93d a7bd 1f7f 073e f031 13be 8697 0a3e
00000120: 8d60 533e eab2 413d 5ae0 d5bb 21b0 9abd
00000130: 053a 2ebe f503 c83d 15aa 0bbe 92bd 42be
00000140: eddf 68be 4faa 393e 3598 a53d 3525 1abd
00000150: 9b65 4abc 14d3 e23d ff78 fa3d cc7d 68be
00000160: 0b1d 9d3d 08a5 4a3e 75e4 f6bb 32dd 4e3e
00000170: 8f94 2d3e 6a36 333e 7dbb 15be 87eb 44bc
00000180: 26d5 d93d 6158 0fbe 7013 85bd 8f42 053d
00000190: 7db5 053c b215 023e d436 313e 9e77 543c
000001a0: 3b2d 1bbe 5711 5ebe b48f 00be 8290 45be
000001b0: d773 1b3e da57 b63d 8741 aebd 39e6 0bbe
000001c0: f20e b4bb 8dc8 9f3c 913b cdbc bab3 17be
000001d0: 592f bebd 040b 39be 993e 8b3d 6305 7f3d
000001e0: 1629 40be 693e eb3d 4e23 9b3d 4fc5 1abe
000001f0: 15ad 613e eb73 f13d 3150 3d3e 8c6e 42be
00000200: de3c ba3d e97d 233e 8075 643d 80b5 b13c
00000210: 9495 55be b300 d5bd 1dc4 55be 7b48 1e3e
00000220: 6042 c33d d097 c53d d847 eebd cb60 143e
00000230: 5f98 8e3d ab04 55be 3c80 04bd 7b1d 2bbe
00000240: 40fc 603e 3cc8 dabd 8eb3 0b3e ecd7 eebd
00000250: 2d62 15bc bc1d 11be 4b1f 10bd 92e4 4abc
00000260: f316 ac3d 7036 e63d e88e bdbd ef66 65be
00000270: 7cf8 19be 8cfc 383e ae87 28be 59c0 91bd
00000280: 2a65 63be 3bf5 503e 8d9a 17be 708e 4bbe
00000290: 50b5 45bd 5524 8ebd efc7 563e 6e20 bcba
000002a0: 5ef2 e1bd 5521 b8bd b2c8 373e 0250 a73d
000002b0: 9c3f 163d 1149 40be cf0d 4abe 1742 113d
000002c0: 20e9 c0bd d2c9 dfbd bd62 413e 41b1 ba3d
000002d0: 6d1e 14be c29e 08be 3f99 103e fa2b 1dbe
000002e0: dbab 44be 38dd 8dbe 6cd8 2cbd daba f33c
000002f0: ef6c 5f3e e227 163e 113a d7bd ae59 68be
00000300: 00bf a0bd 8d62 39be bc83 e23d ae4b db3d
00000310: c162 31be 347e 243e 648f 14be 1a54 db3b
00000320: e64f 91be c690 933d 040b a6bd ace8 ea3d
00000330: 7a22 51be 61fb 1ebe 9388 183e 4fe9 44be
00000340: 2d79 c43d 5571 d1ba 4970 e13c 87d5 c83d
00000350: ea8f 55be 3d48 b63b 5b29 663d 514c 21be
00000360: 40fa d63d 2ab0 ccbc 443f 40be 71c1 38be
00000370: 23f9 2c3e 60d0 a13d d24c 38bd b4d2 4cbe
00000380: 3872 353e c5bc 1b3e 8412 e83d b683 9ebc
00000390: 4ab4 e8bc b110 193d cb13 fb3d 490d f1bd
000003a0: 8199 73be 6454 833d 2860 0a3d 4f9a 9f3c
000003b0: 0c44 21be 7674 80be 63be e1ba 069a 933d
000003c0: f973 5ebd 4b08 5c3e 2167 0ebe e1dd adbd
000003d0: d24f fe3d 7dd5 0c3e 286b 353e 140f 523e
000003e0: 1ef1 06be 15a7 073e 8aea 88bd c900 413e
000003f0: 2131 9ebc 3a1a 79be c20b 61bd 369e 623a

rnn.weight_hh_l1 f4 [20, 20]
-0.17261866 0.021905906 -0.024423389 0.14421088 0.093212865 0.12236978 -0.13473378 0.2131336
-0.15333916 0.18406634 -0.08531622 -0.12979658 0.028894959 -0.19727927 -0.2048558 0.20470354
0.11025052 0.21511635 0.06768787 0.1488775 -0.21672522 0.10461857 -0.0067083626 -0.24102734
0.04512336 -0.22033136 0.011754234 -0.17066236 -0.14210744 0.13409944 -0.21429197 -0.02707115
0.14038666 0.07573333 -0.19760786 0.14073077 -0.026586436 0.06698485 -0.10207546 -0.124005534
-0.010773558 0.09173104 -0.0606649 -0.09886944 -0.084877715 0.077770874 -0.20485014 -0.21068679
-0.015536854 -0.12007382 -0.2110993 0.1676484 -0.12091925 -0.052973293 0.19080609 0.19943415
0.025292182 -0.17191432 0.19687982 -0.052231856 -0.12201777 -0.11434411 0.05962291 -0.10694265
-0.0002583778 -0.14891888 0.021806864 0.021651484 0.04947851 -0.060632728 -0.030581351 0.195959
0.15030096 -0.012197237 0.07406322 -0.12936671 0.08706155 0.05299771 -0.15023863 0.08906077
-0.1635656 0.0024870753 -0.15279527 -0.11655661 -0.14607108 -0.15047139 0.114777185 -0.12450156
-0.1894879 -0.012703392 0.08452599 0.063465245 0.16132228 -0.20436062 -0.12951985 0.16959159
-0.20527992 -0.022129282 -0.02076405 0.17000172 -0.07406733 0.12983377 0.1705567 0.0048179836
0.08097979 -0.17324476 0.013603086 0.03547195 -0.18956335 0.13363649 -0.198393 -0.02788283
-0.20532936 -0.19945996 -0.12674667 0.09676294 0.029070526 0.0129037835 -0.060622495 -0.13974875
0.18502276 0.078946404 0.1626659 0.13851461 0.009636997 -0.20658317 -0.04560807 -0.22608651
0.11547828 -0.20059162 -0.16992204 -0.044264067 -0.081356496 -0.18022577 -0.16719602 -0.21825488
-0.1044521 -0.17044877 -0.13498908 0.124905035 0.10811267 -0.102566905 0.2014606 -0.060935684
-0.1305114 0.1850906 -0.040277988 -0.17978202 -0.13835941 -0.09180971 -0.0580149 0.042142976
-0.050945252 -0.19894755 -0.007834882 -0.099508375 0.15886262 0.17598674 -0.09143881 0.05475626
-0.06683168 -0.037402485 -0.14451826 0.070998274 0.22234485 -0.11159388 -0.1757832 -0.030905748
-0.094034106 0.05515533 0.08468075 -0.18752551 -0.07346737 -0.22237279 -0.19629641 -0.07153811
0.15406817 0.028049717 -0.10478858 -0.1488545 -0.19319655 0.05111998 -0.17936112 0.17903543
0.05463318 0.16942745 -0.24230826 0.052105635 0.0039096097 -0.031323448 0.051663633 -0.14457397
0.03284341 0.14463113 -0.200059 0.1987131 -0.2237506 0.07824593 -0.19452228 0.18183738
-0.16779658 0.12928589 0.14058086 -0.025691412 -0.031114982 -0.019600002 -0.14910397 -0.13002343
-0.046907295 -0.23578054 -0.042889047 -0.09975828 -0.016756572 -0.14325039 -0.22577366 0.20012596
0.003270943 0.13517486 0.11980492 0.14886935 -0.073450774 -0.2213831 0.1409893 0.105867006
0.18907425 -0.07966158 -0.05439865 0.024814136 0.021547543 -0.13695087 0.13941297 -0.17911124
-0.13632098 -0.08485636 0.10218239 -0.03984646 0.14759366 -0.15765958 -0.09781666 0.06664406
-0.07544287 0.18295112 -0.08003553 -0.0060752374 -0.029158335 0.055740062 0.165871 0.16823827
0.16704573 0.09560452 0.094450854 0.069970615 0.20354824 0.04264492 0.151384 -0.1237886
00000000: f2c2 30be 0474 b33c 8f13 c8bc 04ac 133e
00000010: 63e6 be3d 029d fa3d a7f7 09be b23f 5a3e
00000020: f104 1dbe e37b 3c3e 45ba aebd 65e9 04be
00000030: 1fb5 ec3c 9403 4abe b8c5 51be ce9d 513e
00000040: 06cb e13d 7647 5c3e f09f 8a3d 5873 183e
00000050: 37ed 5dbe 4342 d63d d3d1 dbbb dfcf 76be
00000060: 46d3 383d 8b9e 61be d594 403c 1dc2 2ebe
00000070: 9d84 11be 5d51 093e 5b6f 5bbe 51c4 ddbc
00000080: 85c1 0f3e 131a 9b3d b759 4abe ba1b 103e
00000090: cccb d9bc 5a2f 893d f00c d1bd 9df6 fdbd
000000a0: 9483 30bc 7cdd bb3d c27b 78bd 107c cabd
000000b0: 5ed4 adbd 5646 9f3d 3cc4 51be 47be 57be
000000c0: 4a8e 7ebc 43e9 f5bd 6a2a 58be 06ac 2b3e
000000d0: 83a4 f7bd 86fa 58bd ac62 433e 7738 4c3e
000000e0: 8d31 cf3c 4f0a 30be dd9a 493e 12f1 55bd
000000f0: 74e4 f9bd 3f2d eabd 2737 743d c004 dbbd
00000100: e276 87b9 317e 18be 4fa4 b23c 745e b13c
00000110: faa9 4a3d 065a 78bd be85 fabc 7aa9 483e
00000120: 7fe8 193e ecd6 47bc 75ae 973d b578 04be
00000130: 534d b23d 2014 593d 28d8 19be 7e65 b63d
00000140: be7d 27be 33fe 223b 5d76 1cbe 3bb5 eebd
00000150: a893 15be 2c15 1abe 4d10 eb3d adfa febd
00000160: 1e09 42be e321 50bc f61b ad3d 11fa 813d
00000170: ab31 253e e943 51be daa0 04be 6ba9 2d3e
00000180: e634 52be 7848 b5bc 5e19 aabc ee14 2e3e
00000190: 9db0 97bd 25f3 043e 6aa6 2e3e 2de0 9d3b
000001a0: bbd8 a53d 1367 31be 7adf 5e3c 094b 113d
000001b0: e51c 42be 01d8 083e 8927 4bbe 886a e4bc
000001c0: dc41 52be 3b3f 4cbe e1c9 01be a62b c63d
000001d0: 5025 ee3c 646a 533c 4b4f 78bd 4c1a 0fbe
000001e0: 9b76 3d3e a7ae a13d e491 263e c6d6 0d3e
000001f0: 7fe4 1d3c 8a8a 53be 87cf 3abd 3983 67be
00000200: e07f ec3d e467 4dbe 0b00 2ebe 3d4e 35bd
00000210: 3c9e a6bd 1b8d 38be 6f35 2bbe 357e 5fbe
00000220: fcea d5bd 1f8a 2ebe 943a 0abe 36ce ff3d
00000230: 2d6a dd3d 990e d2bd b04b 4e3e b297 79bd
00000240: c8a4 05be 6488 3d3e 88fa 24bd c718 38be
00000250: 17ae 0dbe bb06 bcbd 08a1 6dbd 1d9e 2c3d
00000260: f8ab 50bd e8b8 4bbe e05d 00bc 0ccb cbbd
00000270: e2ac 223e de35 343e 4544 bbbd 1a48 603d
00000280: 0cdf 88bd 5933 19bd 98fc 13be 8b67 913d
00000290: 5eae 633e 558b e4bd 8300 34be 0d2e fdbc
000002a0: f494 c0bd 8eea 613d 1a6d ad3d b006 40be
000002b0: 0f76 96bd b1b5 63be ed01 49be 9382 92bd
000002c0: 0cc4 1d3e 85c8 e53c 659b d6bd 506d 18be
000002d0: 51d5 45be 2f63 513d 71aa 37be 1055 373e
000002e0: 0bc7 5f3d 647e 2d3e a81f 78be b86c 553d
000002f0: 2f1c 803b 044d 00bd 3f9d 533d 330b 14be
00000300: d086 063d 2f1a 143e 44dc 4cbe 727b 4b3e
00000310: e11e 65be 673f a03d d930 47be 9433 3a3e
00000320: ded2 2bbe 8563 043e 6ef4 0f3e cc76 d2bc
00000330: d9e4 febc 2f90 a0bc b6ae 18be dd24 05be
00000340: dd21 40bd 7470 71be 6dac 2fbd 124e ccbd
00000350: 1445 89bc 3bb0 12be 3631 67be d2ed 4c3e
00000360: 515d 563b 476b 0a3e 485c f53d 3571 183e
00000370: 5c6d 96bd 40b2 62be 805f 103e cdd0 d83d
00000380: ae9c 413e 9c25 a3bd 1ed1 5ebd 0447 cb3c
00000390: 7984 b03c d93c 0cbe 46c2 0e3e f068 37be
000003a0: ba97 0bbe 2cc9 adbd 0045 d13d 0b36 23bd
000003b0: cb22 173e 8371 21be 1a54 c8bd ae7c 883d
000003c0: cb81 9abd 8a57 3b3e abe9 a3bd c912 c7bb
000003d0: 76dd eebc b14f 643d 16da 293e a746 2c3e
000003e0: 090e 2b3e 4dcc c33d 736f c13d c14c 8f3d
000003f0: f36e 503e 71ac 2e3d 6804 1b3e e184 fdbd

rnn.bias_ih_l1 f4 [20]
-0.07351723 0.036020465 0.2236111 -0.16100371 -0.20337768 0.14867426 0.035768103 0.03565575
-0.059009176 -0.05605314 -0.098249346 0.1117924 0.06667578 0.062800914 -0.23740464 0.007100476
0.13981642 -0.17590483 0.21304369 -0.07517143
00000000: 3490 96bd 328a 133d 4ffa 643e 28de 24be
00000010: 3d42 50be 113e 183e 9381 123d c40b 123d
00000020: 9bb3 71bd fa97 65bd f436 c9bd 6af3 e43d
00000030: 508d 883d c49d 803d 341a 73be 1cab e83b
00000040: 092c 0f3e 6520 34be 2028 5a3e 7bf3 99bd

rnn.bias_hh_l1 f4 [20]
-0.19619253 0.089794494 0.09284903 0.103767574 -0.053816 -0.16803914 -0.24401756 0.08121327
-0.18373887 0.0033117654 -0.20754856 -0.21846627 0.16588809 -0.010355947 -0.20130691 0.21896331
0.07013364 0.077452496 -0.1017315 0.07521958
00000000: b2e6 48be 2de6 b73d a227 be3d 1884 d43d
00000010: 2b6e 5cbd 7412 2cbe bddf 79be 2553 a63d
00000020: 0b26 3cbe 340a 593b 9c87 54be 9fb5 5fbe
00000030: 91de 293e fdab 29bc 6623 4ebe eb37 603e
00000040: 3aa2 8f3d 6a9f 9e3d 9b58 d0bd b90c 9a3d

mlp.weight f4 [20, 20]
0.104903154 -0.16572537 -0.069409214 0.10540706 -0.052193854 -0.29658574 -0.2989712 -0.01246574
0.043523997 -0.054113496 0.20485035 -0.29210988 0.23987278 -0.26103237 0.07903096 -0.16025682
-0.12659232 0.32022583 -0.16383585 -0.0731201 -0.20096788 0.19343969 -0.26502258 -0.091435984
-0.16232656 -0.07233569 -0.19838047 0.014274183 -0.19827208 -0.08931421 -0.25923193 0.18748705
0.29933792 0.25713637 0.099494025 0.10710516 -0.24322443 -0.11669328 0.3124481 0.35227937
-0.0936111 -0.26062834 0.109610945 0.16587552 0.25729328 0.34646538 -0.0040012305 -0.15245375
0.3559462 0.260937 -0.012468079 -0.30524084 0.013507772 -0.007943599 -0.20430169 0.027043123
0.26734772 0.1137969 -0.3507289 -0.37762597 0.3741785 -0.03326115 -0.27145925 -0.013871868
0.14203578 0.11653462 0.32561955 -0.120737895 -0.37187272 -0.019769754 0.070300385 0.16994949
0.18252364 0.10856824 -0.042824566 -0.19542587 -0.033036157 0.17697716 0.36301047 -0.25559965
0.18963927 -0.06678011 0.31492305 0.14667551 -0.1972261 0.3704812 -0.089761406 -0.32387513
-0.1097775 0.049574606 -0.19644023 0.29623467 0.018040622 0.21208411 0.176976 0.0858251
0.16156583 0.044756316 -0.3461982 -0.35667706 0.34708303 -0.04897329 -0.2666995 -0.24264267
0.22335844 -0.15842015 0.37897453 -0.31211728 0.14252561 -0.0042088525 -0.013195656 0.3753715
-0.0077246646 -0.017670853 0.1853692 0.19846909 -0.09932376 -0.0074959053 -0.2069777 -0.064358056
-0.12063694 -0.28169206 -0.38019326 0.26332572 0.21460876 -0.06435387 0.15004061 -0.023421152
0.36192176 -0.010533624 0.029857913 0.04550967 0.2358149 0.01509493 -0.007390827 -0.064102076
-0.09363781 -0.3166869 0.23061752 0.31856906 -0.3420144 -0.07048697 0.35910326 -0.36761993
-0.31904674 0.11015418 0.03353478 0.15731856 -0.1730407 0.05438553 -0.20927201 0.33116066
-0.032002002 0.25629303 0.10482096 0.013656602 0.037188776 -0.30043012 0.3586107 -0.15802683
-0.23328425 -0.35451442 -0.07223326 0.19333234 0.3107658 0.37349135 -0.09796449 -0.25950775
0.29734895 -0.16780548 0.3035662 0.2975365 0.014382897 -0.17510808 0.14846928 0.3723435
0.22772616 -0.19589376 0.053887937 -0.058472916 -0.11039617 -0.31453633 -0.022876596 -0.057699274
0.25700867 -0.09289621 -0.06124735 -0.18627118 0.048587184 0.3091363 0.03301195 0.02979853
0.36650437 0.23813172 -0.14513245 0.2003953 -0.28371885 0.100835524 0.18755789 -0.14508672
0.26089984 0.28818998 0.06624574 -0.1523801 -0.18608858 -0.02393229 0.23539639 -0.23879042
-0.22041976 0.048760958 -0.0016501134 0.15075935 0.027016416 0.044714812 0.06376286 -0.28751895
-0.07011454 0.3512018 -0.0711338 0.3044559 -0.05924464 0.0016878439 -0.3683159 0.0022869518
-0.38513336 -0.10746406 0.28334987 -0.27960953 -0.18147293 0.095016554 -0.049698576 -0.20529826
-0.28608423 0.012876411 -0.003547847 0.3186825 -0.09649567 -0.26422086 -0.344936 0.2380094
0.36246288 0.078389615 0.017987756 0.3348199 0.032381933 0.2175505 -0.2811537 -0.124577135
0.046831354 -0.03175789 0.29586366 -0.2042774 0.30323154 -0.19528742 -0.13011825 -0.0095831575
00000000: 77d7 d63d e9b3 29be 6b26 8ebd a8df d73d
00000010: 39c9 55bd 16da 97be c112 99be 1a3d 4cbc
00000020: 3846 323d 1da6 5dbd 4ac4 513e 6d8f 95be
00000030: 36a1 753e 09a6 85be fcda a13d 5d1a 24be
00000040: 6ba1 01be a4f4 a33e 96c4 27be febf 95bd
00000050: 86ca 4dbe 0e15 463e 0ab1 87be ca42 bbbd
00000060: ef38 26be bc24 94bd 4024 4bbe 43de 693c
00000070: d607 4bbe 5eea b6bd 0cba 84be 9bfc 3f3e
00000080: d242 993e 61a7 833e 86c3 cb3d f359 db3d
00000090: d30f 79be e3fc eebd 33f9 9f3e f65d b43e
000000a0: 2db7 bfbd 1471 85be b47b e03d 46db 293e
000000b0: f2bb 833e e963 b13e c11c 83bb d61c 1cbe
000000c0: 953e b63e 8999 853e ea46 4cbc 8748 9cbe
000000d0: b44f 5d3c de25 02bc 7634 51be 8a89 dd3c
000000e0: cde1 883e 590e e93d bd92 b3be 3158 c1be
000000f0: 5394 bf3e d83c 08bd b5fc 8abe d546 63bc
00000100: d471 113e b4a9 ee3d 9bb7 a63e 6e45 f7bd
00000110: 1a66 bebe 2ef4 a1bc a6f9 8f3d 3d07 2e3e
00000120: 7ae7 3a3e 0759 de3d d068 2fbd b81d 48be
00000130: ec50 07bd 8039 353e 82dc b93e f5dd 82be
00000140: cc30 423e 03c4 88bd 983d a13e 1b32 163e
00000150: a4f5 49be b6af bd3e d4d4 b7bd f6d2 a5be
00000160: 07d3 e0bd be0e 4b3d a127 49be 12ac 973e
00000170: edc9 933c 942c 593e 3239 353e 12c5 af3d
00000180: 8371 253e 6652 373d e440 b1be 609e b6be
00000190: deb4 b13e 3798 48bd d68c 88be 5277 78be
000001a0: 13b8 643e e438 22be f308 c23e d6cd 9fbe
000001b0: 3cf2 113e 6aea 89bb 9832 58bc b130 c03e
000001c0: 2f1f fdbb 77c2 90bc 6cd1 3d3e 7b3b 4b3e
000001d0: 416a cbbd 36a0 f5bb f6f1 53be 28ce 83bd
000001e0: 8010 f7bd f139 90be b1a8 c2be a1d2 863e
000001f0: 66c2 5b3e f6cb 83bd 3fa4 193e b7dd bfbc
00000200: cf4d b93e 3995 2cbc 9598 f43c 5968 3a3d
00000210: 7679 713e ba50 773c c02e f2bb f347 83bd
00000220: 2ec5 bfbd c924 a2be 0027 6c3e 7c1b a33e
00000230: 831c afbe 795b 90bd 62dc b73e ae38 bcbe
00000240: 185a a3be 8498 e13d c45b 093d 1e18 213e
00000250: 9531 31be 5dc3 5e3d 674b 56be e48d a93e
00000260: 8814 03bd d738 833e 5fac d63d f1bf 5f3c
00000270: 4253 183d fad1 99be d29b b73e c9d1 21be
00000280: 11e2 6ebe ea82 b5be 08ef 93bd eaf8 453e
00000290: b21c 9f3e 423a bf3e 9ba1 c8bd 33de 84be
000002a0: 1f3e 983e 33d5 2bbe 076d 9b3e b456 983e
000002b0: 3ea6 6b3c 884f 33be 5508 183e cfa3 be3e
000002c0: 0c31 693e 6098 48be 99b9 5c3d 4c81 6fbd
000002d0: 6317 e2bd e80a a1be b367 bbbc 1356 6cbd
000002e0: a496 833e 5e40 bebd 80de 7abd dfbd 3ebe
000002f0: 5b03 473d 1d47 9e3e 8a37 073d 0c1c f43c
00000300: 76a6 bb3e cdd8 733e 9a9d 14be 6d34 4d3e
00000310: 9943 91be db82 ce3d 2d0f 403e 9d91 14be
00000320: aa94 853e a38d 933e d9ab 873d 8709 1cbe
00000330: 018e 3ebe a60d c4bc c00b 713e 7a85 74be
00000340: b8b5 61be 92b9 473d 9e48 d8ba a960 1a3e
00000350: 8851 dd3c e126 373d 1a96 823d af35 93be
00000360: 3698 8fbd b9d0 b33e 99ae 91bd a5e1 9b3e
00000370: 82aa 72bd a53a dd3a e793 bcbe afe0 153b
00000380: 3330 c5be 1e16 dcbd 3c13 913e fb28 8fbe
00000390: 0ad4 39be 0a98 c23d bc90 4bbd b539 52be
000003a0: a279 92be 95f7 523c ff82 68bb 5a2a a33e
000003b0: 869f c5bd f547 87be 749b b0be bcb8 733e
000003c0: bc94 b93e bc8a a03d 0f5b 933c 846d ab3e
000003d0: eba2 043d 8fc5 5e3e 61f3 8fbe 4c22 ffbd
000003e0: 3cd2 3f3d 9014 02bd 717b 973e 182e 51be
000003f0: 2a41 9b3e 6df9 47be b83d 05be ad02 1dbc

mlp.bias f4 [20]
0.084063224 0.07331673 0.26020816 0.17319599 0.002798005 0.14496316 -0.034395378 0.0021499307
0.081180915 0.135055 0.09105926 0.1679988 0.1660553 0.12237425 0.08433603 -0.039317414
0.14088504 0.03188192 0.045094814 0.11205587
00000000: 5729 ac3d 1527 963d 013a 853e 4a5a 313e
00000010: bc5e 373b 3971 143e 2be2 0cbd dae5 0c3b
00000020: 2e42 a63d dc4b 0a3e 477d ba3d e107 2c3e
00000030: 670a 2a3e 5a9f fa3d 5eb8 ac3d 4c0b 21bd
00000040: 2b44 103e 9e96 023d 57b5 383d 8c7d e53d
