rnn_model.pth (torch, 428946 bytes, 32 tensors)

linear1.weight f4 [64, 8]
000000 32 7c 8c bd f5 72 28 3e 72 8a b9 3d 12 11 50 be
       -0.06859626 0.16450103 0.090596095 -0.20319012
000010 0e 6e 6f 3e c2 31 7c 3c 02 d2 fa bb 30 14 7c 3e
       0.23381826 0.015392723 -0.0076544294 0.24617076
000020 79 6f 24 bd 65 01 06 3d 97 b2 56 3b fc db c3 bb
       -0.04014537 0.032716174 0.0032760256 -0.005977152
000030 75 96 e7 bd cd 69 87 3e a5 cf 21 3e 00 2b 50 3e
       -0.11307994 0.26447907 0.15801866 0.20328903
000040 24 6f 91 3e e8 2e c3 bd 7c 8b 8e 3e 6a 59 2f be
       0.28405106 -0.09530431 0.27840793 -0.17123953
000050 78 28 55 3e 13 24 d8 3d 97 15 71 3c f5 0c 83 bb
       0.20816219 0.105537556 0.01471462 -0.0039993473
000060 27 64 3d 3e ab 20 26 bd eb 39 1e be 92 e9 c6 bc
       0.18495236 -0.0405585 -0.15451781 -0.024281297
000070 b0 ce 8e 3e a6 b0 c5 3d 98 1b 13 3e b6 ef fe bd
       0.27892065 0.09652834 0.14365995 -0.12448065
000080 61 6e 5e be 52 49 05 3e 6b ef 82 3e 33 2d 6b 3e
       -0.21721794 0.1301625 0.25573286 0.22966461
000090 a7 40 2d be 86 79 63 be 07 87 17 be 65 0c 08 be
       -0.16919194 -0.22214326 -0.14797603 -0.13285978
0000a0 76 48 8e 3e dc 1f 92 bd 4b 26 0b 3e 72 63 84 3e
       0.27789658 -0.07134983 0.13588826 0.2585712
0000b0 e4 b9 59 3e 71 dc 82 be 8e 13 76 be ce 90 ac 3d
       0.21262318 -0.25558808 -0.24030897 0.08426057
0000c0 f2 7d 33 be 8b 07 01 3d 99 87 a7 bb 18 59 b5 bd
       -0.17528513 0.031501334 -0.0051126 -0.08854884
0000d0 9a 53 11 be d3 47 97 3d 3a c2 02 be 40 bc 78 3c
       -0.14192048 0.07386746 -0.12769404 0.015181601
0000e0 06 14 3a be 2a ec 00 be 79 ec 86 be 8f d9 a1 bd
       -0.18171701 -0.1259009 -0.2635229 -0.07902824
0000f0 35 71 93 be d8 fa 4d 3e 1a ef bb 3c 68 de 4d be
       -0.28797308 0.2011522 0.022941161 -0.20104373
000100 d8 10 db 3c 44 ff 35 3e 99 01 17 be 57 63 b0 bd
       0.02674143 0.17773157 -0.14746703 -0.086126976
000110 29 b8 1b 3e 4d 89 87 3e fd dc 8a 3e b6 72 53 3e
       0.1520697 0.2647194 0.27121726 0.20649227
000120 af 7b 6a bc ed c9 e1 bc f1 21 46 be ea ed 81 be
       -0.014311715 -0.027562106 -0.19348885 -0.25376827
000130 01 bb c6 3d 6a d0 d5 bd 77 71 49 3e 07 95 32 be
       0.09703637 -0.104401425 0.1967219 -0.17439662
000140 89 29 b5 bc 01 d7 dc 3c 08 77 86 bd c7 98 7a 3d
       -0.022114532 0.02695799 -0.06565672 0.061180856
000150 58 94 3d 3e 8b e7 b9 bd c7 05 4e 3d 23 48 03 bc
       0.1851362 -0.090773664 0.05029848 -0.008012804
000160 ca 42 88 be 5b 40 54 be 47 2f 6b bd ad 65 ed bd
       -0.26613456 -0.20727675 -0.057418134 -0.11591659
000170 d3 1a ad 3d f7 42 40 bd 83 18 26 3e dd f4 11 be
       0.08452382 -0.046938863 0.16220288 -0.14253564
000180 f9 82 39 be ee 7c 6d bd b4 32 84 3e 0f ed e6 3c
       -0.18116368 -0.05798047 0.25819933 0.02818921
000190 40 43 3b be cd 9e a9 bc 25 75 6a be e2 f0 42 3e
       -0.18287373 -0.020705605 -0.2289625 0.19037202
0001a0 12 1c 46 3d c2 3b 0d be 92 3c 44 3e 8b b4 2c be
       0.048366614 -0.13792327 0.1916373 -0.16865747
0001b0 8e 74 81 3d 28 5b 8d be 6c 72 4a bc b2 31 22 3d
       0.06321059 -0.2760861 -0.012356382 0.039598174
0001c0 df e8 cb 3d 89 d8 db 3d f3 65 57 be 53 01 8e 3e
       0.09956526 0.1073466 -0.21034984 0.27735385
0001d0 d6 f9 d1 3d a1 d4 7e 3e 55 b3 4f 3e 79 54 85 be
       0.102527305 0.24885799 0.20283253 -0.2604101
0001e0 8f 4a f1 3d 10 27 26 3e 47 f1 b1 3d 34 48 ac bd
       0.11781799 0.16225839 0.08688598 -0.08412209
0001f0 1a 7f 69 be 90 eb 66 3e 35 7b 50 be 7c 2b b7 bd
       -0.22802392 0.22550797 -0.203595 -0.08943841
000200 7c 6a 70 be d7 28 0d 3e 2a 1d 49 3e 4e 70 85 be
       -0.2347812 0.1378511 0.19640031 -0.26062244
000210 00 67 2e bd dd af 88 bd 0e 34 03 3e 79 53 bf bd
       -0.042578697 -0.06674168 0.12812826 -0.09342093
000220 0d 65 78 3e ce ee 39 be 84 cd ac bd 1c 37 7e 3e
       0.24257298 -0.18157503 -0.084376365 0.2482571
000230 d1 cf 6e 3e bc a5 7c 3e aa dd 56 be 4b b5 85 be
       0.23321463 0.24672598 -0.20982996 -0.26114878
000240 e2 32 d0 3d ae d5 a0 bd 21 c2 91 be 20 19 f3 bd
       0.10165955 -0.07853256 -0.2846842 -0.118700266
000250 83 56 6d be 6c 63 85 3e b8 5c 19 3d a6 4b ac 3d
       -0.23177533 0.26052415 0.03744194 0.08412866
000260 93 77 3b 3e 39 50 2c be bc 61 8f be 3b cb 81 3d
       0.18307333 -0.16827478 -0.28004253 0.06337591
000270 45 65 4b 3e da 31 ff bc b7 8a a2 3c 79 7c 24 3e
       0.1986285 -0.0311517 0.019841535 0.16063108
000280 db a0 8a 3b d6 f3 50 3e d2 c1 3f bd a5 97 8a be
       0.0042306012 0.20405516 -0.0468157 -0.2706882
000290 23 fd 86 3e 8c 32 8c be a3 68 7d 3e dc be 3c be
       0.26365003 -0.27382314 0.24746947 -0.18432182
0002a0 3f 81 0e 3e bc 9e fe 3d ac 29 1d be 83 1e 5b be
       0.13916491 0.1243262 -0.15347928 -0.21398358
0002b0 d1 ff 29 be b9 d6 cf 3d fb 7d 82 be 4b de 1e be
       -0.16601492 0.10148377 -0.2548674 -0.15514486
0002c0 64 db 48 3e ea 07 0f 3d fe 26 04 3c 62 14 46 be
       0.19614941 0.034919657 0.008065937 -0.19343713
0002d0 b5 06 4f be 41 4a 35 3e 7f 5f 79 3d 50 c0 82 3c
       -0.20217402 0.17704107 0.060882088 0.015960842
0002e0 0b 2d 88 3e d4 b0 af 3d 5c 92 65 bc 44 02 26 3e
       0.26596865 0.08578649 -0.014011946 0.16211802
0002f0 61 e8 1f be 2d fa 99 bd f2 5e b9 3d 7e 36 2d be
       -0.1561599 -0.0751842 0.090513125 -0.16915318
000300 5d 47 d2 3d fc 01 85 3e 5a 82 85 3e 39 8d 54 be
       0.10267518 0.25978076 0.26076013 -0.20756997
000310 bb 66 4a 3e b5 8b ea 3d 01 77 2c be aa 02 5d bd
       0.19765751 0.11452428 -0.16842271 -0.05395762
000320 7a db 66 3e 04 16 8d 3e f4 49 07 3e 69 8e 7f bd
       0.22544661 0.2755586 0.13211805 -0.062391672
000330 1a 7a a8 3d 99 2e 42 3e e0 9b 57 3d 07 07 25 bb
       0.08226414 0.18963088 0.05263889 -0.002518119
000340 df e7 4d be 36 65 f5 3d ef e4 5f be 25 70 f5 3d
       -0.20107983 0.11982195 -0.21864675 0.119842805
000350 96 1a 27 be 48 29 b3 3b d6 56 c7 bb 13 0d aa bb
       -0.16318735 0.0054675676 -0.0060833497 -0.005189547
000360 1b 85 d6 3d d2 4f 10 be de 46 46 be 10 7f 84 3e
       0.104746066 -0.14092949 -0.19362971 0.2587819
000370 bd f5 5a 3e f7 a6 50 3d fa 36 9a bd 4f 5d 5c be
       0.21382804 0.05094048 -0.07530017 -0.2151997
000380 58 2f 7d 3e 03 4b c2 3b b4 53 9e 3d f3 c1 c2 bc
       0.24725091 0.0059293522 0.07730809 -0.023774123
000390 a1 c7 91 3e eb 73 11 3e 2e 70 1b be fe c5 5d be
       0.28472617 0.14204375 -0.15179512 -0.2165756
0003a0 d7 80 32 3e 44 6e 31 3e a2 ee b9 bd 68 2a 54 3e
       0.17431961 0.17327219 -0.09078719 0.20719302
0003b0 b1 10 19 3d ba 16 db bd 3c 6f 78 3e 7e ef 7e 3e
       0.037369434 -0.10697694 0.24261183 0.24896047
0003c0 53 58 79 be bb e6 a3 bd f2 f8 18 be ed 56 15 be
       -0.243501 -0.08002993 -0.14938715 -0.14583941
0003d0 01 67 01 be 9d 29 47 be c9 fe 1d 3e 3c 6c 30 bc
       -0.12636949 -0.19449468 0.15429224 -0.010767993
0003e0 0b 09 ea bd e4 7b 91 be e6 54 71 be 4b 1b 6c be
       -0.11427506 -0.28414834 -0.23567542 -0.23057286
0003f0 25 e9 b7 bd 40 d2 06 3d 4e 32 12 3e 57 00 87 3e
       -0.08980016 0.032915354 0.14277002 0.26367447

linear1.bias f4 [64]
000000 00 00 00 00 00 00 00 00 00 00 00 00 00 00 00 00
       0.0 0.0 0.0 0.0
000010 00 00 00 00 00 00 00 00 00 00 00 00 00 00 00 00
       0.0 0.0 0.0 0.0
000020 00 00 00 00 00 00 00 00 00 00 00 00 00 00 00 00
       0.0 0.0 0.0 0.0
000030 00 00 00 00 00 00 00 00 00 00 00 00 00 00 00 00
       0.0 0.0 0.0 0.0
000040 00 00 00 00 00 00 00 00 00 00 00 00 00 00 00 00
       0.0 0.0 0.0 0.0
000050 00 00 00 00 00 00 00 00 00 00 00 00 00 00 00 00
       0.0 0.0 0.0 0.0
000060 00 00 00 00 00 00 00 00 00 00 00 00 00 00 00 00
       0.0 0.0 0.0 0.0
000070 00 00 00 00 00 00 00 00 00 00 00 00 00 00 00 00
       0.0 0.0 0.0 0.0
000080 00 00 00 00 00 00 00 00 00 00 00 00 00 00 00 00
       0.0 0.0 0.0 0.0
000090 00 00 00 00 00 00 00 00 00 00 00 00 00 00 00 00
       0.0 0.0 0.0 0.0
0000a0 00 00 00 00 00 00 00 00 00 00 00 00 00 00 00 00
       0.0 0.0 0.0 0.0
0000b0 00 00 00 00 00 00 00 00 00 00 00 00 00 00 00 00
       0.0 0.0 0.0 0.0
0000c0 00 00 00 00 00 00 00 00 00 00 00 00 00 00 00 00
       0.0 0.0 0.0 0.0
0000d0 00 00 00 00 00 00 00 00 00 00 00 00 00 00 00 00
       0.0 0.0 0.0 0.0
0000e0 00 00 00 00 00 00 00 00 00 00 00 00 00 00 00 00
       0.0 0.0 0.0 0.0
0000f0 00 00 00 00 00 00 00 00 00 00 00 00 00 00 00 00
       0.0 0.0 0.0 0.0

rnn.weight_ih_l0 f4 [64, 8]
000000 08 81 58 3d d0 42 37 bd 1c 05 41 bd 40 bb b1 bd
       0.05285743 -0.04474145 -0.047124013 -0.08678293
000010 14 8d cd bd 88 b0 7a 3d f4 f5 08 3d 40 0e 51 bd
       -0.10036674 0.06120351 0.033437684 -0.05103898
000020 98 74 ee bd a0 de 82 3c 5a b7 f2 3d ba 34 c4 3d
       -0.11643332 0.015975296 0.11851378 0.09580369
000030 ec 76 88 bd d2 2d d7 bd 68 08 a5 bd 58 54 71 3d
       -0.066633075 -0.105067864 -0.08058244 0.058918327
000040 d0 0b d4 3d 18 74 27 bd a2 f7 fd bd 48 ab 62 3d
       0.103538156 -0.0408822 -0.12400748 0.055339128
000050 04 af 6c bd c0 30 89 3d 3c 2f fb bd 84 a2 95 bd
       -0.057784095 0.066987514 -0.122648686 -0.07306388
000060 6e 54 b5 bd fe 45 fc 3d da 83 a6 bd 26 b7 dc bd
       -0.08853994 0.123180375 -0.081306174 -0.1077712
000070 b8 8e b5 bd 60 73 d5 3b b0 38 54 bd 76 80 ae bd
       -0.08865112 0.006513998 -0.051811874 -0.08520596
000080 04 4a f3 bd 60 ba d3 3b 2e 8e df bd 20 72 f5 bb
       -0.11879352 0.0064614266 -0.109157905 -0.0074904114
000090 0a a3 c5 bd 38 f0 6c 3d 18 0b 8c bd 5c 75 b3 3d
       -0.09650238 0.057846278 -0.068380535 0.08762619
0000a0 40 f9 c5 3b d6 3c 8a bd ec 5c 9f 3d 00 88 93 3b
       0.006041676 -0.06749885 0.07781395 0.0045022964
0000b0 f0 b5 dd bc 3c 68 63 3d 90 02 4b 3d ec b1 46 3d
       -0.027064294 0.055519328 0.04956299 0.048509523
0000c0 e8 ce 20 3d c8 71 49 3d 58 53 db bd ac ff b2 bd
       0.03925982 0.049180776 -0.10709256 -0.08740172
0000d0 da 20 eb bd a0 e1 51 3d e0 e8 8c 3b f0 0a 23 bd
       -0.11480875 0.051240563 0.004300222 -0.039805353
0000e0 0a e3 db 3d f8 68 3a 3d 1a dd d7 bd 70 ee 2c 3c
       0.10736664 0.045510262 -0.10540219 0.010554895
0000f0 18 36 7d 3d ba ef e3 3d ba fc 9c 3d da ad 9e bd
       0.061819166 0.111297086 0.07665391 -0.07748003
000100 0e 82 d4 3d 9e 9f 8f bd fe c9 80 bd 5c 55 4c bd
       0.103763685 -0.070128664 -0.06288527 -0.049886093
000110 32 c0 d6 3d 9c f7 cd 3d 38 19 d1 bc 4e 6b 91 bd
       0.10485877 0.10056993 -0.02552472 -0.07100545
000120 a8 b1 d7 3d 56 8c b3 3d c0 5b 03 3c c0 d1 7c 3d
       0.10531932 0.08767001 0.00801748 0.06172347
000130 0a d9 f0 bd 8c 4b 06 3d 80 a4 3a 3d d0 a6 61 bd
       -0.11760147 0.03278689 0.045567036 -0.055090725
000140 30 b9 10 bc b4 8b 37 bd 9e 3f 90 bd c2 07 86 bd
       -0.008833215 -0.044810966 -0.07043384 -0.065444484
000150 c8 78 b1 3c 62 5a 87 3d c8 cd 3a bd 12 42 e3 3d
       0.021664038 0.06609036 -0.045606405 0.11096586
000160 04 f1 bd bd f8 9a 22 3d b0 42 b2 3d f8 69 62 3d
       -0.09274486 0.03969857 0.08704126 0.05527684
000170 a8 a8 88 3d 20 d3 be 3b a2 ec 99 3d d6 ae ae 3d
       0.066727936 0.005823508 0.07515837 0.08529441
000180 42 48 c2 bd a6 c7 e6 3d 0a 82 d7 3d 40 0c d1 3b
       -0.09486438 0.11268549 0.1052285 0.006379634
000190 30 18 f9 3c 02 a1 fe 3d 24 07 7d bd 04 96 2a bd
       0.030407041 0.124330536 -0.061774388 -0.041646972
0001a0 c0 29 cf 3c 80 05 7d 3d 7c a3 4a bd 7c 84 5f bd
       0.025288463 0.061772823 -0.049472317 -0.054569706
0001b0 b0 2c 62 3c 50 0c 4d 3d 60 99 05 3c 30 76 24 3d
       0.0138046 0.05006057 0.008154243 0.040151775
0001c0 00 6d b0 ba 40 59 8a 3d f2 05 90 3d 0e 22 ae bd
       -0.0013460219 0.06755304 0.07032384 -0.08502589
0001d0 9c 7a eb 3d 90 24 da bc 9a b8 8f 3d 14 fd 1d 3d
       0.11497995 -0.026628762 0.07017632 0.038571432
0001e0 c0 3a 20 3b e6 90 f4 3d d8 37 ce 3c c6 04 fd 3d
       0.002444908 0.119417 0.025173113 0.12354426
0001f0 20 c5 99 bd f4 eb af bd 1e db 81 3d ec dd 72 bd
       -0.07508302 -0.08589926 0.063406214 -0.059293672
000200 00 72 ef 3a 58 8f 65 bd 00 b3 c6 ba 98 ee be bc
       0.0018268228 -0.056044906 -0.0015159547 -0.02330713
000210 40 91 ec bb 84 34 b3 bd 6c 34 5e bd e4 8e de bd
       -0.0072194636 -0.08750251 -0.054249212 -0.10867098
000220 88 b6 fa bd 78 8d d1 3d 00 e0 50 ba 5a 3d c7 3d
       -0.12241846 0.10232061 -0.0007967949 0.09728499
000230 e8 19 ac bd d0 2a 5a bd fc ac de 3d d0 56 4c 3c
       -0.08403379 -0.053263485 0.10872838 0.01247187
000240 4a f0 a8 3d 84 cb d4 3d 8a f3 d4 3d b8 31 04 bd
       0.082489565 0.1039038 0.10398014 -0.032273978
000250 48 42 36 3d ca 49 83 3d cc 83 79 bd 50 be 39 3d
       0.044496804 0.064105585 -0.060916707 0.04534751
000260 30 4b f5 bd a8 47 84 3c c8 5f 87 3c 50 13 a8 bc
       -0.119772315 0.01614745 0.016525164 -0.020517021
000270 00 24 90 39 32 c5 e5 bd ba 4a 9a 3d fc 36 7a 3d
       0.00027492642 -0.11219253 0.07533784 0.061087593
000280 3a ff cc 3d 1e ec 81 3d c0 5e e3 3d ac 34 14 3d
       0.10009618 0.06343864 0.111020565 0.036183044
000290 92 82 d2 3d 36 72 be 3d 80 b7 31 bb 80 dd 96 3a
       0.102788106 0.09299128 -0.002711743 0.0011510104
0002a0 30 d8 be 3d a8 dc 9c bd ea dd cf 3d 10 a0 96 bc
       0.09318578 -0.07659274 0.101497486 -0.01838687
0002b0 fe cb af 3d 80 6a e9 bc 6a 60 f7 bd c8 81 af 3c
       0.0858383 -0.028493166 -0.120789364 0.02142419
0002c0 32 9c be 3d 26 9c 88 3d aa 3e c8 3d 40 1a 88 bd
       0.09307136 0.06670408 0.09777577 -0.06645632
0002d0 b0 05 00 bc d4 1d 51 3d 74 cc 50 bd c8 96 e4 bd
       -0.007813856 0.051053837 -0.05097623 -0.11161572
0002e0 aa d3 d8 3d e0 80 45 bc 1e b2 80 3d 0a 4a c6 bd
       0.10587247 -0.012054652 0.06283973 -0.096820906
0002f0 b0 fd e2 3d 3a 20 b0 bd 80 75 a4 ba fe 82 8c 3d
       0.11083543 -0.08599897 -0.0012547225 0.06860922
000300 28 d3 c6 3c 38 b6 80 3d 30 81 e8 bd ac 36 f9 3d
       0.024270609 0.062847555 -0.113527656 0.12168631
000310 40 83 f6 bc 00 bc b5 3c 10 d8 3f bc c8 09 ab bd
       -0.030091882 0.022184372 -0.011709228 -0.08351475
000320 68 1f f6 bd 70 22 9e 3d 00 5e b2 3c 76 d7 d6 bd
       -0.12017709 0.07721412 0.021773338 -0.10490315
000330 c2 61 ed 3d 72 9d 8e bd 78 2f a0 bd 90 80 6c bd
       0.115909114 -0.06963624 -0.07821554 -0.057739794
000340 14 c7 45 3d 00 fc 7d b9 30 96 51 3d d0 e7 6d bc
       0.04828556 -0.00024221838 0.05116862 -0.0145206
000350 90 ff 12 bd 8e 2c 81 bd c8 ab 5e bd 00 ec 9f ba
       -0.035888255 -0.06307326 -0.054363042 -0.0012201071
000360 6c 9f 63 3d 70 16 d6 bd e8 7b ec bc 88 22 3e 3d
       0.05557196 -0.10453498 -0.028867677 0.04641965
000370 00 8b 86 3b 00 ba e2 ba 18 ee 8b 3c f0 30 3b 3d
       0.0041059256 -0.0017297864 0.017081305 0.045700967
000380 90 88 bd bc 1c 49 92 bd e0 0d 8e 3c 66 12 a8 3d
       -0.023136407 -0.07142851 0.0173406 0.08206634
000390 78 b5 96 3c 66 1b a1 3d 80 e4 fe bb 00 de 27 3b
       0.018397078 0.07866554 -0.007778704 0.00256145
0003a0 9c 76 aa bd 58 88 da 3d 80 4c 39 3c 54 ce 5b bd
       -0.08323404 0.10670537 0.011309743 -0.053663567
0003b0 62 aa de 3d 36 2d d6 3d 40 85 5c 3c 28 30 e5 bd
       0.10872342 0.10457842 0.013459504 -0.11190826
0003c0 c6 f1 cf 3d 34 5e af 3d ce 03 b5 bd 0c d1 7a bd
       0.101535365 0.0856289 -0.08838616 -0.06123452
0003d0 04 37 06 3d f0 07 fd 3c 0a c8 cb 3d 46 b4 f1 3d
       0.03276731 0.030887574 0.09950264 0.118019626
0003e0 5e 49 9e bd be 55 da 3d 48 29 1e 3d ec a0 28 3d
       -0.077288374 0.10660885 0.038613588 0.041169092
0003f0 62 5c 99 3d ec eb 1f 3d c0 12 ee bc b0 c8 41 3c
       0.07488324 0.039043352 -0.029061675 0.011827633

rnn.weight_hh_l0 f4 [64, 64]
000000 1c 1d a1 3d 94 15 0a 3d 2a 31 93 bd de 5d ff bd
       0.0786688 0.033711985 -0.07187112 -0.124690756
000010 ce 30 ce 3d 80 09 bf 3a e0 90 b1 bc c8 bc 82 3c
       0.100679025 0.0014574975 -0.021675527 0.015959159
000020 b0 86 bc bd 60 9b d1 3c 4c f0 c6 bd 60 0a 66 bc
       -0.09205377 0.025586784 -0.09713802 -0.0140405595
000030 a8 2c 59 3d 28 c1 5b bd 0c 4e ff bd 88 1b a9 3c
       0.053021103 -0.053651005 -0.12466058 0.02064301
000040 b6 73 93 3d 80 b7 38 3b 42 ca c1 bd 00 89 e7 bc
       0.071998045 0.0028185546 -0.09462406 -0.028263569
000050 e8 8d d5 3d 9e 8a 87 3d bc 55 b4 3d dc 36 a9 3d
       0.10427457 0.06618236 0.08805415 0.08262417
000060 a4 8e 1c bd c0 99 26 3c 48 7b a2 3c 08 b6 20 bd
       -0.03822197 0.010168493 0.019834176 -0.0392361
000070 f0 8e e4 bd c4 50 a0 bd 00 07 a5 bc b0 74 1d 3d
       -0.11160076 -0.07827905 -0.02014494 0.03844136
000080 20 da c3 bc 80 47 ef bd b2 c4 db 3d 2e 6b db bd
       -0.023907721 -0.116835594 0.10730876 -0.10713802
000090 a4 58 40 3d 48 62 b7 bd da dd ef 3d 94 ed 5a 3d
       0.046959534 -0.089542925 0.11712237 0.05344923
0000a0 30 e1 78 3c 40 71 e1 3b 40 11 b7 bc 60 fc 81 3c
       0.015190408 0.0068799555 -0.022347093 0.015867412
0000b0 66 4f 93 3d 62 79 98 bd 6a 71 e1 3d 60 56 df bd
       0.071928784 -0.07445027 0.1100796 -0.109051466
0000c0 64 aa 2a bd b0 72 e9 bc 7c 11 59 3d 18 9d e3 3d
       -0.041666403 -0.02849707 0.05299519 0.11113948
0000d0 90 c1 f5 3d 94 d1 de bd 84 21 10 3d 80 8b b7 3c
       0.1199981 -0.108798176 0.035188213 0.022405386
0000e0 54 87 03 3d 5a d6 d9 bd 42 9c ac 3d a8 32 f5 bd
       0.03211148 -0.106365874 0.08428241 -0.119725525
0000f0 88 b9 5d bd 20 64 c6 3c 8e 15 9d 3d 78 d0 4e bd
       -0.054132015 0.024217665 0.07670127 -0.05049178
000100 d8 eb 8e 3d d8 5d 62 3d 90 d8 84 bc a8 e9 bb 3c
       0.069785774 0.055265278 -0.016216546 0.022938564
000110 ac f9 56 bd a8 de f6 3c e4 58 dd 3d 80 aa 59 bd
       -0.0524842 0.030135468 0.1080797 -0.053141117
000120 02 ea f5 3d b8 93 a6 bd 8a e1 98 3d f4 57 94 bd
       0.12007524 -0.08133644 0.07464893 -0.07243338
000130 ea b3 fb 3d 14 4b 69 bd 6c 90 0d bd 12 d2 9a 3d
       0.12290175 -0.056956366 -0.03456156 0.07559599
000140 d0 da 82 bc e4 04 bd 3d 68 7f 76 3d c0 e3 bc bb
       -0.015973479 0.092294484 0.060180098 -0.0057644546
000150 28 aa bb bd 0a eb 96 bd 94 b3 cc 3d 70 4b 55 bd
       -0.09163314 -0.07369049 0.09995189 -0.052073896
000160 a0 23 3c bc 60 d1 97 bd 38 27 ee bd 38 4a 84 bd
       -0.011483103 -0.07412982 -0.11628574 -0.064594686
000170 a6 b5 bd 3d 86 04 b8 3d 34 6c 17 bd 00 ee c1 3b
       0.09263162 0.08985238 -0.036968425 0.0059182644
000180 16 54 e8 bd 7a 88 d3 3d 1c b7 91 3d ec b1 b6 bd
       -0.11344163 0.10328765 0.071150035 -0.08920655
000190 a2 ef bf bd 24 a2 17 bd 2c 49 9b bd 04 f5 31 3d
       -0.09371878 -0.037019864 -0.07582316 0.043446556
0001a0 9c a4 b9 bd 58 5e 42 bd 9a 8d be bd a0 66 dc bc
       -0.090646 -0.047453254 -0.09304352 -0.026904404
0001b0 88 61 e3 3c 08 fc b6 bc 20 18 95 3d 34 d6 0b 3d
       0.027756467 -0.022336975 0.07279992 0.034139827
0001c0 e0 ab fb 3c 40 22 a2 3d 42 f2 c5 3d 50 e8 31 bd
       0.030721605 0.07916689 0.09665348 -0.04343444
0001d0 a0 64 ed 3b 78 56 45 3d 64 15 9f 3d 9e 36 94 bd
       0.0072446615 0.048178166 0.07767752 -0.0723698
0001e0 32 b2 f6 bd d2 a0 e1 3d f2 04 d9 bd 08 19 33 bd
       -0.12045707 0.11017002 -0.10596646 -0.043725044
0001f0 d8 6b 54 bd a0 82 3b 3c 5a e5 ca 3d 04 a0 3e bd
       -0.05186066 0.011444718 0.099070266 -0.04653932
000200 1c 05 28 3d 44 b1 18 bd b8 9d a4 bd 30 fa bf 3d
       0.041020498 -0.03727843 -0.08037895 0.09373891
000210 46 4b 84 3d 48 1c 65 bd 38 e1 7b 3d 2c 9e 23 3d
       0.0645967 -0.055935174 0.061494082 0.039945766
000220 a0 14 b6 bd 80 fa 27 bb 24 d8 c9 3d 80 e1 57 3b
       -0.08890653 -0.0025631487 0.09855679 0.0032940805
000230 ec 1e d2 3d d0 02 a4 3c 88 44 ea 3d 54 ec 16 bd
       0.10259804 0.020020872 0.114388525 -0.036846474
000240 50 d7 3d 3d a6 a1 bb bd 24 57 94 3d d8 14 df bd
       0.046347916 -0.09161691 0.07243183 -0.108926475
000250 e8 43 8b bc 12 43 ac bd 28 b4 e0 bd 3a 45 c5 bd
       -0.017000154 -0.0841123 -0.10971862 -0.096323445
000260 2a 38 8c bd 84 40 ad bd ea 66 a4 bd 0c 67 0c bd
       -0.0684665 -0.08459571 -0.08027442 -0.03427796
000270 90 02 65 3d d0 04 b0 3c 7a 95 9d bd e0 59 61 3c
       0.055910647 0.02148667 -0.07694526 0.013754338
000280 d2 26 8c 3d 68 e7 fe 3d c0 48 11 3b 9e 26 b9 bd
       0.06843342 0.12446481 0.0022168607 -0.09040569
000290 f0 18 c4 3c 00 e6 dd 3c 28 4e 33 3d b4 3e ba bd
       0.023937672 0.027087212 0.043775707 -0.09093991
0002a0 98 dc 7d 3d d0 9d 96 bd 38 a1 8a bd 70 1c 99 3d
       0.061977953 -0.07354319 -0.06769031 0.07476127
0002b0 2e 6d fe bd 22 93 bc bd 00 a3 ef 3a 00 1d 77 ba
       -0.12423168 -0.09207751 0.0018282831 -0.00094266236
0002c0 82 90 e3 3d a0 15 01 3d 68 86 b1 bd 54 f7 3a bd
       0.11111547 0.031514764 -0.08668214 -0.045646027
0002d0 7c 2d 8f bd 00 7d cb bc 68 28 37 bd f6 a1 f2 3d
       -0.06991097 -0.024839878 -0.04471627 0.11847298
0002e0 70 aa ef 3c 74 a8 06 3d 78 8d 12 3d d8 c0 c9 bc
       0.029256076 0.032875493 0.035779446 -0.024628088
0002f0 f2 07 a7 bd 40 34 4f bb e8 96 bd 3c a8 e2 25 3d
       -0.08155812 -0.0031616837 0.023143247 0.04049936
000300 e0 a8 c4 bc 02 a7 ac bd 20 57 d0 bd de b9 8b bd
       -0.024006307 -0.08430292 -0.10172868 -0.06822561
000310 08 42 e0 3d 94 ce 1c 3d 1a d3 fb 3d 82 c1 bc bd
       0.109500945 0.038282946 0.12296124 -0.09216596
000320 70 6f b7 bd b0 16 e8 3d 5e ab 9a 3d ae 1e c8 3d
       -0.08956802 0.11332452 0.07552217 0.09771477
000330 00 e3 55 3c 12 83 ee 3d b8 ef ee 3c 78 4b ee bc
       0.013054609 0.116460934 0.029167041 -0.02908872
000340 aa 35 a4 3d 30 30 54 3d 44 1b 42 3d 50 55 87 3c
       0.08018048 0.051803768 0.047389284 0.016520172
000350 7a 4d d2 3d 64 52 8b 3d 84 73 2a 3d 94 d3 6b bd
       0.10268684 0.06802824 0.04161407 -0.057574823
000360 6c 3e 24 3d 4c 50 f1 bd 50 a6 4e 3c 78 44 da bd
       0.040098593 -0.117828935 0.012612894 -0.10657591
000370 dc 01 b6 bd a8 89 3c bd c0 6b 42 bd 44 7a d7 bd
       -0.088870734 -0.046029717 -0.04746604 -0.10521367
000380 12 05 c2 bd 60 b2 bf 3c 62 ba e6 bd 30 98 dd bc
       -0.09473623 0.023400486 -0.112660185 -0.027050108
000390 5a 78 94 3d 00 f2 5b ba 50 12 76 bc 40 6d dc 3d
       0.07249518 -0.0008390248 -0.0150190145 0.10763025
0003a0 80 4f 2b bc a0 cb b4 bd f8 76 83 bc 86 3a e1 bd
       -0.010455966 -0.08827901 -0.01604794 -0.109974906
0003b0 fa 22 ca bd f8 b2 cc bd 32 13 e5 3d b0 36 61 bd
       -0.098699525 -0.09995073 0.11185302 -0.054983795
0003c0 44 2c c3 bd 54 c8 59 3d e0 74 3d bc d0 9e 90 bc
       -0.095299274 0.053169563 -0.01156351 -0.017653853
0003d0 88 56 52 bd a4 8c c7 3d 5e 1f d2 bd 40 dc 42 bb
       -0.051352054 0.09743622 -0.10259889 -0.002973333
0003e0 9e bd 99 3d 54 b6 35 3d a8 be 82 3c 60 80 e0 3b
       0.0750687 0.044363335 0.015960053 0.006851241
0003f0 02 5d c8 3d b0 b7 4a bd 6c 07 9e 3d 66 45 c8 3d
       0.09783365 -0.049491584 0.07716259 0.09778862

rnn.bias_ih_l0 f4 [64]
000000 7c 47 b0 bd f8 cf 33 3d de d6 db bd 48 bb 21 3d
       -0.086073846 0.043899506 -0.10734342 0.039485246
000010 7c 93 a5 bd 40 b9 82 3d 42 f6 85 bd 34 50 19 bd
       -0.08084771 0.0638299 -0.065411106 -0.037430003
000020 40 05 f0 3d f4 69 81 bd f8 b3 75 3d 0a 70 c2 bd
       0.11719751 -0.06319037 0.059986085 -0.09494026
000030 0e 28 b9 bd 70 84 bd 3d 24 f7 ef 3d 52 51 ba 3d
       -0.09040843 0.09253776 0.1171706 0.09097542
000040 0a 1b c3 3d e0 82 91 bc 76 8a b8 bd 0a ee c1 bd
       0.09526642 -0.017762601 -0.09010784 -0.094692305
000050 90 84 1e 3d c0 72 8f 3c 64 fb 6c bd be 4d e2 bd
       0.03870064 0.017510772 -0.057856932 -0.110499844
000060 6c 40 1b bd bc 82 90 3d a8 57 5a 3d 00 b5 b7 3d
       -0.037903234 0.070561856 0.05330625 0.0897007
000070 00 cc da 39 58 35 6a 3d b8 1f e9 bd 50 11 23 3d
       0.00041732192 0.05717978 -0.11383003 0.039811432
000080 f0 43 c8 3d 08 3c 1e 3d 80 2a 39 3d 30 ba 4a 3c
       0.09778583 0.03863147 0.045206547 0.012373492
000090 c4 b6 c2 bd f0 1d 54 3c 54 8f 63 bd 7a 68 d4 bd
       -0.09507516 0.012946591 -0.05555661 -0.1037149
0000a0 ee f3 ed 3d 14 26 e6 3d 0e b2 c7 3d 24 c2 3e 3d
       0.116187915 0.112377316 0.09750758 0.046571866
0000b0 be 91 c8 3d e0 0a 32 bd 46 aa da 3d b0 06 21 3d
       0.09793423 -0.043467402 0.10677008 0.03931302
0000c0 c4 09 ea 3d 60 c8 3d bd 10 4c e1 bd 58 fe 9c 3c
       0.11427644 -0.04633367 -0.11000836 0.01916425
0000d0 b8 38 b7 bd 8e 45 cf 3d 8c 74 77 3d 4a b0 fa 3d
       -0.08946365 0.101206884 0.060413882 0.12240656
0000e0 40 1b 94 bc b0 e9 dd bc 4e 06 db bd ae 46 96 bd
       -0.0180794 -0.02708897 -0.10694562 -0.073377
0000f0 a6 60 9c 3d 52 06 81 3d 48 f3 cf 3c 18 0b d2 3c
       0.07635622 0.06300034 0.02538456 0.025640056

rnn.bias_hh_l0 f4 [64]
000000 48 b6 d8 3d a4 7c 82 bd da 50 fa bd a8 df 78 3d
       0.105816424 -0.063714296 -0.122224525 0.06076017
000010 ee 3a f5 bd 80 ec 89 3d 0c 6f 2a 3d 10 0c 0c bc
       -0.119741306 0.06734562 0.04160981 -0.008547798
000020 80 60 72 bc c4 cc 08 3d 6a 2a b6 3d 60 4b ca bb
       -0.014793515 0.033398405 0.088948086 -0.006173536
000030 40 fc 57 bd 50 c6 0b bd b0 05 6c 3d a4 0e dc bd
       -0.0527308 -0.034124672 0.05762261 -0.1074498
000040 14 02 b4 bd f4 2c aa bd 80 1a d6 bb 10 5d a9 bc
       -0.08789459 -0.083093554 -0.0065339208 -0.020674258
000050 f2 92 ae bd c6 33 c2 bd 80 7e 78 3c 28 f3 80 3c
       -0.08524121 -0.09482531 0.015166879 0.015740946
000060 40 da ee 3d 00 be 0a bb 50 8c ba bc 4a da fb bd
       0.11662722 -0.0021170378 -0.022771984 -0.12297495
000070 6c 89 26 3d dc 7d cd 3d f0 82 54 3d 1e d1 a8 3d
       0.0406584 0.100337714 0.051882684 0.08243011
000080 c4 e0 99 bd 60 53 8f bb bc 2e d5 bd dc c4 fd bd
       -0.07513574 -0.0043739527 -0.104093045 -0.123910636
000090 b0 89 14 3c e8 f6 f8 bc 54 ed 83 bd d8 5b 3e 3d
       0.00906603 -0.030391172 -0.06441751 0.046474308
0000a0 68 28 74 bd 8e 27 e7 3d a0 93 c9 bd c4 ee 3f 3d
       -0.059608847 0.11286841 -0.0984261 0.046858564
0000b0 e8 48 cb 3c 38 5e 65 3d b8 9c de bd ec d3 53 3d
       0.024815038 0.055998057 -0.108697355 0.051715776
0000c0 54 8e c5 bd a0 cc 78 bd 20 14 13 bd e4 13 c5 3d
       -0.096462876 -0.06074202 -0.035907865 0.096229345
0000d0 f8 2d 91 bd c0 3b dd bc 62 9c fb 3d a8 64 c8 3c
       -0.07088846 -0.02700603 0.12285687 0.02446206
0000e0 6c 10 e2 3d f4 16 05 3d 98 44 8d bc 06 13 d9 bd
       0.110382885 0.032492593 -0.017244622 -0.105993316
0000f0 fa da d1 3d 30 89 28 bd 94 1f 41 bd 10 5d 45 3d
       0.102468446 -0.041146457 -0.047149256 0.048184454

rnn.weight_ih_l1 f4 [64, 64]
000000 00 b8 ae b8 38 a5 9e bd 18 02 25 bd f8 0b f4 3d
       -8.331239e-05 -0.07746357 -0.0402852 0.11916345
000010 ac ba f3 3d a8 2b 6b bd c8 bf a8 bd a0 f9 db bd
       0.11900839 -0.05741468 -0.08239704 -0.107409716
000020 30 cb a0 3d 76 10 cd 3d bc 0a 8d bd 98 8e 4b bd
       0.07851255 0.10012905 -0.06886813 -0.049696535
000030 58 c8 f9 bc f8 da 21 bd 88 a9 87 3d 60 2e bd bd
       -0.03049104 -0.039515465 0.066241324 -0.09237361
000040 c4 7d c6 bd 5c e0 e5 3d 00 53 fd 3a 90 13 ea 3c
       -0.09691957 0.11224434 0.0019327104 0.028573781
000050 24 d9 50 3d e0 b8 b3 bc 30 31 85 bd 40 03 c1 3c
       0.05098833 -0.021938741 -0.065035224 0.02356112
000060 54 f6 ab 3d b8 7f 4f bd a8 dd a2 3c 64 e0 eb 3d
       0.08396593 -0.05065891 0.019881085 0.115174085
000070 74 0b 7d 3d f8 29 b3 3c 3a 96 c6 3d ba 77 b0 bd
       0.0617785 0.021870598 0.09696622 -0.08616586
000080 50 11 a4 3d a0 ca 80 3b 48 ee 28 bd 58 f3 13 3d
       0.080111146 0.003930405 -0.041242868 0.036120743
000090 00 ae af 3b 64 d9 a5 bd 20 9d 83 bd f4 43 90 3d
       0.0053613186 -0.080981046 -0.064264536 0.07044211
0000a0 88 49 8a 3d 78 51 b0 bc 80 3a f9 bc e4 21 19 bd
       0.06752306 -0.021523222 -0.030423403 -0.037385836
0000b0 54 8e 45 3d d0 df 62 bc 40 11 82 3d c8 85 b4 3d
       0.048231438 -0.013847306 0.063509464 0.08814579
0000c0 70 e7 a7 3d 8c 41 7c 3d 84 c6 79 bd 40 11 93 bc
       0.0819844 0.061585948 -0.060980335 -0.017952561
0000d0 e0 db 06 bc 82 3f b9 3d 14 f8 80 3d c0 6c 20 3c
       -0.008231133 0.09045316 0.06297317 0.009791553
0000e0 72 6a dd bd 10 c9 c8 bd e0 5b ad 3c 72 a2 be bd
       -0.108113185 -0.09803975 0.021161973 -0.09308328
0000f0 70 c4 31 3c 64 45 22 bd 48 05 6e 3d de 85 86 3d
       0.010850057 -0.039616957 0.058110505 0.06568502
000100 68 e7 fe 3d 20 62 af bb 28 f8 c9 3c 60 68 9d bb
       0.12446481 -0.0053522736 0.024654463 -0.0048037022
000110 4a 74 c8 bd a0 90 79 3c 78 51 a2 bd 10 2a 2d bd
       -0.097878054 0.015232235 -0.07925695 -0.042276442
000120 b8 64 bf 3d 52 d0 9d bd e0 87 d8 3d 90 99 66 3c
       0.093453825 -0.077057496 0.10572791 0.014074698
000130 d8 ad 65 3d 98 b8 be 3c ce 7d de 3d 96 a5 8a 3d
       0.056073993 0.02328138 0.10863839 0.06769864
000140 00 45 5e bb 6c 66 5e 3d f0 7d a7 bd 72 64 82 3d
       -0.003391564 0.054296896 -0.081783175 0.06366815
000150 9c 9f 80 3d 12 f9 a8 bd 52 ed ba 3d d0 f5 42 bd
       0.06280443 -0.082506314 0.091272965 -0.047597706
000160 c0 87 40 bc 16 61 d2 bd a6 a0 fd bd c4 d1 97 3d
       -0.011751115 -0.10272424 -0.12384157 0.074130565
000170 62 9c 9e 3d 80 ed de 3d c8 dd f6 3c 10 e2 33 3c
       0.077446714 0.10885143 0.03013505 0.0109791905
000180 0c fe 5b 3d 1c 0a e5 3d 18 7f b2 3d d4 d7 49 3d
       0.053709075 0.11183569 0.087156475 0.049278095
000190 5a 71 e8 bd 7c 8e dd 3d 24 d2 dc bd d2 6c 93 bd
       -0.11349745 0.10818192 -0.10782269 -0.0719849
0001a0 14 bf 9b 3d 32 58 ef bd ae db ff bd fc 5d 5d 3d
       0.07604805 -0.11686744 -0.124930725 0.05404471
0001b0 bc aa 8d 3d cc 74 a1 3d c0 35 a5 3c 46 3b aa 3d
       0.069173306 0.07883605 0.020167232 0.08312087
0001c0 f8 51 ed 3d c0 3f f8 3d 80 f9 8a 3d a0 7f a7 3b
       0.115879 0.12121534 0.067858696 0.0051116496
0001d0 fa 03 85 3d 3a da c6 bd 56 7f e7 3d 18 a5 c4 bd
       0.06494899 -0.09709592 0.11303584 -0.09601802
0001e0 a0 b1 2e bd 80 96 a0 bb 80 ef dd 3a 60 7a 4a bc
       -0.042649865 -0.0049007535 0.0016932338 -0.012358278
0001f0 9a 29 82 bd a0 24 0f 3c 74 18 44 bd 20 79 ec bb
       -0.06355591 0.008736759 -0.047874883 -0.0072165877
000200 36 b4 8f bd 3e 1e 8e 3d 8c 8b 72 bd 64 8f 2e 3d
       -0.070167944 0.06939362 -0.059215114 0.042617217
000210 40 3a 5a bb fe 7f bb bd 12 d1 de bd 50 d8 f8 bc
       -0.003329888 -0.09155272 -0.10879721 -0.030376583
000220 22 d0 cc bd 28 d0 76 bd 90 b2 0f bc 66 ef a3 3d
       -0.10000636 -0.060257107 -0.0087706 0.08004646
000230 a0 71 a6 bc b8 6e f3 bc 8e 1b e7 bd bc 1c 5c bd
       -0.020317852 -0.02971588 -0.112845525 -0.05373834
000240 e4 ff cd 3d 98 fa 5f 3d 38 4f 34 bd ca 95 93 3d
       0.10058573 0.054682344 -0.04402086 0.07206304
000250 58 68 95 bc 8c 21 ed 3d 00 0a a3 3b bc 1c ca 3d
       -0.018238232 0.11578664 0.0049755573 0.09868762
000260 80 a8 80 bd 08 f8 c0 3c b8 81 72 bd 78 5b c5 3c
       -0.06282139 0.02355577 -0.05920574 0.024091467
000270 5e 6b c8 3d 9a e9 ec bd a2 d2 dc 3d 38 55 9b bc
       0.09786104 -0.115679935 0.107823625 -0.018961534
000280 00 a0 dc ba 64 a0 05 3d 34 2d 2e 3d f0 3a 6e 3d
       -0.0016832352 0.032623664 0.042523578 0.058161676
000290 56 81 f6 3d a0 7b 10 bd 96 84 96 3d c0 9d de bc
       0.120363876 -0.035274148 0.073495075 -0.02717483
0002a0 5c 04 6c bd 3c 78 51 3d dc c6 c2 bd 5a 6b c1 bd
       -0.057621345 0.051140055 -0.09510586 -0.09444304
0002b0 24 b5 3a 3d c8 be f8 bc 0c bc d3 3d 80 01 c7 3b
       0.045582905 -0.03036441 0.103386015 0.006073177
0002c0 08 f6 46 3d 64 cf a3 bd 9a 10 b4 bd 08 65 82 3d
       0.048574477 -0.07998541 -0.08792229 0.063669264
0002d0 98 44 47 3d c8 88 f2 bd 82 7e e4 bd f0 64 eb 3c
       0.0486494 -0.11842495 -0.11156942 0.028734654
0002e0 50 17 00 3c 44 87 06 3d 00 15 62 3b 30 30 71 3d
       0.007818058 0.032843843 0.003449738 0.058883846
0002f0 88 b8 74 3d 00 ce 93 3b 50 d3 65 3d 60 26 3b bd
       0.059746295 0.004510641 0.056109726 -0.045690894
000300 60 1a 64 3d 00 5d e8 bd bc 6a 04 bd 36 f1 cf bd
       0.055689216 -0.11345863 -0.032328352 -0.10153429
000310 0e 83 d6 3d b2 6f 80 bd f4 96 42 bd 40 fd b2 3d
       0.104742154 -0.06271304 -0.04750724 0.0873971
000320 fe e2 b9 bd c8 96 53 3d 14 6e 4f bd 54 6d 94 bd
       -0.090764984 0.051657468 -0.050642088 -0.07247415
000330 00 c7 85 3b 88 3e 48 bd e4 89 87 3d be dd de bd
       0.0040825605 -0.04888776 0.066180974 -0.10882138
000340 e0 a4 2e 3c d4 f4 2c 3d b8 a1 f8 bd 60 5b 91 3d
       0.010659426 0.042225674 -0.121402204 0.070975065
000350 6a 5c f5 bd f0 ea 63 bd 70 20 a6 3d 80 48 cc 3d
       -0.11980517 -0.055643976 0.08111656 0.09974766
000360 08 4c 15 bd 68 1f d0 3d e0 ea 19 3c 0c fa 6c 3d
       -0.036449462 0.1016224 0.0093943775 0.05785565
000370 7c b8 3c 3d 64 4d 96 bd a2 36 bb bd 22 59 d7 3d
       0.046074376 -0.0733898 -0.0914128 0.105150476
000380 58 e9 34 3d 10 c9 f7 bc b0 4a 7c 3d 60 7a d9 bb
       0.044167846 -0.030247241 0.061594665 -0.0066369027
000390 ec 03 f7 bd c2 5a c2 3d 58 64 e3 3c 74 41 6c 3d
       -0.12061295 0.09489967 0.027757809 0.05767961
0003a0 c8 0f cc 3d da c6 af 3d e6 5d d7 3d f0 79 c1 bd
       0.099639475 0.0858285 0.105159566 -0.09447086
0003b0 90 65 1a 3d 12 be 8e bd 7c 4a cc 3d 80 65 52 3b
       0.037694514 -0.06969847 0.09975144 0.0032103956
0003c0 52 26 e5 bd 90 07 cf 3d 00 a0 31 3b 50 51 42 bc
       -0.1118895 0.10108864 0.0027103424 -0.011860207
0003d0 ca 71 94 3d 68 cd 1e 3d 00 ca 02 bb 72 9d b2 3d
       0.07248266 0.03877011 -0.0019956827 0.087214366
0003e0 c4 cc 15 3d d0 91 c8 3c 20 8d f2 bd c0 91 18 bd
       0.036572233 0.024483591 -0.11843324 -0.037248373
0003f0 ac 49 57 3d da f2 ae 3d 84 a4 74 3d e0 8f 5a bd
       0.052560493 0.08542414 0.059727207 -0.053359866

rnn.weight_hh_l1 f4 [64, 64]
000000 80 db 68 bd cc b4 a1 bd 80 c1 2b 3b 26 61 e9 3d
       -0.056849957 -0.078958124 0.0026207864 0.11395483
000010 b4 f3 7b bd 36 7e fa bd 92 4f c6 bd e8 e8 d9 3d
       -0.06151171 -0.12231104 -0.096831456 0.106401265
000020 12 2f bb bd 08 55 54 3d 80 b4 42 3b a0 0b 32 3c
       -0.09139837 0.051838905 0.0029709637 0.010867029
000030 5e 85 b1 3d 58 5f ff 3d ec ac 50 bd f0 00 88 3d
       0.08668016 0.12469357 -0.05094616 0.06640804
000040 1c 8d 60 3d b8 fe d7 bd 68 7f 7e bd 68 ce c3 3c
       0.054822072 -0.105466306 -0.062133223 0.023902133
000050 10 17 be bd f4 ec 9e bd 04 65 6d 3d 80 44 55 3c
       -0.092817426 -0.07760039 0.057957664 0.01301682
000060 58 ff e1 bd 5e 17 91 3d c0 d2 a9 bd 62 9b dd 3d
       -0.11035031 0.07084535 -0.082921505 0.108206525
000070 38 be 7b bd 08 d7 c2 bd 50 04 7d 3c 98 44 7b 3d
       -0.061460704 -0.0951367 0.015442923 0.061344713
000080 bc e9 51 3d b2 84 97 bd 00 e6 97 3b 26 57 bb 3d
       0.051248297 -0.073983565 0.0046355724 0.091474816
000090 26 dc aa 3d 50 a0 32 bd 54 24 e0 3d c0 d5 6f 3b
       0.08342771 -0.043609917 0.10944429 0.003659591
0000a0 60 c6 98 bd 30 97 57 bc c0 e4 0c bd 1c 75 4e 3d
       -0.07459712 -0.0131586045 -0.03439784 0.050404653
0000b0 4c 47 3f bd c0 77 59 3d 4a 03 a0 bd 18 be 74 bd
       -0.046698853 0.053092718 -0.07813127 -0.0597516
0000c0 b4 57 8a bd e0 d2 9f bc e6 8c d3 3d 14 a3 5e bd
       -0.06755009 -0.019509733 0.103296086 -0.054354742
0000d0 f0 0c 03 3c b0 8d 35 bc 10 fb 46 bd c6 11 d6 3d
       0.00799869 -0.011081144 -0.048579276 0.10452609
0000e0 b6 b1 de bd e0 e9 a7 bd 18 89 c6 bc c2 65 b9 bd
       -0.108737394 -0.08198905 -0.024235293 -0.09052612
0000f0 ee eb a3 bd 74 26 6b bd 0c ac b8 3d 0c e8 e6 3d
       -0.080039844 -0.05740972 0.0901719 0.11274728
000100 68 81 9e bd f4 5a 0d 3d d4 af 43 3d d0 a4 5d 3d
       -0.07739526 0.034510568 0.047775105 0.054112256
000110 74 aa 99 3d 5e 5c c6 3d b8 69 22 bd 54 9f 92 bd
       0.075032145 0.096855864 -0.039651603 -0.07159296
000120 36 ce 92 3d f4 98 6c 3d fe 38 f5 bd ca ac 9e 3d
       0.07168238 0.057763055 -0.11973761 0.07747801
000130 30 d6 c0 bc 18 48 92 3c 40 3e 30 3d 78 08 72 3d
       -0.023539633 0.017856643 0.043028116 0.059090108
000140 d8 0d 97 bd 5a 29 9a bd 54 7c 4a bd c0 c9 44 3d
       -0.07375687 -0.075274184 -0.049434975 0.048043966
000150 ac cf c3 3d 80 43 8c 3d 68 0f a5 bd a0 65 1d bd
       0.09561095 0.06848812 -0.08059579 -0.038426995
000160 40 c0 0f bc 70 4c 7b bd 82 10 c2 3d 24 9b 73 bd
       -0.008773863 -0.061352193 0.09475805 -0.059474126
000170 e6 1c f6 bd 40 64 fc 3c 94 1a 21 3d 20 c6 30 bc
       -0.12017231 0.030809522 0.039331988 -0.010789424
000180 14 a0 84 bd 40 6c 2e bb 16 b7 a3 3d a4 5a 18 bd
       -0.06475845 -0.0026614815 0.07993905 -0.037195817
000190 2c a8 af 3d ba 7d e0 bd e2 04 ed 3d 72 f6 b9 bd
       0.08576998 -0.109614804 0.11573197 -0.09080209
0001a0 20 4d 96 bb c0 14 9b bb d8 fd 7c 3d a8 1d 27 bd
       -0.0045868307 -0.004732698 0.06176552 -0.040799767
0001b0 6a 55 fc bd 78 4b aa 3d f6 6e c2 3d 60 b6 90 3c
       -0.12320979 0.08315176 0.0949382 0.017665088
0001c0 e0 93 d1 bd 04 0c b9 3d 28 6d e8 3d 90 7b 0a bc
       -0.10233283 0.09035495 0.11348945 -0.008452311
0001d0 90 41 03 bd 52 01 85 3d 80 ff a7 3b 70 ba 5b 3c
       -0.032044947 0.064943925 0.0051268935 0.013411149
0001e0 54 bc 6c bd e0 30 a7 3c 68 40 b4 3d c4 ad 6c bd
       -0.05779679 0.020409048 0.08801347 -0.057782903
0001f0 aa a2 88 3d 00 c7 6f bb 74 79 7f bd 04 89 6b bd
       0.06671651 -0.003658712 -0.062371686 -0.057503715
000200 08 62 cc 3c ac 2e bf bd e0 9d 9e bd 28 21 04 bd
       0.024949089 -0.09335074 -0.07744956 -0.032258183
000210 00 ac 19 b9 48 fa d7 3c 48 a2 29 3d 30 b7 31 bc
       -0.00014655292 0.02636446 0.04141453 -0.010846898
000220 6e 5f b3 3d 60 35 c1 bc 72 44 d0 3d e8 aa bc bc
       0.08758436 -0.023585021 0.10169305 -0.023030713
000230 24 b0 64 3d de 01 91 bd 98 2a 1b 3d 68 ec 35 3d
       0.055832043 -0.07080434 0.037882417 0.044414908
000240 a8 4d c0 bc 9e dd 82 3d 88 ac b2 bd 98 f6 a8 bd
       -0.02347453 0.063899264 -0.08724314 -0.08250159
000250 88 b4 be bc 5c 61 d0 3d e0 0d a2 bd 70 2d 8e 3c
       -0.023279443 0.1017482 -0.07912803 0.01735565
000260 f0 cc 97 bc f0 2c 22 bc 6c e8 38 bd 56 4a a7 bd
       -0.018530339 -0.009898409 -0.04514353 -0.08168475
000270 14 99 23 3d 1c ca e6 bd 18 19 9a 3d 5a b9 a5 bd
       0.03994091 -0.11269018 0.075243175 -0.08091994
000280 80 11 03 3d c0 ac 51 3c 38 11 d8 bd 54 42 c6 3d
       0.03199911 0.0127975345 -0.10550159 0.0968062
000290 ec 19 8a 3d 78 c9 8d 3d 4c 03 53 bd 7e 0c b3 3d
       0.067432255 0.06923193 -0.051516816 0.08742617
0002a0 aa 69 e6 bd 68 a5 bc bd a8 8a 51 bd 90 a3 ef bd
       -0.112506226 -0.09211236 -0.051157624 -0.11701119
0002b0 d4 8a 53 bd c6 7e c8 bd 84 9f a0 bd e4 9c 40 3d
       -0.05164607 -0.09789805 -0.07842925 0.047024623
0002c0 e8 20 86 bc 20 87 6f bd 36 24 8b 3d 88 bd fa bd
       -0.016373113 -0.058478475 0.06794016 -0.122431815
0002d0 be c2 e3 bd 30 57 65 bd a8 ab 56 3d 1c db dc 3d
       -0.111211285 -0.05599135 0.052409798 0.10783979
0002e0 f0 d5 b2 3c b0 e8 d6 3c 04 ca 73 bd 58 9a a0 3d
       0.021830529 0.026234 -0.05951883 0.07841939
0002f0 a0 8e 78 bc 3a 75 ca bd 40 e9 ba bc 48 0e 04 bd
       -0.015170723 -0.098856404 -0.0228163 -0.032240182
000300 60 f1 ab 3c be d6 a6 3d 64 af 99 bd d4 75 43 bd
       0.02098912 0.081464276 -0.07504156 -0.04771979
000310 8c 60 b0 3d 60 8f e9 bc 2e f0 fd 3d da 39 84 bd
       0.08612165 -0.02851075 0.12399326 -0.06456347
000320 28 69 ad 3c a0 68 93 3d 24 1b c1 bd 50 0a 92 3d
       0.021168306 0.0719769 -0.09429005 0.07130873
000330 da 40 8b bd 54 e4 32 3d d0 1e 3d bc 00 e1 03 bd
       -0.06799479 0.043674782 -0.011542991 -0.032197
000340 60 4e cd bd f0 64 05 bc 4e 24 a6 bd a6 56 8f bd
       -0.100247145 -0.008141741 -0.08112393 -0.06998949
000350 58 57 c3 bd 08 c9 d6 bd 30 5a 03 3c 8e fc 8e 3d
       -0.09538144 -0.104875624 0.008017108 0.06981765
000360 a4 3a cb bd 84 4f 26 3d 08 e9 a6 bd e2 99 a5 3d
       -0.09923294 0.040603176 -0.08149916 0.080859914
000370 d4 1f 15 bd e0 67 f2 bb 00 a0 01 bb 66 35 c8 bd
       -0.036407307 -0.007397637 -0.0019779205 -0.0977581
000380 54 98 df bd 48 da b1 3c 00 e0 d9 bb 00 7d bb bb
       -0.10917726 0.02171053 -0.0066490173 -0.0057216883
000390 34 52 8b bd b8 08 c7 3c e0 31 88 3d 94 f3 e1 3d
       -0.068027884 0.02429615 0.06650138 0.11032787
0003a0 56 29 b8 3d f0 08 fa bc 44 59 cd 3d 40 57 0c bb
       0.08992259 -0.03052184 0.10026792 -0.002141431
0003b0 48 e1 6e 3d d0 f3 e5 bd 30 2f 95 3c 70 c4 39 bc
       0.058320314 -0.11228144 0.018210977 -0.011338338
0003c0 00 b7 7f bb 14 ff f0 bd 8e 9e 86 3d 68 fc 03 3d
       -0.0039018989 -0.11767402 0.06573211 0.032223135
0003d0 aa 83 ee bd 30 2b cd bc 36 c7 90 3d f8 5e 97 bd
       -0.11646207 -0.025045007 0.070692465 -0.07391161
0003e0 48 dd 31 3d e4 4a 53 3d 58 ba 4f bd 24 6f 2e 3d
       0.04342392 0.051585093 -0.05071482 0.04258646
0003f0 a0 49 58 bc 08 91 b3 3d 00 5c d7 3b 14 81 4a bd
       -0.013201147 0.08767897 0.0065722466 -0.049439505

rnn.bias_ih_l1 f4 [64]
000000 cc e3 5a bd 10 ef c0 3d 90 10 c3 3d 4c 0a 5e 3d
       -0.0534399 0.094205976 0.095246434 0.05420904
000010 ac 78 8f 3d 4c a6 11 3d 58 31 b3 bc 44 ce d4 3d
       0.07005438 0.035558984 -0.021874115 0.103909045
000020 c8 1f ba 3d 5c e9 bd 3d 60 72 5d bd ac ff 07 bd
       0.09088093 0.092730254 -0.054064155 -0.033202812
000030 ba 93 d3 3d 38 d1 46 3d 74 d6 14 bd b0 03 99 3d
       0.10330911 0.04853937 -0.03633733 0.074714065
000040 44 15 67 3d 2c 4d fc bd c4 a0 b2 bd 00 27 29 bc
       0.056416765 -0.12319407 -0.0872207 -0.01032424
000050 46 5d de 3d 76 da 93 bd 00 6c 11 3c 20 10 d1 3c
       0.10857634 -0.072194025 0.008875847 0.025520384
000060 24 8b 33 3d 20 7b b9 3b 70 5c 6d bc 62 5f a5 bd
       0.043833867 0.0056604296 -0.014487371 -0.080748335
000070 e0 82 ae 3b a6 af 9f 3d 50 31 4d bd 22 53 d8 3d
       0.00532566 0.07797174 -0.050095856 0.10562731
000080 00 86 9d ba 5c 35 fa bd ce 5c c8 3d 24 f4 1c bd
       -0.0012018085 -0.12217209 0.09783326 -0.03831877
000090 0a 9c ad 3d 6e c3 d2 3d de 49 d7 3d f0 92 76 bd
       0.08477028 0.102911815 0.10512136 -0.060198724
0000a0 d0 43 70 3c d4 b1 99 bd f0 e1 50 3c 30 07 ff 3c
       0.014664605 -0.07504621 0.01274918 0.031131357
0000b0 74 cd b6 3d 10 ec 0f 3c 50 60 b6 3c c0 9d 8a 3c
       0.08925906 0.008784309 0.022262722 0.016920924
0000c0 88 fa 8f bc d0 d3 89 bc f0 fb 9e 3c 90 c6 85 bc
       -0.017575517 -0.016824633 0.019407243 -0.016330034
0000d0 2c 43 6b bd 4c 9d 75 bd e0 89 f2 3c d0 8b 38 3c
       -0.057437107 -0.059964463 0.02960676 0.011263803
0000e0 2a e6 d4 3d a6 4b 9a 3d ec ea 9a bd 74 27 eb bd
       0.10395463 0.0753396 -0.07564339 -0.114821345
0000f0 f6 51 81 bd 1e 9c f5 bd d0 ac 03 3c f0 38 40 3c
       -0.06314461 -0.119926676 0.008036807 0.011732325

rnn.bias_hh_l1 f4 [64]
000000 20 fd a0 bd f2 72 e6 bd 1a 20 87 3d 0e 2a 9c 3d
       -0.0786078 -0.11252393 0.0659792 0.07625209
000010 c2 aa f7 3d d6 8d e7 bd c0 d2 cd bb c0 a4 c8 bd
       0.12093116 -0.1130635 -0.006281227 -0.097970486
000020 36 f1 ff 3d 90 20 f0 3c 54 80 4e 3d 6c e9 ff 3d
       0.12497179 0.029312402 0.050415352 0.124956936
000030 ba 3f de bd 46 56 fe bd 8c e2 f3 3d 04 04 ec bd
       -0.108519986 -0.12418799 0.11908445 -0.115242034
000040 00 fc 34 b9 ba 14 82 3d c0 a7 d2 3c 78 fb ff 3c
       -0.00017260015 0.063516095 0.025714755 0.03124784
000050 44 65 b6 3d b0 1b 8e bd 92 b9 c4 3d dc 48 92 bd
       0.08906034 -0.06938875 0.09605707 -0.07142803
000060 0e 4e 95 3d 7c 2a bd bd 54 34 2f bd 86 d0 be 3d
       0.072902784 -0.09236619 -0.042774513 0.093171164
000070 80 1b 11 3b c4 e8 ea 3d d0 81 38 bd 72 09 8b bd
       0.0022141635 0.11470178 -0.045045674 -0.06788911
000080 a4 ac 47 bd e0 43 e4 bc 64 ef 6f bd 3c 8b ba 3d
       -0.048748627 -0.027864397 -0.05857791 0.09108588
000090 68 43 e3 3c b0 2e 66 3c 00 c2 26 bc 58 94 f4 bd
       0.027742103 0.014049217 -0.010178089 -0.11942357
0000a0 12 c5 bf 3d 40 4a b8 bd 40 ca 8d 3c 78 1e 07 bd
       0.0936376 -0.08998537 0.017308354 -0.03298804
0000b0 70 3c 3a bd a0 cc 55 3c 50 3a 7a bc 74 d9 17 bd
       -0.045467794 0.013049275 -0.015272692 -0.037072614
0000c0 f2 c1 89 bd f0 a7 aa 3c 94 27 55 3d 50 32 a0 3c
       -0.06726445 0.020832032 0.052039698 0.01955524
0000d0 0e b3 98 bd 3e 2d d3 3d 56 02 a7 3d b0 93 76 3d
       -0.07456027 0.10311364 0.081547424 0.06019944
0000e0 b0 00 89 bc 60 17 a0 3b 14 a5 3a bd 34 c6 0a bd
       -0.01672396 0.004885599 -0.045567587 -0.033880427
0000f0 3e d6 ba bd 20 34 94 bb f0 be 67 3c 28 2e 45 bd
       -0.09122895 -0.0045228153 0.014144644 -0.04813972
