rnn_model.pth (torch, 60820 bytes, 10 tensors)

rnn.weight_ih_l0 f4 [64, 7]
00000000: 09a9 ffbd 4fbe 05be b38e 883d 654c d93d
00000010: bf50 1fba f1c7 92bd 4eec 7dbd 5f2c b13d
00000020: d8a8 b73b 7340 96bd a3f0 9c3d a7d0 d73c
00000030: aa49 a7bd 71d4 853d 4c0e e23d 837b 27bd
00000040: 5753 3b3d 7ab3 73bd 62af 00bd 3e00 a5bc
00000050: 2495 0e3d f544 1c3d 4357 debd 567b 243d
00000060: d3b3 083e 9654 c03d 76e1 073e 4f1b 79bd
00000070: 3c20 d4bd 7ebb abbd 92b1 c7bd 32fb 8d3d
00000080: 68e1 b53c 8c50 4fbd d050 753c 45f2 9bbd
00000090: 1e80 c43d 0132 2dbd 1ed0 95bd 00ec 51bd
000000a0: 8dbc ef3d 9f20 21bc 4ab1 fdbc 54f0 1a3d
000000b0: b181 06be ba6d 88bc 9167 03be 995f 61bd
000000c0: 0ecc a3bd fdfa 0b3e c59c ad3d c3c3 403d
000000d0: 74cb 013e a6eb aabd e468 a43d b4e3 263d
000000e0: 43d6 86bd 5441 9cbc 739f f3bb 49e9 f7bd
000000f0: e869 e9bd 4d36 883d 8dcc 95bd 3968 8c3d
00000100: c7be 803d 868d 90bd e013 bf3c 1cac 0cbb
00000110: 8f77 173d 4d2d 01be 2e21 bd3d 27fd 663d
00000120: 81f5 33bc 46a2 153e 4423 e13d 3fc3 b9bb
00000130: 6bc7 8a3b cde6 c43d f457 ef3d 7430 7a3d
00000140: eab9 13bd 0533 0abd 5b75 b83d 1904 9fbb
00000150: 639d 593c e5fb a33d 9330 d6bb e178 dc3d
00000160: 2a64 c3bb 3466 c83d 36e9 23bd 6b3f b5bc
00000170: b648 2e3c 936e ab3d c334 0fbe 1b82 93bc
00000180: 079c 8bbd 5494 a0bd 3618 4abd 43a5 a73d
00000190: cc27 303d 0313 e83d 1370 ab3a 07eb e5bd
000001a0: 21b2 e0bb 466a 8cbd a336 bf3d bc43 e83c
000001b0: 54e0 f83d 182f 8a3d 9a10 c6bc 40c0 b5bd
000001c0: 0677 f5bd 7321 3d3d f34f c43a c000 69bd
000001d0: 08fe 833d 7c34 bfbd 06ed d53d 2b01 96bc
000001e0: 490d e63d 786a a1bc a172 f5bc 3656 e03d
000001f0: 36e5 49bd 4906 033e a81e dbbc 00d8 113d
00000200: 74dd e2bd e4bf 90bd 70e7 7b3d 80ad c93a
00000210: 0050 95bd 6a5d bebd ac22 5bbc 4578 2abd
00000220: 6a0b fe3c ed65 dc3d 9973 06bd 25c8 a73d
00000230: 85db ffbb d260 a1bc 1147 993d 964f b03d
00000240: 2c8e a3bd c916 5c3d 6042 e63c a90c 413d
00000250: 6f44 80bd 5d92 fdbc f4e8 453d e5b4 673d
00000260: ef53 9e3d 3966 b83d 044f ff3d 018b c9bd
00000270: 028c 5f3c cfb6 b53d 6ed3 0f3e 59f8 65bd
00000280: 491b 803c 210f 0a3e 9b11 b3bd b0c9 153e
00000290: a492 e93d f4a6 d73d 7e73 f53d bd38 75bd
000002a0: f300 dc3c 21c6 ff3d 6100 b5bd fdf8 4c3d
000002b0: d3f3 9ebd be4e 52bd 780a a3bd 6a17 ccbd
000002c0: 5575 4e3b 886d 39bd 4d2f c93d 1432 4bbc
000002d0: aff0 b93d 00f9 c6ba abae 6dbd 1217 d03b
000002e0: a38d 06be d12d cfbd 2019 bc3d a200 d93d
000002f0: f434 be3d b6d4 fb3d f3cf aebc 3f3f 913c
00000300: e7bc ed3a 25d9 a03d 449b 97bd d601 233d
00000310: 1b0e fc3c 9ecb 453c 3494 a63c c52d a93d
00000320: c448 47bd 2a3b 8a3d 7d4c a53d a7aa 9f3d
00000330: 74b2 bebd f9da f93d dadf f73d 0d1c 3f3d
00000340: fc6c c33d 9294 db3b 461a c93d 1486 cbbd
00000350: 4a85 193d f451 853d 9e3d 99bd 2312 e7bd
00000360: bfb6 4cbd 477b 7cbd 572f 713c f0c5 3d3d
00000370: f55a b2bd c379 4c3d cb42 d43c af33 41bd
00000380: 6a27 32bb 4896 c5bc 9a11 173d 2a01 bf3d
00000390: 71a8 ad3c b688 1bbc 9de3 db3d a57e a23d
000003a0: 8021 f1bd 08ef 2e3d b864 e83d 52fc 853d
000003b0: 5b1b efbd 5df8 58bd 9525 2abd f7cb 803d
000003c0: f587 973d 141d 113e 1509 d43d b4b1 5bbd
000003d0: 6429 c6bc 6861 f4bd 40f0 56bd 4093 583b
000003e0: 8697 eebd 7291 bcbd 62ca 8abd feff d0bd
000003f0: bb24 ddbd 7ce0 ed3c 32df f4bd e024 d33d
-0.12483413 -0.13060878 0.06667843 0.10610274 -0.0006077401 -0.07167042 -0.061992936 0.08651041
0.0056048445 -0.073365115 0.07663085 0.02634461 -0.08168347 0.065346606 0.11037883 -0.040889274
0.045733776 -0.059497334 -0.031417258 -0.020141717 0.0348102 0.0381517 -0.108564876 0.040156685
0.13349847 0.093911335 0.132696 -0.06081706 -0.10357711 -0.08385371 -0.09750666 0.06932677
0.022202209 -0.050613925 0.0149728805 -0.076145686 0.09594749 -0.042284016 -0.07315086 -0.051250458
0.11705885 -0.009834438 -0.030968327 0.03782685 -0.13135411 -0.016653884 -0.12832476 -0.05502281
-0.07997905 0.13669963 0.08477167 0.047061693 0.12675267 -0.083457276 0.08027819 0.0407445
-0.06583836 -0.01907412 -0.0074347793 -0.121050425 -0.11397153 0.06650982 -0.073144056 0.068558164
0.06286388 -0.070582435 0.023324907 -0.002146489 0.036979254 -0.12614937 0.09234844 0.05639377
-0.010983826 0.14612684 0.109930545 -0.005669027 0.0042351983 0.09614334 0.116866976 0.061081365
-0.036065973 -0.033740062 0.09006759 -0.0048527834 0.013282153 0.080070294 -0.006536552 0.10765243
-0.005962868 0.09785119 -0.04001733 -0.022124967 0.010637453 0.083707 -0.13984971 -0.018006375
-0.06816869 -0.07840791 -0.049339496 0.08185818 0.043006703 0.11331751 0.0013079665 -0.112264685
-0.006857172 -0.068562075 0.09336593 0.02835261 0.12152162 0.06747264 -0.024177838 -0.088745594
-0.119855925 0.046174478 0.001497744 -0.05688548 0.06444937 -0.093361825 0.10445599 -0.018311104
0.11233003 -0.019704089 -0.029961886 0.109539434 -0.04929086 0.12795366 -0.026748016 0.035606384
-0.11077395 -0.0706785 0.061500013 0.001538679 -0.072906494 -0.09295161 -0.013374966 -0.041618604
0.031011302 0.10761628 -0.032825086 0.081924714 -0.007808151 -0.019699488 0.07484258 0.0860893
-0.079861015 0.053732667 0.028107822 0.047131214 -0.06263053 -0.03095358 0.048317865 0.056569
0.07730853 0.090038724 0.12466243 -0.09840966 0.01364422 0.088727586 0.14045498 -0.056145046
0.01563801 0.13482334 -0.08743592 0.14627719 0.114049226 0.10529891 0.11984919 -0.059868563
0.026855921 0.12488962 -0.08837963 0.05004214 -0.077613495 -0.051344626 -0.07960981 -0.099654034
0.003150304 -0.045270473 0.09823475 -0.012402076 0.0907911 -0.0015180409 -0.058027904 0.0063504064
-0.13139968 -0.10116161 0.0918448 0.10595824 0.09287444 0.12296431 -0.021339392 0.017730353
0.0018137962 0.07853917 -0.074026614 0.039796673 0.030768445 0.012072472 0.02033434 0.08260683
-0.04865338 0.06749566 0.080712296 0.07796221 -0.09311381 0.12199969 0.12103243 0.04665761
0.095422715 0.0067010606 0.098194644 -0.09937683 0.03748063 0.06509772 -0.07482456 -0.11282756
-0.049978968 -0.061641004 0.014720759 0.046331346 -0.08708755 0.04992081 0.025910756 -0.04716843
-0.0027184137 -0.024119511 0.03688202 0.09326394 0.021198483 -0.009493044 0.10736773 0.07934312
-0.11773968 0.042708427 0.113473356 0.06542267 -0.116751395 -0.052971233 -0.041539747 0.06288903
0.073989786 0.14171249 0.10353295 -0.053636268 -0.024189658 -0.11932641 -0.052475214 0.0033046752
-0.116499946 -0.09207429 -0.06776883 -0.10205077 -0.107980214 0.029037707 -0.119566336 0.10309768

rnn.weight_hh_l0 f4 [64, 64]
00000000: 8221 82bd 7a43 ebbc ed27 863c b29d e63d
00000010: ee23 81bd b54c f6bc 4768 3c3d 4b34 09be
00000020: e98f e4bd 8e40 b13d d977 efbd 083f 1f3c
00000030: c049 ab3d 2340 bfbc 98d8 8dbd 96db b4bb
00000040: 1e51 4fbc b410 b4bc d802 533d b2c2 06bd
00000050: bf67 8abc 9c75 d33c aa7c 983d cffd ecbc
00000060: 537f d03d 39b5 c5bd e3ad 5abd d0c8 43bd
00000070: 76bb 8b3c f41c a13c cd97 83bd 1cdb 83bd
00000080: f976 4f3c 4035 74bd 84b5 c93d b031 e6bd
00000090: 2871 c6bc 1ef5 993d f164 b23b f961 bcbc
000000a0: 4c84 50bd b3c7 b93d e83a c33d 4aec dbbd
000000b0: aa49 b5bd 7ce5 893d 5ed5 e5bd 1b47 3abd
000000c0: 097c c13d 4951 ac3c d580 ca3d 3c92 06bd
000000d0: 3ab7 ddbd 56a6 91bd b60c e03d 80a8 4a3c
000000e0: 54e8 423d 146a 963d 0030 5d39 a045 92bd
000000f0: 51b0 e73d 9c77 f5bb 56c9 31bd ea96 ba3d
00000100: f967 ae3d 952c 043e 109a b4bd f3a2 13bb
00000110: cae1 b33d 313b 053e 6d32 41bc 1244 bb3c
00000120: db60 80bd 5247 0e3d 2b58 17bd 4d27 ae3d
00000130: 213d 5cbd afd2 df3d 40e7 d13d 1025 cf3c
00000140: 2ded f7bc 757f 693c 902a d2bc 5605 8a3d
00000150: 5a2f 853d 1c2d c23d c1f8 a73d 9afa 82bd
00000160: 8d69 65bd 1533 20bc e8fb 08be 7296 0ebd
00000170: 2d49 b53d f09a 19bd 466b 883c 03c4 00be
00000180: dbf9 25bd f9f4 f8bd 250b edbc c682 8fbd
00000190: 6c54 6fbd 4409 9fbd 79df 793d 08f7 0a3e
000001a0: 69fa 49bc b498 e83d 3afd c0bb 01ac cbbd
000001b0: 68cf 1d3d 359f 2d3d 42ef 58bd 6275 0c3d
000001c0: 76e0 abbd e503 8f3d 49f0 433d bf4b 913c
000001d0: 40d4 7b3b bdbc 1d3d 080d f23d cf1f e03d
000001e0: f5eb b53d 9cfd b23c f095 5bbd bda9 87bd
000001f0: 0e50 0a3e 5841 013e b9fd 4bbd c8d6 c83c
00000200: ab7f 53bd 120d 053d d87c be3d 225f d8bd
00000210: 4c3e 463d 5794 bf3d 54a2 f1bd 53e5 843d
00000220: c174 423d 0ad5 cfbd 6711 f3bc 18bd 93bc
00000230: a322 ac3d 255a c83c 6163 e2bd 3e7f 943d
00000240: 780c 813d a85f 143d 58ef ad3d 60d6 b23d
00000250: 0b47 68bd 5b6d 713d be3f df3c a7e4 43bd
00000260: ae2c ff3c eb1c 8dbd 7658 96bb 381d a43d
00000270: a16d 0fbc 0cb3 ba3c 4bb9 343d b087 6c3d
00000280: 4dc5 00be ae02 983d c4ca bcbd f4e4 b8bd
00000290: 5c2d fabb 6963 213d 0971 10bd 4145 b1bd
000002a0: c20b cab9 bce4 923c 0333 35bd f037 d73d
000002b0: 4104 113c 5fe9 583d 5c03 803d a382 e33d
000002c0: 1518 10bd ba77 d93d 769e eebd 766f d0bd
000002d0: f035 c53d 730c f4bd 90d3 e4bd 73da 21bd
000002e0: b8fb 9dbc bb80 193d 822c c73d f4b5 a5bd
000002f0: 73e2 ac3d f59a b0bd 5a69 84bd 6906 233d
00000300: 0aee 693d ec00 9abd 1c53 d63c a72e bc3c
00000310: c046 94bb 41d0 8cbd 12af c5bd 1ffd d7bd
00000320: dd52 dabd 3093 7d3c 7243 783d c3a6 5ebd
00000330: 4203 5cbd 9a57 bbbc e88b bcbd 2e38 66bd
00000340: cebb d4bd 51d3 b6bd 8098 d83c 0689 cebd
00000350: 9545 823d 2c90 8d3b e0e5 023c 13bc 663c
00000360: 1bf6 60bd fbbb b53d b21c 6d3d b8bd 19bd
00000370: 0fb3 48bd 09c5 d0bd 6540 b33c da95 ffbd
00000380: 1bd6 b93d 8439 e53d 212b 64bd ee24 803d
00000390: 8615 bf3d 110e 90bc 4d88 91bd 10db 1c3d
000003a0: 61d4 c13c 2bc3 72bd 9512 c5bc 7464 3c3d
000003b0: 27ae cb3d 4818 683d d305 d23c 0c27 fd3d
000003c0: 20f9 c83d 05fa b93d 99de cf3d 0127 053e
000003d0: 50c8 d53d cc86 f8b9 8067 203b 4cc1 cf3d
000003e0: 7886 813d 6228 8fbd 807e 59bc e03b 8f3d
000003f0: f6fd 853d 1491 a4bd a1db dd3d 75c5 ed3d
-0.06354047 -0.028718699 0.01637646 0.11260547 -0.06305681 -0.030065874 0.045997884 -0.13398854
-0.11160261 0.08654891 -0.11692781 0.009719618 0.08363676 -0.023346012 -0.069260776 -0.0055193407
-0.012653617 -0.02198062 0.051516384 -0.03290052 -0.016895173 0.025812916 0.07445653 -0.02892962
0.10180535 -0.09653706 -0.053388488 -0.04779893 0.017057162 0.019667126 -0.06425438 -0.06438276
0.012662643 -0.059621096 0.098490745 -0.11239946 -0.024223879 0.075174555 0.005444162 -0.022995936
-0.050907418 0.09071293 0.0953272 -0.10738428 -0.08851941 0.06733224 -0.11222337 -0.045477968
0.09447486 0.021034854 0.09887854 -0.032854304 -0.10825963 -0.07111804 0.109399244 0.012369275
0.047584847 0.073444515 0.00021094084 -0.07142186 0.113129266 -0.007491065 -0.0434049 0.09110816
0.08515925 0.12907632 -0.088184476 -0.0022527545 0.087833 0.13010861 -0.011791808 0.022859607
-0.06268474 0.034735985 -0.036949318 0.0850359 -0.053769235 0.109288566 0.102491856 0.025286227
-0.030264461 0.0142515795 -0.025655061 0.06739299 0.06503172 0.0948126 0.08201743 -0.06395455
-0.056008864 -0.009777804 -0.13377345 -0.034811445 0.08851848 -0.037501276 0.016652714 -0.12574773
-0.040521484 -0.121561 -0.028935978 -0.07007365 -0.05843012 -0.07765439 0.061004136 0.13570797
-0.012327769 0.11357251 -0.005889562 -0.099449165 0.038527876 0.04238816 -0.05296255 0.034291632
-0.08392422 0.06983165 0.047836576 0.017736314 0.0038426071 0.038510073 0.11818892 0.10943567
0.08882896 0.021849446 -0.05360979 -0.06624172 0.13507101 0.12622583 -0.049802516 0.024516478
-0.051635426 0.032483168 0.09301156 -0.1056502 0.048399255 0.093544655 -0.1179854 0.064890526
0.047474626 -0.10148056 -0.029671384 -0.018034503 0.08405044 0.024457047 -0.11054111 0.07250832
0.06301206 0.036224037 0.08492917 0.08732295 -0.056708377 0.05894218 0.027252074 -0.04782548
0.031149235 -0.06890281 -0.004588182 0.080133855 -0.008754165 0.022790454 0.04412202 0.05774659
-0.12575264 0.07422386 -0.09218362 -0.09028044 -0.007634802 0.039401446 -0.03526405 -0.08655787
-0.00038537203 0.017931335 -0.0442381 0.10508716 0.008851112 0.052956935 0.06250641 0.11108901
-0.035179216 0.10618539 -0.11651318 -0.101775095 0.096294284 -0.11916437 -0.11173165 -0.03951497
-0.019285068 0.037476283 0.09725286 -0.080913454 0.08441629 -0.08623306 -0.06465407 0.039801035
0.057111777 -0.07519707 0.026162677 0.022971464 -0.0045250356 -0.06875659 -0.09652533 -0.10546326
-0.10660336 0.015476987 0.060611196 -0.054358255 -0.053714044 -0.02286892 -0.092063725 -0.05620592
-0.103873834 -0.08927024 0.026439905 -0.10084729 0.06360928 0.004320165 0.007989377 0.014082926
-0.054922204 0.08873745 0.057888694 -0.037534446 -0.04899889 -0.101938315 0.021881292 -0.12479754
0.090740405 0.11192611 -0.055705193 0.06257044 0.09330277 -0.017584832 -0.071060754 0.03829485
0.02366084 -0.059268158 -0.024056712 0.045994237 0.09945326 0.05666378 0.025637543 0.12360963
0.09813142 0.090808906 0.10149879 0.1300316 0.10438597 -0.00047402678 0.0024475753 0.1014429
0.06324476 -0.06990124 -0.013274789 0.06993842 0.0654258 -0.08035484 0.108329065 0.116099276

rnn.bias_ih_l0 f4 [64]
00000000: f784 0ebe 2260 583b 7848 82bd 8c28 b1bc
00000010: 0a49 dabd 34fc 093e cba4 133d 3298 b93d
00000020: cf21 613c a4b6 24bd 6cf3 b1bc cbce 9f3d
00000030: b9ae a6bc e26f 2b3e 95d0 84bd 930b e4bc
00000040: 09fc 9d3d 29c5 95bd 90ec 443c cfb0 bdbd
00000050: 878e a6bd 4541 cebc e316 f13c 6f2e 6c3c
00000060: ac03 da3d 6c30 423e 1d51 c33d aff9 533b
00000070: 9175 a83d 7abd 9d3b 7572 cb3b a978 70bd
00000080: 962f ed3d 694f 8ebc 016d 03bc 74a4 0a3d
00000090: bf05 88bd 032d 523d 337d cd3d cbb0 033e
000000a0: e310 533e e017 953d 9f9a d53c 88ca d23c
000000b0: abe2 ad3d 55d6 31bc 5fae 43bc 5a2f 09be
000000c0: 43e6 58bb 6b7b 693d af68 d43d b58b efbc
000000d0: 8812 c4bd 0b77 8ebd fe5e 853d ecfb d5bc
000000e0: e048 083d 4535 8bbd 4cac 19bd 579f adbd
000000f0: 0e07 ce3c 75f0 373d 272a 04be 3b2a c13c
-0.1391791 0.0033016284 -0.063614786 -0.02162578 -0.10658462 0.13475114 0.03604583 0.09062232
0.013740971 -0.040213242 -0.021722518 0.078031145 -0.020346986 0.16741899 -0.06485096 -0.02783755
0.077140875 -0.07312996 0.0120192915 -0.09262239 -0.08132654 -0.025177607 0.029429859 0.0144153675
0.106452316 0.18963784 0.095369555 0.0032344868 0.08225549 0.004813847 0.0062087127 -0.05870882
0.11581342 -0.01737185 -0.008021594 0.03384824 -0.06641721 0.051312458 0.100336455 0.1286041
0.2061191 0.072799444 0.026074706 0.02573134 0.08490499 -0.010854323 -0.011943429 -0.1339697
-0.003309623 0.057002466 0.10371529 -0.029241422 -0.09573847 -0.069562994 0.06512259 -0.026121102
0.033272624 -0.0679727 -0.03751783 -0.08477657 0.025149848 0.044907052 -0.12906705 0.023579707

rnn.bias_hh_l0 f4 [64]
00000000: 48b6 b8bd f0ba 90bd 73a0 bfbd 986d 11bb
00000010: d4c9 b2bd 227e 28bd 7aab 9ebc 33c4 dc3d
00000020: 18d1 2c3e 3bc0 f93c d710 de3d b19c d93d
00000030: aaf6 103e 6a99 61bc 649f 423d 81ab 773d
00000040: 5736 843e 928f 03bc 28e5 4cbd c7c0 863b
00000050: 0a2e cb3d 25fa e13d f82a aabc 7d5e d3bd
00000060: a067 e03d 8f20 0a3e d825 f13d 0ba3 bdbd
00000070: 6fcf 8abd 4f62 b3bd c2d6 1e3c 88c5 a03c
00000080: 1eac 7bbc cf0a af3d e8c3 083e a6f1 8dbd
00000090: db35 c5bd 1f08 7ebd 7e88 dd3d fe68 09bb
000000a0: 1597 173e 5bc8 2ebd 66a6 5abd e394 863d
000000b0: 8ad2 ed3d 9ef6 69bd 7f70 00be d7d0 dbbd
000000c0: 9928 9dbc 5cb6 7cbd 0dbf a4bd a045 09bd
000000d0: 406e 60bc b8b0 fdbc e091 cfbd 2ee9 203a
000000e0: b2db cebc 16fd 01be 68f6 693d e381 efbd
000000f0: fd58 d0bd 4b99 803c 5429 09be 7581 41bd
-0.090191424 -0.070669055 -0.09356775 -0.0022190567 -0.08729902 -0.041135915 -0.019368876 0.107796095
0.16876638 0.03048717 0.10843056 0.1062559 0.14156595 -0.013769487 0.047515288 0.060466293
0.25822708 -0.008029835 -0.050023228 0.0041123363 0.09920891 0.110340394 -0.020772442 -0.103207566
0.10957265 0.13488983 0.11774796 -0.092596136 -0.06777846 -0.08758985 0.009694757 0.01962544
-0.01536086 0.085469835 0.13355982 -0.069308564 -0.09629413 -0.062019464 0.108170494 -0.0020967121
0.14803727 -0.042671543 -0.053381346 0.06571367 0.11612423 -0.057119958 -0.12542914 -0.107331924
-0.019184398 -0.06169735 -0.080442525 -0.033513665 -0.013698161 -0.030968055 -0.10135245 0.0006138262
-0.025251243 -0.12694201 0.057119757 -0.11694696 -0.10173223 0.015698096 -0.13394672 -0.0472426

rnn.weight_ih_l1 f4 [64, 64]
00000000: f891 9a3d 3972 41bd d688 9cbd db20 a7bd
00000010: bae3 84bd 6b71 81bc 3a3c 043d 5376 7a3c
00000020: 76b2 ecbd 087a 96bd 7264 ebbb 4476 413b
00000030: 2d21 0f3e 3a75 4d3d 4786 cd3d e6d8 f53d
00000040: 6f56 3a3e 9823 043e 204c 37bc af64 73bd
00000050: d58d f6bc bda1 dabc e92e 8c3d e23c 02bd
00000060: 41b1 6cbc cf8c 313c 978a 913d d819 e33d
00000070: f7bc 0c3d b458 433d 3eb8 2a3d edd3 83bd
00000080: 2e48 d7bd 3a7f bc3d 9966 e53d 30f4 d03d
00000090: 2d86 893b 06b1 c4bd 4b92 ef3d 46f9 d73b
000000a0: 8448 7a3d 0855 f13d 70f1 983d 00a4 8c3d
000000b0: bcf2 fabc 0ecb 503d dedc f03d 1a58 bebd
000000c0: f48d d73d 2a19 ac3d 0fec 37bc b8fe 873d
000000d0: 2006 9c3b c1c5 fd3c f488 113d d54f a6bb
000000e0: 3c9d 95bd 8485 7fbd ecdc ffbd 0bf7 443d
000000f0: f8de 613c 7525 f2bc 4077 76bd e120 23bc
00000100: a53e 843c 51f5 15bd fa8b 40bd 061b 6bbd
00000110: b25e 8d3d 3888 a0bd 5038 60bd 2a50 93bc
00000120: 9e36 31be 24d9 82bd 1873 a93d 5172 d0bc
00000130: 5514 08bc a04a 96bb ff8b 153e 7dc1 163d
00000140: fdf5 12bc edbc 91bd 06b3 8dbd 924d dbbc
00000150: c7d7 63bd feaa bbbd 2d5f 593d 0b05 8a3c
00000160: 0594 aabc 5794 34bd 5357 2ebc ace1 e1bd
00000170: d91e bebd fca0 153e cac5 4cbd 3119 a3bc
00000180: fa95 033e 27d9 b43c aeb3 053e d862 aebd
00000190: 15be 22bd 4381 4e3d cbba af3d f0b1 423d
000001a0: 4e63 b7bd 137a 943d 3ddc e73d b915 cbbd
000001b0: 9281 263d b26e 863d f3e0 0c3e f722 cd3d
000001c0: ad33 b3bc 055b 423d c027 2cbd 267d e13d
000001d0: f478 b03d 00b7 a6bd 1082 6ebd 5a61 1d3e
000001e0: bc31 58bc b839 6bbd 2c81 aa3d 6ce5 59bd
000001f0: d509 183e d102 e03d e4f7 39bc 9d67 f83c
00000200: 6ce3 9f3d 2c39 513d d0d8 353d 1ca4 40bd
00000210: 084f 27bd 0efd 92bd 9478 3d3d 70cb e0bd
00000220: d05f 123c c426 723d b87c 03bd 50b0 c9bc
00000230: d41b fc3d b0bc 01bc c235 96bd c0b7 ecbb
00000240: 4cf9 543d d843 2a3d f4be 293d c8d2 dd3d
00000250: c803 d53c 447c e63d 8022 8cbd e00e 293d
00000260: 201d fb3b c81c c2bd 14f4 0d3d 94f4 c13d
00000270: 66a2 eabd c068 6abc 9465 f7bd 2c7b 983d
00000280: c0e3 b0bb d8f7 833c 40ff 5a3d 840a bb3d
00000290: c056 b2bc 380e 91bc 7824 7e3d 284b 673d
000002a0: 5855 e1bd 307c cfbc 223f 87bd 6ac0 8b3d
000002b0: 983e b93c 0499 3bbd d406 f33d 70af 80bd
000002c0: f654 b4bd a077 db3d c4b7 a03d e01a edbd
000002d0: 0262 803d fe2a 893d 4250 803d 3a16 dbbd
000002e0: 009b cb3b c86c e7bc fc87 dcbd e26c efbd
000002f0: 94db 52bd 4c19 96bd 28b0 df3c 4e56 8b3d
00000300: d01f bc3d b07e c3bd d309 abbc 7dc6 f4bc
00000310: 6e46 febd a2eb 6e3c d24a b23d 3dcf 61bd
00000320: 595c d4bc d830 543d 309f d63d 66cf 743d
00000330: f3de dabd 2b22 c8bd 827c 473d 8830 b3bd
00000340: 4af9 b9bc f79c 9a3d 3e74 9bbd 8723 ae3d
00000350: face c1ba 91ad 22ba 3d98 38bd 718a febc
00000360: db03 b83d 3a82 2fbc 5a58 c73d e83a 6a3d
00000370: be5b 0ebd 75b8 8dbd 1d4c 743a b2d8 933d
00000380: 2b61 7f3b 2403 e9bc 0ca1 30bd b010 dd3d
00000390: 762c fbbc a486 033d 3685 c03d 2859 22bd
000003a0: 263c 90bc f466 5f3d e227 493d b27e 1e3d
000003b0: c441 52bc d717 c0bd 4c89 683d 5ef1 37bd
000003c0: a8ec 863d da40 08bd 7551 a13c 9a01 2e3d
000003d0: 306d ebbd f82a 5bba 02e9 c23d 66e7 a8bd
000003e0: b86b b63d b36f 86bd 28bd b93d bcbb 61bd
000003f0: e01e 083d 4015 453c 376a edbc 78c0 fdbd
0.075473726 -0.04722807 -0.07643287 -0.081605636 -0.06488748 -0.015801152 0.032284 0.015287
-0.11557476 -0.07347494 -0.007183605 0.0029519955 0.139775 0.050160624 0.10035377 0.12004261
0.18197034 0.12904203 -0.011187583 -0.05942219 -0.030096928 -0.026688451 0.06844885 -0.031796344
-0.0144465575 0.010836794 0.07106512 0.11088914 0.0343599 0.047692016 0.041679613 -0.06436906
-0.10511814 0.09203954 0.112012096 0.10202825 0.004196903 -0.09604077 0.11697825 0.006590995
0.061104313 0.117837965 0.074679255 0.06867218 -0.030633323 0.050974898 0.11760877 -0.09294148
0.10525122 0.08403237 -0.011225714 0.066403806 0.0047614723 0.030978085 0.035531 -0.0050754347
-0.07305381 -0.06238319 -0.124933094 0.04808716 0.01378607 -0.029558877 -0.06017232 -0.009956569
0.016143152 -0.036610905 -0.047008492 -0.05739882 0.06902827 -0.07838482 -0.054741204 -0.017982561
-0.17305991 -0.063890725 0.082739055 -0.025445135 -0.008305629 -0.0045865327 0.14604186 0.03680562
-0.008969781 -0.07116113 -0.06918912 -0.026770387 -0.055625703 -0.091634735 0.053069282 0.016848108
-0.020822534 -0.04408678 -0.010640937 -0.110293716 -0.092832275 0.14612192 -0.049993314 -0.019909473
0.1285018 0.022076203 0.13056824 -0.08514947 -0.039732058 0.050416242 0.0858055 0.047532976
-0.08954488 0.07249846 0.11321304 -0.09916253 0.04065091 0.06564082 0.13757686 0.10016435
-0.021875227 0.047450084 -0.042030096 0.11010198 0.0861682 -0.08140373 -0.058229506 0.15369168
-0.013195451 -0.05742809 0.08325419 -0.05319731 0.148475 0.10938037 -0.011350606 0.030322844
0.07807049 0.051079914 0.04439622 -0.047031507 -0.040846854 -0.071771726 0.04625757 -0.109763026
0.008933976 0.059119 -0.032101363 -0.024620205 0.12309995 -0.007918522 -0.07334472 -0.007224053
0.05199556 0.041568607 0.041441873 0.10831219 0.02600278 0.112541705 -0.06842518 0.04127395
0.007663384 -0.09478146 0.0346566 0.09470478 -0.11456756 -0.014307201 -0.12079921 0.07445368
-0.0053982437 0.016109392 0.05346608 0.09132865 -0.021769881 -0.017706975 0.062046498 0.05646816
-0.11002606 -0.025327772 -0.066038385 0.068238094 0.022612855 -0.045800224 0.11866537 -0.06283462
-0.088052675 0.10716176 0.078475505 -0.115773916 0.062686935 0.06697653 0.06265308 -0.10697599
0.006213546 -0.028250113 -0.107681245 -0.116906896 -0.051478937 -0.07329044 0.027305678 0.06803571
0.09185755 -0.09545648 -0.020878708 -0.029879803 -0.12415777 0.014582546 0.08705677 -0.05512928
-0.025922941 0.051804394 0.10479581 0.059768103 -0.106870554 -0.09772142 0.048702724 -0.08749491
-0.022701878 0.0754947 -0.07590531 0.0850287 -0.0014786415 -0.0006205673 -0.04506706 -0.031071873
0.0898511 -0.010712201 0.097336486 0.057185084 -0.03475546 -0.06919948 0.0009319203 0.07219066
0.0038967829 -0.02844388 -0.043122336 0.107941985 -0.030660849 0.032110825 0.09400408 -0.039635807
-0.017606806 0.054541543 0.0491103 0.038695045 -0.012833063 -0.09379547 0.05677156 -0.04490792
0.06588107 -0.033264972 0.019692162 0.042481996 -0.11495435 -0.000836059 0.09517099 -0.08247261
0.089072645 -0.06564274 0.09069282 -0.055110678 0.03323257 0.012028992 -0.028981311 -0.12390226

rnn.weight_hh_l1 f4 [64, 64]
00000000: f4a3 9dbc 6333 853b 202b dd3d 1b34 013e
00000010: 26ba eabd 06a2 943d 0cd0 323d 967d 123d
00000020: 090d 483c 54e1 c4bc a956 dbbd 9c5d 8bbd
00000030: 2368 d0bd fac4 ac3d 2057 a43b 2a69 4bbd
00000040: 7c8f 4b3d 5449 2b3d 7337 24bd c8d4 b1bd
00000050: 3745 993b 5018 7b3c 2c02 a63d 1cfa 30bd
00000060: 5eed 4a3d 6d4e d1bd f691 d3bd 67aa c33d
00000070: a2b7 66bd 2405 b33c 2ff3 9f3c 64a3 36bd
00000080: a496 553d 656c a03d 8a05 cebd 3289 f93d
00000090: c420 d5bd 9458 e43d 1c2a 6b3d 7906 21bd
000000a0: 10a5 793c 4b6f 9a3d 48fd cdbd b8c1 8d3d
000000b0: 42cf fc3c 346e 4cbd a80f c23d 7fee 24bd
000000c0: f8f3 16bb 2a14 f6bc 474b b63d 97d4 1b3d
000000d0: d212 973c bc5e 7abd 5638 1f3d f1cb cb3d
000000e0: 6bcd ef3d e3f1 913d 2437 043d 357c f13d
000000f0: 3006 9c3b 76c1 893d 23f1 c9bd 70bf 6dbb
00000100: e4ca 9dbd b2a8 733d fa64 a13d 0fd3 283c
00000110: d1ab a73d f8aa a5bc 9fa6 b4bd 8c5b 1dbd
00000120: 3d22 ea3d f676 a6bc 01e8 de3d 9cb1 68bd
00000130: b85e a83d fc27 02bd 8cbd c53d f897 3f3c
00000140: 4cce 58bc e114 b4bc cb83 8dbd 3bb1 b0bc
00000150: 2395 e83d 8266 013e cfd4 f03d 8846 153d
00000160: 071d be3d ab64 c43c ad69 99bd 6ba9 23bc
00000170: 3a59 f73a 5987 963d ddd0 623d 14ce 80bd
00000180: 6593 e73d fdca 5bbd 4982 95bd 3a0e 75bd
00000190: 8e6c 2e3c 5c70 c4bd 9484 36bc bb90 95bd
000001a0: f0c0 b8bc 95f9 f83d b8d0 d3bd 600e 7e3c
000001b0: 1195 b5bc 14b2 7dbd f698 de3d 412a 4dbe
000001c0: 7ac3 a9bd e008 ee3d 7d2d 49bd 57e3 3b3c
000001d0: cde3 fd3d 7edc e43d ba69 903d d12e 50bc
000001e0: 32f6 56bd f550 123d 08a7 bdbd cdf5 053e
000001f0: 7168 9dbd b897 26bd 4713 433d 5f8f 9dbc
00000200: 148a 45bd 7222 e13d b4e1 09bd 48dc b03d
00000210: 189c e63d 0c07 0f3d 9069 fdbc 8003 973a
00000220: a818 abbd 2424 96bd c276 bbbd 5cda 4dbd
00000230: b800 9f3d 7098 86bc d468 273d 4468 cebd
00000240: 78ec f1bd b06c 60bc a8a1 f53d c81d 843c
00000250: e074 d2bc 163e 80bd 24be e53d b8da c8bd
00000260: 84e4 5ebd ea6e c1bd 9437 0fbd 609b e6bc
00000270: 0cee 263d 20fd 5dbc c8c5 7bbd 9eef bc3d
00000280: b4b2 14bd b451 9fbd b0b5 153c 5c67 70bd
00000290: c827 6bbd 1ebf ea3d 761f 9b3d b87a 6c3d
000002a0: 40be fcbb c247 df3d c05e 023b 48ac 8d3c
000002b0: 5a4a b2bd f85d 743d 5ccd b5bd a003 fabc
000002c0: 607c bbbc 144f 32bd 92dc bdbd 48b4 c7bd
000002d0: 005f c93d e490 fb3d a01a 743d e07b d33b
000002e0: c838 693d b0ab c8bd 249e 7a3d 8ab3 ce3d
000002f0: 0480 92bd f28e eebd 0038 753a 30ac 513c
00000300: 8b4b 273d 73c0 aabd 329c db3d 0283 c9bd
00000310: bef4 c63d 98a1 b4bd 64f6 503d e78d a93d
00000320: 6ec6 a7bd a8cb a03d 2d33 d4bd 64a8 da3d
00000330: 0970 f23d eef4 e73d 44b1 52bd c5a1 e7bd
00000340: 932d d93c 5ecb cf3d 3745 3cbd ab50 6fbd
00000350: 9de2 b83d e013 07bd e26f d93d 34f2 3c3d
00000360: 67b6 6dbc 4401 f6bd 3f94 5e3e 9fa7 d4bc
00000370: ebf6 c43d bff2 913d 0999 ab3d 0c3c 09bd
00000380: c18f e1bc 717c 0f3b e312 4fbd 57b2 d0bc
00000390: 124a b83d 9e44 b3bd d50f 9fbd f66e 403c
000003a0: 5464 4e3d 89ce 9cbc 126d e13d b8e2 583d
000003b0: d4b7 d0bd d004 2ebd f678 a6bd ef8a 99bd
000003c0: dd51 4dbd 1878 523d 4339 573d 723c 82bd
000003d0: 3c80 713d 80aa a0bd 7d65 503d 4f8a 9dbd
000003e0: afd5 42bd 6231 503e 868f b5bd faad 59bc
000003f0: b560 f6bb b44f e4bd 2efa d5bd 65cf 063d
-0.019243218 0.0040649637 0.10799241 0.12617533 -0.11461286 0.07257466 0.04365544 0.0357643
0.012210139 -0.024033226 -0.107098885 -0.06804964 -0.101761125 0.08436008 0.005015269 -0.04966084
0.049697384 0.041817978 -0.040091943 -0.08683163 0.0046774405 0.015325621 0.08105883 -0.043207273
0.049542777 -0.10220037 -0.10330574 0.09553986 -0.05632747 0.021853037 0.019525139 -0.044589415
0.052145615 0.078331746 -0.1005965 0.12184371 -0.1040664 0.111497074 0.057413206 -0.039312813
0.015237108 0.07540759 -0.10058075 0.069217145 0.030860547 -0.049909785 0.094756424 -0.04026651
-0.00230336 -0.030038912 0.08901077 0.03804454 0.018441591 -0.061125502 0.038872086 0.09951008
0.11709102 0.07126214 0.03227915 0.11791269 0.00476148 0.06726353 -0.09860446 -0.0036277436
-0.07704714 0.059487052 0.07880588 0.010304227 0.08187068 -0.020223126 -0.08820843 -0.038417384
0.11432312 -0.020320397 0.10884095 -0.056810006 0.08221191 -0.031776413 0.09655294 0.011693947
-0.013232779 -0.021982612 -0.06909903 -0.021568885 0.113565706 0.1263676 0.1175934 0.036444217
0.0928288 0.023973783 -0.07490859 -0.009989123 0.0018871196 0.07350034 0.05537497 -0.06289306
0.1130741 -0.05366038 -0.073002405 -0.05982802 0.010645999 -0.09591743 -0.0111400075 -0.07302996
-0.022552937 0.12156979 -0.10342544 0.015506357 -0.022165807 -0.061937407 0.10869019 -0.2003565
-0.08289237 0.116227865 -0.049115647 0.011467776 0.12396965 0.11174868 0.07051416 -0.012706474
-0.052480884 0.035721738 -0.09260374 0.13082047 -0.07685936 -0.040672034 0.047625806 -0.019233404
-0.048227385 0.10992898 -0.033662513 0.08635765 0.11260241 0.03491883 -0.030934125 0.0011521429
-0.08354312 -0.07331112 -0.09153511 -0.05025707 0.07763809 -0.01643011 0.040871456 -0.10078481
-0.11812681 -0.013697788 0.11993724 0.016127482 -0.025690496 -0.06261842 0.11217907 -0.09807342
-0.05441715 -0.09444983 -0.034965113 -0.02815026 0.040754363 -0.013549119 -0.061467916 0.09225391
-0.036303237 -0.077792555 0.009137556 -0.05869232 -0.057410985 0.11462234 0.0757436 0.05773422
-0.0077131093 0.109023586 0.0019892901 0.017294064 -0.08705588 0.059659928 -0.0887706 -0.030519307
-0.022886455 -0.043532446 -0.09270586 -0.09751183 0.09832573 0.12283495 0.059595704 0.006453976
0.056938916 -0.09798372 0.06118597 0.10092838 -0.07153323 -0.116483584 0.0009354353 0.0127974
0.040843528 -0.08337488 0.10723151 -0.09839441 0.097146496 -0.08819884 0.051016226 0.08279019
-0.08192144 0.07851344 -0.103613235 0.10676649 0.11837775 0.113260135 -0.051438585 -0.11310152
0.02651099 0.10146211 -0.045964446 -0.05842654 0.09027598 -0.03297794 0.10617043 0.04612942
-0.01450882 -0.1201196 0.21736239 -0.025958834 0.09617408 0.07126378 0.083787985 -0.03350453
-0.027534368 0.0021894241 -0.05055512 -0.025475664 0.08998503 -0.08753322 -0.077666916 0.011745205
0.05038865 -0.019141452 0.11007132 0.05295059 -0.101913124 -0.04248506 -0.0812854 -0.074972026
-0.0501269 0.05138406 0.052544843 -0.06359185 0.058960184 -0.0784502 0.050878037 -0.07692396
-0.047567066 0.20331338 -0.088652655 -0.013286108 -0.0075188526 -0.11148015 -0.104481086 0.03291263

rnn.bias_ih_l1 f4 [64]
00000000: bf8e 92bc 335b db3d a428 87bd e04e 9cbd
00000010: 48f4 abbd 8dda 1e3d 2906 5d3d b87a d5bd
00000020: 51ea f23d b3ba 43bc eea2 8cbc d001 ddbc
00000030: fce6 37bd 165f 193d e4c4 eebd a6af b4bd
00000040: 1c8a 9f3d 4d2e 803d 18c9 e23c c77b 033e
00000050: 8bd2 02be ec12 37bd 7888 c53d 42d4 c3bd
00000060: 7444 9a3d 9236 5e3d 2507 f2bd d40b 5d3d
00000070: fa4d aa3d 722c 213d a424 20bd 44cd 7fbd
00000080: c473 833d 9aa6 253d 8e0c c0bd fb36 df3c
00000090: c295 e13d f60b dfbd 91c5 fabd cfc4 02be
000000a0: 22a1 c2bd 1ce8 4dbd 52d8 a5bd f0b8 883c
000000b0: 5363 b3bd c800 993d 1873 9c3d d5f2 9c3d
000000c0: 14cc afbb b249 6f3d 2de3 80bd 3a8d b93d
000000d0: 7950 f13d 6811 633d 442f 013e e518 bd3d
000000e0: 310e 01be 9f16 0abe fe18 c5bd 2749 d1bd
000000f0: 1eca 81bd 08c4 62bd e910 8cbd 7a96 a33d
-0.017890332 0.10710754 -0.065995485 -0.07632232 -0.08396202 0.038782645 0.053960953 -0.10423797
0.118610986 -0.011946368 -0.017167535 -0.026978403 -0.04489802 0.037444197 -0.11658648 -0.08822565
0.07790014 0.06258831 0.02768378 0.12840186 -0.12775628 -0.04469578 0.0964517 -0.09561969
0.07532588 0.05425126 -0.11817769 0.05396636 0.08315654 0.039349027 -0.039097443 -0.062451616
0.06418565 0.040442087 -0.093773946 0.027247896 0.11014892 -0.10890953 -0.12244714 -0.12770389
-0.0950339 -0.050270185 -0.080979005 0.016689748 -0.08759179 0.07470852 0.0763914 0.07663504
-0.005364904 0.05841989 -0.0629333 0.0906014 0.11782927 0.05543652 0.12615687 0.09233264
-0.1260307 -0.13485192 -0.096239075 -0.10219031 -0.06337379 -0.05536273 -0.06839163 0.079876855

rnn.bias_hh_l1 f4 [64]
00000000: 9608 92bd 1334 353d fe8b b73d 8f15 d53d
00000010: f19d 09bd bfd0 963c 9dd5 bb3d a448 f7bd
00000020: 3d35 60bd b2ad 1e3c 9f94 aabd 3876 4ebd
00000030: 548e c53d 2d1f b63b b436 043d 1604 083c
00000040: 67f5 bebc a048 08bc 35f2 29bd 6fca 533d
00000050: c7ac 83bd 1f9c a23d ca35 423d 6cee 78bd
00000060: 66dd ed3c 8827 e0bc 4a61 3f3d 1ec7 1ebd
00000070: 5652 99bd 596a ab3b ba97 cd3d 20ca 12bd
00000080: cd18 90bc 70ca bc3d 0387 36bc 7b42 803b
00000090: eaf8 c03c 408d 76bb e934 cbbd b11c b5bd
000000a0: 5035 f73d cac2 dc3d e877 88bd 80b4 fbba
000000b0: 8d3c dabd ba5c 98bd 44e1 b6bd 3625 5dbd
000000c0: 25d8 ba3c 87b0 5fbd c57c c93d d043 2f3d
000000d0: 7103 d7bd d811 55bd b3e7 bdbd 0567 adbd
000000e0: 0d1a 813c e0e5 7f3c b04b b53d 5cc0 b8bc
000000f0: 24d8 993d e866 e4bd 9122 c2bd a827 e6bc
-0.07130544 0.044239115 0.08962248 0.104045026 -0.03359789 0.018410085 0.09171603 -0.12074402
-0.054738272 0.009684967 -0.083291285 -0.05040571 0.096462876 0.0055579157 0.03227873 0.008301755
-0.023310376 -0.008318096 -0.041490752 0.051706728 -0.06429439 0.07939934 0.04741458 -0.06077425
0.029036235 -0.0273626 0.04672364 -0.03876411 -0.074864075 0.0052311835 0.10038705 -0.035837293
-0.017589951 0.092182994 -0.011140588 0.003914175 0.023556191 -0.0037620813 -0.09922201 -0.08843363
0.120707154 0.107793406 -0.06663495 -0.0019203573 -0.106560804 -0.07439561 -0.08929685 -0.053990565
0.022808144 -0.05461171 0.09838251 0.04278928 -0.10498703 -0.05201897 -0.09272709 -0.08466915
0.015759492 0.015618771 0.08852327 -0.022552662 0.07511929 -0.1115244 -0.09479249 -0.028095081

mlp.weight f4 [20, 64]
00000000: b28b 853e 0234 2ebe 989f a03d 1e08 303e
00000010: 9046 12be 7688 673e 0634 0e3e 1080 57be
00000020: b79d 5bbe b60f 1e3e 3daf 6a3e c05d 47be
00000030: 4f21 84be 9ba8 01be 4e0a 75be 9bba 933c
00000040: 06ce 133e 41d3 cfbd a434 28be 220d eb3d
00000050: 59d5 82be 2f30 1c3e fed9 e63d 214b 7cbe
00000060: 961d 0abd 6d16 8abd f4b3 c9bd f990 bdbd
00000070: e72f 873e 8308 c03d 0a8c 7f3d c9b1 2c3d
00000080: ed59 53be 21ff 1b3d 0fa1 803e 8a12 093d
00000090: c9d5 693e e89f 863d aa4b 9abc 38ca 1d3e
000000a0: b417 503e 2677 76bd f686 5c3d b460 a0bd
000000b0: dceb 19bb 9c89 0ebd 7d63 52bd 32b4 66bd
000000c0: 26ea 163e 46f4 73be 3d5a eb3d d376 ed3d
000000d0: 5e09 a03c 13e1 353e e701 a63d d79e 6f3e
000000e0: b0f6 193e fd1c 3fbe 3acf 6a3d 48e8 85be
000000f0: 8c7f c63d 5159 473e e8ca 133e 891f b0bd
00000100: 15bf 3abe ec30 c83c 4a48 883e c917 4cbe
00000110: 9d51 78be 4268 953e da37 a33d 8abb 16be
00000120: 9be0 a7bd f1e4 46be d637 67be fe9b ffbd
00000130: a7fc 4c3c a0d9 49bc 70a3 9b3c 4440 c6bd
00000140: d881 66be 8502 4abd 74bb 923e 42c9 8bbe
00000150: f3ef 833e 3f75 59be c12c 7abd a87f 6c3d
00000160: 4da0 283e 0036 933d f0bc 5b3e d4e5 6abc
00000170: ded1 3a3d 235f 603e 8ed7 7cbd b650 0b3d
00000180: 59d3 253e 532f 833e 4120 0e3e d892 e83d
00000190: 4240 57be c162 87bd 881d 7b3e c4c8 2cbe
000001a0: 9fd0 bdbd d1c8 083e 8811 213e 957d 743e
000001b0: e4fe 143e 407f 613e 2c73 4abe 164e 2bbd
000001c0: 84c7 363e a1d1 33be 97db 4dbe cbc1 cc3c
000001d0: 715e 14bc d84c fdbd a986 c9bd 8324 96bd
000001e0: ab6b 91bd 13a7 33be d064 0ebe 45c8 41be
000001f0: 7d9b d03c 1326 003e 2bcf b2bd c3e0 4dbe
00000200: 19ab 133d a970 523d e48d 8fbd 956a 513e
00000210: d88e 503e 2efe 9d3d 6d6d 6f3e 62f7 d13c
00000220: 3243 02be 96e1 a6bc a844 9e3d d3e7 153e
00000230: 1cdc 6bbe 634b 5c3c 21f9 f9bd bb33 23be
00000240: 0ae4 083e 7836 723c d6ae 1b3e 769b 7cbe
00000250: fc7a 67be 6649 ef3b 92c2 9c3d 7536 19bd
00000260: fc49 7c3e 3436 1abe 9e59 223e bc8c 683e
00000270: 2529 853e c6ab 3ebe 1007 a5bd c43c 77be
00000280: e5b4 febc b91c 663e e25c 15be 8e0f 873e
00000290: 0d72 283e 16cc e9bb 9cf4 7e3e 7615 833e
000002a0: 1f2f 20be c8ff 0b3d 913d 37be 6ee3 66bd
000002b0: 910d 76be 02f6 8a3c 5871 443e ffc8 a3bd
000002c0: d4db 61be ca05 9ebd bf56 063e 2ee8 7f3d
000002d0: 52ab 9ebd 17b5 883e c8e0 e33d 4db9 843d
000002e0: f897 083e ef13 19be 6e50 d83d e2d1 38be
000002f0: 6e89 bcbd ee4e 74be 4a08 73be 1024 bebd
00000300: 754a db3d 5342 1bbe e84e 813e e10b 62be
00000310: 40f8 ccbb b86d 9dbd 78e7 27be 438c 0ebe
00000320: 17d3 62be bce5 22be bbc8 863e 1f2a 443e
00000330: eb32 64be 183a 1ebe 2dad 673e 42d2 433e
00000340: df1c ff3d 533a febc b86f 95bd 74f4 133e
00000350: b421 6c3d 24e1 413e 505d 42bc 21c3 d13c
00000360: c99e 893e c42e d5bd b7b7 32be 3be4 1e3b
00000370: fd4a 4dbd da5e 91bd 50a8 74be 7b9c 863e
00000380: 3696 073e d38a 833e 1972 7c3e b29f 113e
00000390: 00d6 16bd 159c 67be 5b89 ca3c c592 85bd
000003a0: 88ed 053e 74b4 1f3d 6635 6ebe a9f4 de3d
000003b0: 5fbe 81bb 6235 43be 7150 573e 4896 6a3c
000003c0: 682c 28be 8d9b 8d3e 5245 163b e180 73bd
000003d0: 2a23 dfbd ac6d 013e 128a e83d f971 63bd
000003e0: 522d 1cbe a2ac 44be 35d5 803d df83 e1bd
000003f0: 0a49 283d a983 793e 5d1e 4d3e 1e9e 6bbe
0.26083142 -0.17012027 0.0784294 0.17190596 -0.1428473 0.2261065 0.13887033 -0.21044946
-0.21446882 0.15435681 0.2291841 -0.19469357 -0.25806662 -0.12661974 -0.23929712 0.018033316
0.1443406 -0.10147715 -0.16426331 0.11477114 -0.25553396 0.15252756 0.112720475 -0.24638034
-0.03371962 -0.06742559 -0.098487765 -0.09256167 0.26403734 0.093766235 0.06238941 0.042161737
-0.20639773 0.038085107 0.25122878 0.033464946 0.22835459 0.065734684 -0.018834908 0.15409172
0.20321542 -0.060172223 0.053839646 -0.07830945 -0.002348653 -0.034799203 -0.05136441 -0.05632419
0.14737758 -0.23823652 0.11491821 0.115949295 0.019535717 0.1776164 0.081058316 0.23400436
0.1503551 -0.18663402 0.057326533 -0.2615378 0.096922964 0.19467665 0.14432871 -0.08599765
-0.18236955 0.02443739 0.26617652 -0.19930948 -0.24249883 0.29181105 0.07969637 -0.14719978
-0.08197137 -0.19423272 -0.22579893 -0.12480925 0.012511409 -0.012319952 0.018998832 -0.096802264
-0.22510469 -0.04931881 0.2865864 -0.27301985 0.25769004 -0.21236132 -0.061077837 0.05773893
0.164674 0.07188034 0.21458793 -0.014337022 0.0456103 0.21911292 -0.061729006 0.03401252
0.16193904 0.25622043 0.13879491 0.11356133 -0.21020606 -0.06610633 0.24522984 -0.16873461
-0.09268307 0.13357855 0.15729344 0.2387603 0.14550358 0.22021198 -0.19770497 -0.041822515
0.17849547 -0.17560436 -0.20103298 0.024994751 -0.00905572 -0.123681724 -0.098401375 -0.07331183
-0.07100614 -0.17544203 -0.13905644 -0.18924053 0.025464768 0.12514524 -0.087309204 -0.20105271
0.036051843 0.051376972 -0.07009485 0.20450814 0.2036699 0.077144966 0.23381586 0.025630657
-0.12720945 -0.02037124 0.07727939 0.14639215 -0.23033184 0.013445708 -0.12205721 -0.15937702
0.1336824 0.014783494 0.15203413 -0.24668679 -0.22605509 0.007302451 0.07654299 -0.03740545
0.24637598 -0.1505974 0.15854499 0.22709936 0.26007953 -0.18620214 -0.08057988 -0.24144274
-0.031092117 0.22471894 -0.14586213 0.26379055 0.16449757 -0.0071349246 0.24897999 0.2560231
-0.15642975 0.03417948 -0.1789458 -0.056369238 -0.24028613 0.016963009 0.19183862 -0.07997321
-0.22056514 -0.07715948 0.13119029 0.062477283 -0.077475205 0.2670066 0.11126858 0.06480656
0.13339221 -0.1494901 0.10562216 -0.18048814 -0.092059 -0.23858234 -0.23733631 -0.09284222
0.10707561 -0.1516202 0.25255513 -0.22074844 -0.0062551796 -0.07686943 -0.16396892 -0.13920693
-0.22150837 -0.15907949 0.2632502 0.19156693 -0.22285049 -0.15451849 0.22624655 0.19123176
0.124566786 -0.03103367 -0.07296699 0.1444872 0.05764933 0.1893354 -0.011863068 0.02560574
0.26878956 -0.104093105 -0.17452894 0.0024244923 -0.050120343 -0.070981696 -0.23892331 0.2629126
0.13240895 0.25691852 0.246529 0.14221075 -0.03682518 -0.22618134 0.0247237 -0.06522135
0.13078892 0.038990453 -0.23262557 0.10886509 -0.0039594616 -0.19063333 0.2102678 0.014318056
-0.1642319 0.27657738 0.0022929502 -0.05944908 -0.10895379 0.12639493 0.1135446 -0.055528615
-0.15251663 -0.19206479 0.06290666 -0.110114805 0.04108528 0.2436663 0.20031114 -0.23009536

mlp.bias f4 [20]
00000000: 1d82 243c 9847 4a3c 630b b8bb f8cb 2b3c
00000010: 9daf a23c 32d8 543c 608d f13b ba6f 373c
00000020: edf6 a93c 4924 253c 316f 693c 53e9 863c
00000030: 607f 5e3c 2d5c fb3a 2b7b 923b 6905 a13c
00000040: cae1 2a3c 7906 fb3b 4beb 8f3c b625 d1b9
0.010040787 0.012346171 -0.005616592 0.010485642 0.01985913 0.012990998 0.0073715895 0.011196071
0.020747626 0.010079452 0.0142477015 0.01646868 0.013580173 0.0019177251 0.004470249 0.0196559
0.010429809 0.0076606837 0.017568251 -0.00039891683
