rnn_model.pth (torch, 6364 bytes, 6 tensors)

rnn.weight_ih_l0 f4 [20, 5]
0	0x3df6f90b	0.1205922
1	0xbb87ede1	-0.0041482304
2	0x3e260a82	0.16214946
3	0x3e9ae780	0.30254745
4	0xbe7939b7	-0.24338423
5	0x3d7dfb66	0.06200733
6	0x3dc8eb01	0.098104484
7	0x3c4779cb	0.012175034
8	0x3d5fbf98	0.054626077
9	0xbe80fe55	-0.2519404
10	0xbe22fa40	-0.15915775
11	0x3df06284	0.1173754
12	0xbe03a890	-0.1285727
13	0xbdd03835	-0.10166971
14	0x3def8220	0.11694741
15	0xbd2edd1b	-0.04269133
16	0x3e2d646c	0.16932839
17	0x3e0663d8	0.13124025
18	0xbe3859bf	-0.18002985
19	0xbd37187c	-0.044701084
20	0x3e325828	0.17416441
21	0x3dd29266	0.102818295
22	0xbe4b7a82	-0.19870952
23	0xbbbf1436	-0.0058312668
24	0xbe30a3ad	-0.17249937
25	0x3e746d44	0.23869807
26	0x3dedf332	0.116186514
27	0x3e9652fe	0.29360193
28	0x3e714145	0.23560055
29	0x3e1faa43	0.15592293
30	0xbdc00392	-0.09375681
31	0x3e2ad5c8	0.16683114
32	0xbe3e7502	-0.18599322
33	0x3e1048a4	0.1409021
34	0xbe1afe37	-0.15136038
35	0x3e03b46c	0.12861794
36	0xbe1ceb32	-0.15324095
37	0xbe3bad01	-0.18327715
38	0xbe408c32	-0.1880348
39	0xbdafec7a	-0.08590026
40	0x3ea56d61	0.32310012
41	0x3dbd1402	0.09232332
42	0x3cfd37f1	0.030910464
43	0xbd9313d8	-0.07181519
44	0xbe448e3c	-0.19194883
45	0xbe42f60e	-0.19039175
46	0x3e572e35	0.2101372
47	0xbe135fd3	-0.14392023
48	0x3e210c0e	0.15727255
49	0x3d6d3caa	0.057919182
50	0xbd4a5402	-0.049396522
51	0x3e38e84a	0.18057361
52	0xbe29fc1b	-0.16600077
53	0xbdcf91a7	-0.10135203
54	0xbe29f07a	-0.16595641
55	0xbd152ce9	-0.036419783
56	0xbc56870f	-0.013093724
57	0xbe5de013	-0.21667509
58	0x3daa0502	0.083017364
59	0x3e0d3265	0.13788755
60	0xbdccab06	-0.09993558
61	0x3e1fe8f0	0.15616202
62	0x3e62abea	0.22135893
63	0x3e38d910	0.18051553
64	0xbdff185c	-0.12455818
65	0xbdb3328b	-0.08749875
66	0x3d8ce2db	0.06879207
67	0xbe27cb72	-0.16386202
68	0xbdf33aa0	-0.11876416
69	0xbd9abd86	-0.0755568
70	0xbd95c227	-0.07312422
71	0xbe4babea	-0.19889799
72	0x3dbb1ca8	0.09136325
73	0xbb4d1fd2	-0.0031299484
74	0x3dab109f	0.083527796
75	0xbdd7f926	-0.10545568
76	0x3e85b668	0.26115727
77	0x3e3fbfef	0.1872556
78	0x3be25d73	0.0069081127
79	0xbd05a86e	-0.03263133
80	0xbe4bbed1	-0.1989701
81	0xbe2d9a3f	-0.16953371
82	0xbb92ad64	-0.004476236
83	0xbddfdd2c	-0.10930857
84	0xbe099ff5	-0.13439925
85	0xbe3ab17d	-0.18231769
86	0x3e35ef1c	0.17766994
87	0x3d97e16b	0.07416042
88	0xbcdfdff6	-0.027328473
89	0xbcfde7e7	-0.030994369
90	0x3d8c227b	0.06842514
91	0x3e99d558	0.3004558
92	0xbdb545e3	-0.088512205
93	0x3b7b763e	0.0038370038
94	0xbc73646e	-0.014855487
95	0xbe3d9e99	-0.18517531
96	0xbdfb2dc9	-0.12264592
97	0x3d854928	0.06508094
98	0x3e019719	0.12655295
99	0x3e0d9121	0.13824894

rnn.weight_hh_l0 f4 [20, 20]
0	0x3e24d855	0.16098149
1	0xbe1232ac	-0.14277142
2	0xbe09fafa	-0.13474646
3	0x3d20f8c4	0.03929974
4	0xbe0fb5f9	-0.14034261
5	0xbd07c970	-0.03315109
6	0xbdc3c2fa	-0.09558673
7	0x3becfc7f	0.0072322483
8	0x3d4bcf56	0.049758278
9	0xbe009054	-0.12555057
10	0xbe2caba1	-0.16862346
11	0x3e038847	0.12844954
12	0x3d7737a5	0.0603558
13	0xbe0b6bad	-0.13615294
14	0x3e0c1325	0.13679178
15	0x3e88a56c	0.26688707
16	0x3e501d46	0.20323667
17	0x3d6e3570	0.05815643
18	0x3be6fe80	0.0070493817
19	0xbe05cfdd	-0.13067575
20	0x3e14d450	0.14534116
21	0x3d6f96a2	0.058493264
22	0x3e1af94e	0.15134165
23	0xbe304110	-0.1721232
24	0x3d9e5a37	0.07732051
25	0x3e175526	0.14778575
26	0xbc8b3b2d	-0.01699599
27	0xbbdcce90	-0.0067384914
28	0x3e4d403a	0.20044032
29	0x3e645a77	0.22300135
30	0xbd912a68	-0.070881665
31	0xbc1ce7d5	-0.009576757
32	0x3ea4b27b	0.3216742
33	0xbe28f0c1	-0.1649809
34	0xbcc90e51	-0.02454296
35	0x3dfe4cd7	0.12417
36	0xbd9f6e72	-0.07784738
37	0x3deadb7b	0.11467644
38	0x3b600806	0.003418447
39	0x3e414dff	0.1887741
40	0x3e2afff3	0.166992
41	0x3dc19079	0.09451384
42	0x3d5d9f73	0.05410714
43	0x3defa943	0.11702206
44	0xbe569552	-0.20955399
45	0xbdf662f9	-0.12030596
46	0xbe170715	-0.14748795
47	0xbdbedc96	-0.09319417
48	0xbe64f332	-0.22358397
49	0x3dddcc8b	0.10830029
50	0x3e407de9	0.18798031
51	0x3d5bf799	0.053702924
52	0x3e19926a	0.14997259
53	0x3e0fd1aa	0.14044824
54	0x3dc64fbb	0.09683176
55	0x3d25ee8f	0.04051071
56	0x3de6f7c2	0.11277725
57	0xbb7ece21	-0.0038880187
58	0x3e621682	0.22078899
59	0xbd8ee1cf	-0.06976663
60	0xbe3540fe	-0.17700574
61	0xbd12be4e	-0.03582602
62	0x3e1b7448	0.15181077
63	0xbe5643f9	-0.20924367
64	0xbe360312	-0.17774609
65	0xbe303e24	-0.17211205
66	0x3da11270	0.07864845
67	0x3e28e75b	0.16494505
68	0x3e0934cc	0.13399047
69	0xbe2feecf	-0.17180942
70	0x3e423a3b	0.18967526
71	0xbe1591fd	-0.14606471
72	0x3d64ea4c	0.055887505
73	0x3cce6361	0.025193872
74	0xbdffeda5	-0.12496499
75	0x3cb7e408	0.022447601
76	0xbd16755c	-0.036733016
77	0x3d493886	0.04912617
78	0xbe3a0f89	-0.18169989
79	0x3d445da7	0.047940876
80	0xbdddcb75	-0.10829822
81	0xbbf98cc1	-0.007615656
82	0x3de34ab5	0.110982336
83	0xbe335b4e	-0.17515299
84	0x3dea4825	0.11439542
85	0xbdcf7876	-0.10130398
86	0xbe7a2049	-0.24426378
87	0x3e458150	0.1928761
88	0x3e2040cd	0.1564972
89	0x3e20ceb5	0.15703852
90	0xbd6136c8	-0.054983884
91	0xbe061f82	-0.13097957
92	0xbe42d7a2	-0.1902757
93	0xbdff8172	-0.124758616
94	0xbdb8abff	-0.09017181
95	0x3d53e72a	0.051734127
96	0xbdf83aa6	-0.12120561
97	0x3dc55681	0.0963564
98	0xbe332056	-0.17492804
99	0xbe6abf27	-0.22924481
100	0xbdb695a3	-0.0891526
101	0x3e2b06b4	0.16701776
102	0x3cc4c5b9	0.024020063
103	0xbe05807f	-0.13037299
104	0xbc7cdaad	-0.015432996
105	0x3e09ca76	0.13456139
106	0x3e5c2595	0.21498711
107	0x3e02637c	0.12733263
108	0x3e21fcca	0.15819088
109	0x3e26ee18	0.16301763
110	0xbd74b4f3	-0.05974288
111	0xbe092dde	-0.13396403
112	0x3e053bab	0.13011043
113	0x3e54af2c	0.20769948
114	0xbd9fe796	-0.078078434
115	0xbc33d7da	-0.010976756
116	0xbdcbc16a	-0.09949
117	0xbe123b24	-0.14280373
118	0x3d3181a5	0.04333653
119	0x3e26ca4f	0.16288112
120	0xbdf3539b	-0.11881181
121	0xbe427bd3	-0.18992548
122	0x3e355f0d	0.1771204
123	0x3d594858	0.053047508
124	0x3db49554	0.088175446
125	0xbc13030f	-0.008972897
126	0xbe0e7c92	-0.13914707
127	0x3e194372	0.14967135
128	0xbc8a69ed	-0.016896212
129	0x3e517b1d	0.2045712
130	0xbe100f2e	-0.1406829
131	0xbe3702b2	-0.17872122
132	0x3e12c35d	0.14332338
133	0x3cf2d864	0.029644199
134	0x3d4eeca5	0.05051865
135	0x3c0d7b48	0.00863535
136	0xbe0bf08e	-0.13665983
137	0xbe5fc241	-0.21851446
138	0x3e4c59fe	0.19956204
139	0x3e0b3171	0.13593079
140	0x3d831dec	0.064021915
141	0xbd57320e	-0.05253797
142	0xbd34ce7f	-0.044142243
143	0x3e4508d8	0.19241655
144	0x3e2968c5	0.16543873
145	0x3e35292b	0.17691486
146	0xbe3f7c62	-0.18699792
147	0x3e376cde	0.17912623
148	0x3e0ead8f	0.13933395
149	0x3d9cff1d	0.076658465
150	0x3dc6ef37	0.09713595
151	0x3960b98e	0.00021431429
152	0xbe3ad34d	-0.18244667
153	0xbcf1dee7	-0.029525233
154	0xbdb344e8	-0.08753377
155	0xbe52ed3f	-0.20598315
156	0xbde48878	-0.11158842
157	0xbe0071b0	-0.12543368
158	0x3c1bf808	0.0095195845
159	0x3d476544	0.04868056
160	0x3ebefbe2	0.37301546
161	0x3e9eec5c	0.31039703
162	0xbe3ae599	-0.18251647
163	0xbd956db4	-0.07296315
164	0x3e7c930d	0.2466547
165	0x3e8e670b	0.2781299
166	0x3d56dc49	0.052456174
167	0x3dbcf534	0.09226456
168	0x3dc3d150	0.095614076
169	0x3dc5dc64	0.09661177
170	0xbdb53861	-0.08848644
171	0xbe55badd	-0.20872064
172	0x3eac1df7	0.3361661
173	0xbdf3df73	-0.11907854
174	0xbb6df12d	-0.0036307082
175	0x3e0d2091	0.13781954
176	0x3dd38801	0.10328675
177	0xbdcc89d5	-0.09987227
178	0x3bed9bd4	0.007251242
179	0xbe1bdc6c	-0.15220803
180	0x3d332beb	0.043743055
181	0xbe09a3a9	-0.13441338
182	0x3ccc56be	0.024943706
183	0x3e47aede	0.195003
184	0xbde0e9eb	-0.10982116
185	0xbc624489	-0.013810285
186	0x3ce991cf	0.02851191
187	0x3e54957a	0.20760146
188	0xbde039f4	-0.10948554
189	0xbe3744ba	-0.17897311
190	0xbdd0ecbf	-0.10201406
191	0x3e40e5f6	0.18837723
192	0xbd5139b8	-0.051080436
193	0x3d8bb22d	0.06821094
194	0xbe5f30dc	-0.21795982
195	0x3e4548bc	0.19266027
196	0x3dd12022	0.10211207
197	0xbcf20b25	-0.02954633
198	0xbdcdc471	-0.10047234
199	0x3d900ab2	0.0703329
200	0x3d338715	0.043829996
201	0x3e2abf5d	0.16674562
202	0xbdce531d	-0.10074446
203	0xbc971cad	-0.01844629
204	0xbc3d0b08	-0.011538275
205	0xbcaf71fc	-0.021416657
206	0x3c8be5d2	0.01707736
207	0xbe380eca	-0.17974392
208	0x3d84a44f	0.06476652
209	0x3e47fb57	0.19529472
210	0xbd1307b0	-0.035896003
211	0x3dc5121c	0.09622595
212	0x3e10edad	0.14153166
213	0xbe0165a1	-0.12636425
214	0xbe55adbe	-0.20867059
215	0xbd3aebc5	-0.045635004
216	0xbe08af3f	-0.13348101
217	0xbe08efc1	-0.13372709
218	0x3e0322d9	0.12806262
219	0xbe5d8958	-0.21634424
220	0xbe3303a0	-0.17481852
221	0xbe17deae	-0.1483104
222	0x3c62a121	0.013832361
223	0x3d851fc6	0.06500201
224	0x3dcc3e69	0.09972841
225	0xbdca299c	-0.098712176
226	0xbe188cbb	-0.14897434
227	0x3e64c4db	0.2234072
228	0xbda5e848	-0.08100945
229	0x3e2e8efd	0.17046733
230	0x3dbb1e20	0.09136605
231	0x3e0c5956	0.13705954
232	0x3db3f0c6	0.08786158
233	0xbd9eef82	-0.07760526
234	0x3e5a8b02	0.2134209
235	0x3e1acd6f	0.15117429
236	0xbdb20468	-0.08692247
237	0x3c3f6b18	0.011683248
238	0xbc22bcda	-0.009932721
239	0xbe1ab845	-0.15109356
240	0x3e7a6c7d	0.24455447
241	0xbde61e61	-0.11236263
242	0xbd0165b9	-0.03159115
243	0x3bc69e0a	0.00606132
244	0xbd35fd83	-0.04443122
245	0xbbe49c9b	-0.0069766766
246	0x3ddcdd99	0.10784454
247	0xbcc25a21	-0.023724617
248	0xbe0944c3	-0.13405137
249	0xbde40bfe	-0.111351
250	0xbe85a95f	-0.26105782
251	0x3de65f30	0.11248624
252	0xbe308dd1	-0.17241599
253	0x3e260a14	0.16214782
254	0x3de4a033	0.11163368
255	0x3de11511	0.10990346

rnn.bias_ih_l0 f4 [20]
0	0x3daa2cf5	0.08309356
1	0x3e9076e3	0.28215703
2	0xbe48b733	-0.19601135
3	0x3e06c686	0.13161668
4	0xbdc85f38	-0.097837865
5	0x3dac4cde	0.08413099
6	0x3dcfb009	0.10140998
7	0xbd703692	-0.058645792
8	0xbdc7f597	-0.097636394
9	0xbe372573	-0.1788538
10	0x3e45f381	0.1933117
11	0xbe31a0dc	-0.17346519
12	0x3e278043	0.16357522
13	0xbda1048f	-0.078621976
14	0xbe14b6ea	-0.14522901
15	0x3e32f602	0.17476657
16	0x3dc6b280	0.09702015
17	0xbd4a0d61	-0.049329165
18	0x3e68598c	0.2269041
19	0xbcecddd6	-0.028914373

rnn.bias_hh_l0 f4 [20]
0	0xbdbcd3d2	-0.09220089
1	0x3e5d5a1d	0.21616407
2	0xbdba70e4	-0.091035634
3	0x3d8be08b	0.068299375
4	0xbe0ec417	-0.1394199
5	0xbdc705f7	-0.097179346
6	0xbe1e6777	-0.15469156
7	0x3d9d123e	0.07669495
8	0x3dc897e0	0.09794593
9	0xbe54dd00	-0.2078743
10	0x3e89d569	0.26920632
11	0x3bf8e93a	0.007596162
12	0xbd99ad25	-0.07503728
13	0xbe291263	-0.1651092
14	0x3e5da155	0.21643575
15	0xbd263c8b	-0.040585082
16	0x3d1b316c	0.03788893
17	0x3c9f029f	0.01941043
18	0x3d5622ca	0.05227927
19	0xbdb85257	-0.0900008

mlp.weight f4 [20, 20]
0	0x3c31a741	0.010843099
1	0x3e35d70e	0.17757818
2	0x3df634a4	0.12021759
3	0xbe153ad4	-0.14573222
4	0xbe9cd6a9	-0.30632523
5	0x3dda5a58	0.10661763
6	0xbea80cbf	-0.32822224
7	0xbd379866	-0.044823073
8	0xbe0e97ee	-0.13925144
9	0xbe748fea	-0.23883024
10	0x3dc1b71e	0.09458755
11	0xbebb667d	-0.3660163
12	0xbc685f56	-0.014182886
13	0x3e968018	0.29394603
14	0xbe5cee9e	-0.215754
15	0x3e652695	0.22377999
16	0x3da8581e	0.08219932
17	0xbc918211	-0.017762216
18	0x3e3b38aa	0.18283334
19	0xbe2c3b7f	-0.16819571
20	0x3da09cb2	0.07842387
21	0x3eb085e0	0.3447714
22	0x3e04df8f	0.12975906
23	0xbcc9c7f9	-0.024631487
24	0xbe8cf9b4	-0.27534258
25	0x3e780639	0.24221124
26	0x3e6cec19	0.23136939
27	0xbe3a0663	-0.18166499
28	0x3d820f30	0.06350553
29	0xbe73bbf9	-0.23802175
30	0xbe6d903d	-0.23199554
31	0xbea04924	-0.31305802
32	0xbe31c84a	-0.1736156
33	0x3e9dec23	0.3084422
34	0xbd755054	-0.05989106
35	0xbccc2ed5	-0.024924675
36	0x3dd55a97	0.10417669
37	0xbdad1ec1	-0.084531315
38	0x3c4557a7	0.012044824
39	0x3e381eea	0.17980543
40	0x3ea26847	0.31720182
41	0xbe1ff848	-0.15622056
42	0xbe481399	-0.19538726
43	0x3e922c8a	0.28549606
44	0xbd9aa8f5	-0.07551757
45	0xbe257498	-0.16157758
46	0x3ec865ff	0.39140317
47	0xbe95a0f3	-0.29224357
48	0x3edffdde	0.43748373
49	0xbdc29387	-0.09500795
50	0xbe8212e4	-0.25405037
51	0xbe855693	-0.26042613
52	0x3c9c469c	0.019076638
53	0x3c554df8	0.0130190775
54	0x3da2bdf3	0.07946386
55	0x3e536538	0.2064408
56	0x3e85adaa	0.26109058
57	0xbe8852f3	-0.26625785
58	0xbdb7140f	-0.08939373
59	0x3ec61d9b	0.38694462
60	0xbddf6387	-0.10907655
61	0x3ed5727c	0.41688907
62	0x3ea15252	0.31508118
63	0x3db266d6	0.08711021
64	0xbe2c2916	-0.16812548
65	0xbe3a6267	-0.182016
66	0xbe54c559	-0.20778407
67	0x3e5c6e00	0.21526337
68	0x3e408ee8	0.18804514
69	0x3e88ae39	0.2669542
70	0xbbbf4628	-0.0058372207
71	0xbda36a0e	-0.07979213
72	0xbe2b63c6	-0.1673728
73	0x3dc0cfde	0.094146475
74	0xbe9e172d	-0.30877057
75	0x3da7843f	0.08179521
76	0x3e8deb7a	0.27718717
77	0x3ed3c4ae	0.41360992
78	0x3dfec38e	0.12439643
79	0xbe5eefb3	-0.21771125
80	0x3e956b1c	0.2918328
81	0x3e2dba65	0.16965635
82	0xbec0cbf8	-0.37655616
83	0xbe953d73	-0.29148445
84	0x3ed1bb5d	0.4096326
85	0xbae7f70f	-0.001769753
86	0x3e0b39de	0.13596293
87	0xbeb03190	-0.34412813
88	0x3e84615b	0.25855526
89	0x3eae73ef	0.34072825
90	0xbe0f7ef8	-0.14013278
91	0x3ea91b83	0.33028802
92	0x3eeed781	0.4664879
93	0xbe35635d	-0.17713685
94	0x3c585177	0.0132030165
95	0x3ded4550	0.11585486
96	0xbd589778	-0.052878827
97	0x3e29954f	0.16560863
98	0xbea4668b	-0.32109484
99	0xbdf4253f	-0.11921167
100	0xbe1254f9	-0.14290227
101	0xbe93fdb1	-0.2890449
102	0xbd7afa28	-0.061273724
103	0x3e992b26	0.29915732
104	0x3cd08894	0.02545575
105	0x3ee791c5	0.452284
106	0x3de8f26e	0.11374365
107	0x3e98a6f4	0.29814875
108	0x3e1323a4	0.14369065
109	0x3d2c90f1	0.042130414
110	0x3d288f83	0.04115249
111	0xbc579a15	-0.013159295
112	0xbdcb9abc	-0.099416226
113	0xbe6fcf3e	-0.234189
114	0x3ea040fc	0.3129958
115	0x3eb2ba0d	0.3490757
116	0x3e52425f	0.20533131
117	0x3ded6c24	0.11592892
118	0xbde8b590	-0.11362755
119	0xbe8374e3	-0.25675115
120	0x3ef4ccb5	0.4781243
121	0xbe8001a1	-0.25001243
122	0x3dbbaad3	0.091634415
123	0xbe90d428	-0.28286862
124	0xbe9de70a	-0.3084033
125	0xbe1eeffe	-0.15521237
126	0xbe02567e	-0.12728307
127	0x3e423830	0.18966746
128	0x3ef47116	0.47742528
129	0x3ce04ad2	0.027379427
130	0x3de1db77	0.11028188
131	0xbe75670f	-0.23965095
132	0xbdf816c1	-0.12113715
133	0x3cbf3ede	0.023345407
134	0x3e05338d	0.13007946
135	0xbe421d5f	-0.18956517
136	0x3e80bd53	0.25144443
137	0xbe74f8d4	-0.23923045
138	0x3e5ab942	0.21359733
139	0xbe1b9663	-0.15194087
140	0x3f01d12a	0.50709784
141	0xbddbd87a	-0.10734649
142	0xbe8ffc22	-0.2812205
143	0x3dacc916	0.084367916
144	0xbe306ee7	-0.17229806
145	0x3ea0e2f2	0.31423146
146	0x3e040eda	0.1289629
147	0x3e355cf0	0.17711234
148	0xbe67ee9b	-0.22649615
149	0xbd9c2ae3	-0.076253675
150	0x3d46f8c8	0.0485771
151	0x3e8cf884	0.27533352
152	0x3e89dea1	0.26927665
153	0xbce1e58d	-0.027575279
154	0x3d0df877	0.034660783
155	0x3ebd804a	0.3701194
156	0x3e94f55b	0.2909344
157	0x3df25f94	0.11834636
158	0xbe23e821	-0.16006519
159	0xbe2a3ed7	-0.16625534
160	0x3e6b0be9	0.22953762
161	0xbe64ee47	-0.2235652
162	0x3ea1bdc8	0.31590104
163	0xbe99d503	-0.30045328
164	0x3e1ece35	0.15508349
165	0x3ebb8552	0.36625153
166	0x3dd3120e	0.10306178
167	0xbe4cea63	-0.20011286
168	0x3f001d5a	0.50044787
169	0x3d28ed32	0.041241832
170	0xbde5c472	-0.112191096
171	0xbdc2a8b6	-0.09504835
172	0xbdc7e126	-0.097597405
173	0xbebfafeb	-0.37438902
174	0x3cd11d71	0.025526734
175	0xbdf8c932	-0.1214775
176	0xbea5dfbb	-0.32397255
177	0xbe8bb14f	-0.27283713
178	0xbe58e2b0	-0.21180224
179	0x3e39e7c7	0.18154822
180	0x3e6639ed	0.22483034
181	0xbe0273b2	-0.12739447
182	0x3c8b2f53	0.01699034
183	0xbe979a92	-0.29610115
184	0xbe028528	-0.12746108
185	0xbe4f6d08	-0.20256436
186	0x3e8b1319	0.27163008
187	0x3eb132cc	0.34609067
188	0x3f019e90	0.5063257
189	0xbe04fd70	-0.12987304
190	0xbda0892b	-0.07838663
191	0xbd1b40b4	-0.037903503
192	0xbe165c08	-0.14683545
193	0x3ce96eaf	0.02849516
194	0xbcbea9db	-0.023274353
195	0xbd908a0f	-0.070575826
196	0xbe2b51d1	-0.16730429
197	0xbe2de96a	-0.16983572
198	0x3e3e3897	0.18576275
199	0xbe9e480e	-0.30914348
200	0xbdb17dd7	-0.0866658
201	0x3e1e188e	0.15439054
202	0xbdf6aacd	-0.120442964
203	0x3dbc4523	0.09192874
204	0x3da73fc0	0.08166456
205	0x3e2c8e33	0.1685112
206	0x3b9bfac6	0.004760119
207	0x3e0e5482	0.13899425
208	0x3dfce1af	0.12347733
209	0xbe172653	-0.14760713
210	0xbecd6029	-0.40112427
211	0xbe68409d	-0.22680898
212	0x3d46f6ec	0.048575327
213	0xbe891fbe	-0.2678203
214	0x3e803370	0.25039244
215	0x3dedf9a5	0.116198815
216	0xbcde8c63	-0.027166551
217	0xbe829bb1	-0.25509408
218	0x3ddc8d5f	0.10769152
219	0xbda4671f	-0.08027481
220	0x3eaec54d	0.34134904
221	0x3dcbb789	0.09947116
222	0xbeb2a899	-0.34894255
223	0x3e8fd0db	0.28089032
224	0xbe9607bb	-0.29302773
225	0x3e839202	0.25697333
226	0xbea430c6	-0.3206846
227	0xbdf0b508	-0.11753279
228	0xbde0611a	-0.10956021
229	0xbeaf43df	-0.3423147
230	0xbeb45226	-0.35218924
231	0x3e5da2f7	0.21644197
232	0xbca94a32	-0.020665262
233	0xbe666737	-0.22500311
234	0xbd375461	-0.044758204
235	0x3ec43a75	0.3832585
236	0x3e160551	0.14650466
237	0x3ed22443	0.4104329
238	0xbe321535	-0.17390902
239	0xbd42578c	-0.047446772
240	0xbe1b308f	-0.15155242
241	0xbe0a6378	-0.13514507
242	0xbe7ac2d6	-0.24488387
243	0xbe9bcfbf	-0.30431935
244	0x3ea90f52	0.330195
245	0xbe01c06c	-0.1267106
246	0xbe4f6f91	-0.20257403
247	0x3d8c6739	0.06855626
248	0x3ec59dbd	0.38596907
249	0xbeb6fcc5	-0.35739723
250	0xbe0b99bf	-0.13632868
251	0xbe42ee35	-0.19036181
252	0x3ed869df	0.42268273
253	0x3ebd1e2d	0.36937085
254	0xbdb8b4bf	-0.090188496
255	0x3ca66eed	0.020316565

mlp.bias f4 [20]
0	0x3e1bed75	0.15227301
1	0x3d9e593a	0.07731862
2	0x3da5c596	0.08094327
3	0x3e13d18f	0.14435409
4	0x3d8f166f	0.06986701
5	0x3d8fcfba	0.070220426
6	0x3d7fa25d	0.0624107
7	0x3d99e057	0.075134926
8	0x3d863841	0.06553698
9	0x3d9ca1a3	0.07648017
10	0x3dbfaa98	0.0935871
11	0x3dace8ae	0.08442818
12	0x3da570a0	0.08078122
13	0x3d407162	0.04698313
14	0x3db58b38	0.088644445
15	0x3d6eb9e3	0.058282744
16	0x3d8f0f88	0.06985384
17	0x3d9f00f0	0.07763851
18	0x3dcaa22a	0.098942116
19	0x3d97df28	0.074156106
