rnn_model.pth (torch, 7970 bytes, 6 tensors)

rnn.weight_ih_l0 f4 [32, 6]
00000000: 222a d53c 6bb5 393e 63ad 8c3d 529c 85bd
00000010: 34bd 8c3d d101 053e a403 713e e83c 9e3c
00000020: 8c3d 6e3e 682a 373e e95c e63d b092 3c3e
00000030: ae63 533e 6874 98bc df8c ad3d c65c efbd
00000040: 725c 9d3d 53bf 32bd fe88 6c3e 8724 c0bd
00000050: 155f b9bd 6e3f 503e fba5 a7bd 8287 503d
00000060: 3449 103e 07f5 c9bd a1f4 60bd 99cc 24bc
00000070: 7e1e 9c3c 82ba 94bc 8050 23be e891 173e
00000080: 6ce3 133d 391c 223e d582 a53d 6634 4bbd
00000090: 32cb 0dbd 6558 463d b959 ffbc 16ce 613d
000000a0: fc47 8f3d 0917 b23d 9aee e8bd c30b 17be
000000b0: f55e e0bd a9b1 24be 9c0b 963d 83bf 75bd
000000c0: 3950 2b3e bffc 913d 13c0 f33c 3360 c1bd
000000d0: d710 16bd 1258 07be e75c bf3c 81ce a13d
000000e0: 47dd 64bd 8bb5 b23d cc73 2d3e a6d5 9a3d
000000f0: a4bf 1cbe 6adf 123e 3437 b1bd 85a6 9d3c
00000100: b1fc abbc 4c3a 053e 5c22 44bd bc00 14be
00000110: 0937 10bb db87 31bd 43cb 1fbe 17e4 51bb
00000120: 6b3f 05be 9ef5 0cbe 2f01 5dbd 6453 e83d
00000130: 3752 303e bc38 8a3d facb 83bd a81d 0fbe
00000140: 6fcc 1c3d df0d c13d 0819 a33d f2bb d5bd
00000150: d474 2abe 8f41 803b 7d20 2f3e 4f88 00be
00000160: f293 75bd 5591 283e 0015 6a3c 0d37 a53d
00000170: 6b09 33be e597 113e e9e2 d5bd b5b6 ab3c
00000180: 7729 913d 9050 0ebe 8d45 8fbd 8a35 7e3d
00000190: 725c 403c f0ec 38be db87 4bbd 0ee6 e43d
000001a0: e6d0 d4bd 0a2f a0bc e674 13be 6710 f73d
000001b0: 5e6f 813d 5b11 89bd bfc0 083e 2613 dc3d
000001c0: 4270 e83c 8393 c03c bd51 96bd aaf3 d83d
000001d0: 668e 9ebc 074a d2bd 9fd6 36bd 2d3e 113e
000001e0: 9e64 6bbe 208c b6bd 1e7e 71be d6e1 5b3d
000001f0: 6ece 37bd 2fdf e63d 2dd8 3d3d eb26 0e3e
00000200: f532 4b3b d578 883d 7153 95bd 9073 da3d
00000210: 14dd 093d c738 213d ce86 a63c 1ddf 143e
00000220: 5d77 2b3d 2f92 8cbd 672b 0a3d 3a32 b53d
00000230: 587b fcbb b182 2dbe 3d99 a73d 8e94 fe3d
00000240: 0f69 193e ac81 9b3d fd78 bd3d 9d4c ab3d
00000250: 0cde 39bd 5221 123e 5eac 93bd 1112 f7bd
00000260: fdcb 873d a365 7d3d 02d5 03be 5798 533c
00000270: 2246 ec3d 3213 cbbd 8100 ffbd d2af 5bbd
00000280: e42b fcbd 8fbc 5b3e bc3d 9d3c 0d24 293e
00000290: c583 9f3d 4d33 3c3e 453c c33d 315d f73d
000002a0: 40c5 d83d e5f4 ef3d dc6e 04bd 4c62 30bd
000002b0: 96ff 523e c8e0 8f3d e37b ea3d 08cd a43d
000002c0: 41c9 7d3d d552 02bd 1fc4 6e3e e961 f9bd
000002d0: 1ed3 743d 615b 05be 9bab d93d 4c79 e8bd
000002e0: e9ff 7cbd 5b4b 8ebd cb98 34be 7bbc 85bd
000002f0: d44b 253e 2201 11bd 529d 0abe 3a28 06be
0.026021067 0.18135612 0.068690084 -0.06523956 0.06872025 0.12988974 0.23536545 0.019316152
0.23265666 0.1788727 0.1124819 0.18415332 0.20643494 -0.018610194 0.08474135 -0.11687617
0.07683648 -0.043639492 0.23099133 -0.09381967 -0.090513386 0.20336697 -0.08185955 0.05091048
0.14090425 -0.098611884 -0.054920796 -0.0100585455 0.019057509 -0.01815534 -0.15948677 0.14801753
0.03610556 0.15831079 0.08081595 -0.049610518 -0.03461761 0.048424143 -0.031170713 0.05512818
0.06996152 0.086958 -0.11373635 -0.1475058 -0.109556116 -0.16083397 0.07326433 -0.059997093
0.16729821 0.071282856 0.029754674 -0.09442177 -0.036637153 -0.1321719 0.023359729 0.079007156
-0.05587509 0.08726033 0.16938704 0.075602815 -0.1530748 0.14343038 -0.08653107 0.019244442
-0.020994516 0.1301052 -0.04788433 -0.14453405 -0.002200546 -0.043342452 -0.15604882 -0.0032026821
-0.13012473 -0.1376557 -0.053956207 0.113440305 0.17218862 0.067491025 -0.0643539 -0.13976157
0.0382809 0.09426474 0.07963759 -0.10436238 -0.16646129 0.003914065 0.17102237 -0.12551998
-0.059955545 0.1646169 0.014287233 0.08067141 -0.17484061 0.142181 -0.1044367 0.020961145
0.07087987 -0.1389792 -0.06995688 0.062062778 0.011740791 -0.18059134 -0.04969011 0.11176692
-0.10391407 -0.01955368 -0.14400062 0.120636754 0.0632007 -0.066927634 0.13354777 0.1074584
0.028373841 0.02350784 -0.07339809 0.1059335 -0.01935501 -0.10268026 -0.044638272 0.14183874
-0.22987601 -0.089134455 -0.23583266 0.05368217 -0.0448746 0.11273038 0.04634874 0.13882034
0.0031005715 0.06663672 -0.07291306 0.10666573 0.033658102 0.039360788 0.020327952 0.14538236
0.04186188 -0.0686382 0.033732798 0.088474706 -0.0077051334 -0.16944386 0.08183525 0.12430678
0.14981483 0.07593092 0.09251592 0.08364222 -0.045377776 0.14270523 -0.07210611 -0.12063993
0.066307046 0.061864506 -0.12874225 0.012914739 0.11536814 -0.099157706 -0.12451268 -0.053634472
-0.12313059 0.21458648 0.019194476 0.16517659 0.07788805 0.18378945 0.0953298 0.12078322
0.105844975 0.11716632 -0.032332286 -0.043062493 0.20605311 0.070252955 0.11449411 0.08046919
0.06195951 -0.031817276 0.23317002 -0.12176878 0.05977165 -0.1302314 0.10628434 -0.113512605
-0.061767492 -0.06947967 -0.17636411 -0.065300904 0.16142207 -0.03540147 -0.13536575 -0.13101283

rnn.weight_hh_l0 f4 [32, 32]
00000000: fb52 38bd 219a 1f3e 3afa ec3d 67f6 4e3e
00000010: 1fba 9f3d c4d2 323e 6c7a 09be 37bf 31be
00000020: 1ca1 5bbd 975e 063e 8b92 07be ad5b 153d
00000030: b6f5 2d3e 1540 05bd 1a97 ea3d 7f1b d7bd
00000040: 8504 9a3b 5c3b 0c3e cd50 fcbd 2c7b 14bd
00000050: b548 e33d f628 2dbc 88af 8e3d 764b 9fbd
00000060: ce2f 313d ae5d 213e af59 213e fc33 043d
00000070: b5b4 82bc 158e d9bd 256f 03bd 635a 8abd
00000080: 6798 843e 7298 5f3d 1037 2bbc 8347 8e3e
00000090: 55a5 0bbe cf7a 95bd 9979 13be 9381 2d3e
000000a0: b21b e83d 60cb 8c3d e76b 8dbd 8a1f c73d
000000b0: fed7 bf3b 8a41 8f3d 3170 5b3b 3efc ebbd
000000c0: 9ca7 14be 9a60 cd3d 57d8 e53d 5925 88be
000000d0: 1904 e9bc 00ae c93d 0473 83bd e9c3 0bbe
000000e0: 9a83 4abd ceef 27bd 8d37 70be 0249 3a3e
000000f0: 0d32 833e 2ac5 d73d 27df 233e d26b a83d
00000100: 4888 8e3d 0224 5e3e 4df2 2fbd 8351 14bc
00000110: 6e03 023d 699e 0dbd be32 1abd 9e21 ee3c
00000120: 033e 7fbd 0664 d9bd 0022 a7bc c7f7 2c3e
00000130: 972a d13d df13 46bd 6398 aa3c c5b2 24be
00000140: 8b0a 283e 3fec 73bb 50cb f83c 8fe7 5ebd
00000150: 84e5 4a3d 99df 963c a607 423e 9fa6 99bd
00000160: 3792 633d 7ea7 1fbd 629a 703d 2477 5f3e
00000170: 9717 b3bd ddfa df3d a53a cc3d 0c42 6bbd
00000180: d2ef f83d c42c 00bd a595 86bd 9da8 07bd
00000190: a2a6 ed3d 9a41 753b d3f7 3a3e e248 12be
000001a0: ef5f 2bbe 3eac 503e 4b80 18be b0d5 a9bd
000001b0: c794 52bc a828 c03d 30ae 8fbc 63ab e33d
000001c0: 4da5 473e 959e 28be e594 6e3d e661 13be
000001d0: 1a5b 47be 770e 6b3d 66de 293e cc68 15be
000001e0: 37cd 4f3e 39f8 10be c38a 43be ecfc e23d
000001f0: 85fd 80bd b56f db3b 37c8 b83d 66c0 10be
00000200: b1e3 673d 5106 bd3c c6e7 e33d 762c c1bd
00000210: 7c8a 2bbd 45e1 1dbe 4e83 283e b906 b23d
00000220: 04fc 313e b4a6 e13d 136b 073e fc11 efbd
00000230: eab1 de3d c8ee e4bd a158 973d 5a67 0b3e
00000240: 3041 2f3e cd08 0fbe 5a6e 163e 7e81 cabd
00000250: d176 1b3e 0d32 e23d 3d91 1d3e d6f9 113e
00000260: 91a0 3a3e fb49 02be f428 fcbd 6590 74bd
00000270: 0afe aebd d274 973d 7b26 5dbd d505 083c
00000280: 0e4f 1ebe aab8 a9bc c272 983c cc1c 24be
00000290: 4a5c 543d c52b 32bd 9d01 f2bd aee9 13bd
000002a0: 2875 23bd 16e3 acbd 0bfc 1e3d 4656 abbd
000002b0: f837 cd3d af86 28be 4fc2 f2bd 64f7 2e3d
000002c0: 050b 823c afd2 c8bc edc0 143e 982d 1ebe
000002d0: 60e1 553d 6af0 f73d c54e 1d3e 30f1 37be
000002e0: 26dc 40be f515 0ebe a342 45bc 93ab ee3c
000002f0: 5169 44bd 8a0e 7e3d 1039 3c3d 9803 19bc
00000300: c9b9 27be 4ba6 603d 97ee 81bc d525 b6bd
00000310: cf5c ccb7 9df5 193e cd66 013d 2e48 28be
00000320: 55ff b63d 4006 ebbd ea53 0f3e 25c1 953d
00000330: 091e 813c 4c28 e4bc 8e8b 9dbd becd cbbc
00000340: fa27 dabd 2173 173e 3004 4cbd 5c6e f63c
00000350: 1514 ae3d 3c1c a6bd 7d89 b73d 6540 0d3e
00000360: db4c ccbd ad43 673c 38c9 5b3b b7a6 133e
00000370: 1a1f 07be 0850 813c f9e5 853c 45cc b5bd
00000380: 06a1 063e a372 28be 31e4 603d 9c74 78bb
00000390: c788 193e ecd7 4cbd d14d c3bd 7968 bcbd
000003a0: 277c 803d 1eef 093e 75aa ce3d 4baa 2e3d
000003b0: b321 d0bd 915a 21be 52f2 203e 4690 293e
000003c0: 85a2 533d 4d2b ae3d 175b 27bd da83 06be
000003d0: 1442 7b3d de31 0ebe fc6d 26be 4197 b1bd
000003e0: 17da 293e 7a2f e1bd 5121 0bbe 3b05 4bbd
000003f0: 59a5 bcbd 9453 abbc fa12 473d 5e4b e03b
-0.04500101 0.1558614 0.115711644 0.20211183 0.07799172 0.17463213 -0.13425606 -0.17358099
-0.053620443 0.1312202 -0.13239495 0.036464382 0.16988263 -0.032531817 0.114546016 -0.10503291
0.004700246 0.13694519 -0.12320099 -0.03625028 0.11097852 -0.010568848 0.06967074 -0.07778065
0.04325848 0.15758392 0.15756868 0.03227614 -0.015955308 -0.10622803 -0.032088418 -0.06755521
0.25897524 0.054588743 -0.01045014 0.27788934 -0.13637288 -0.072988145 -0.14401855 0.1694396
0.113334075 0.06874728 -0.06905346 0.097228125 0.0058546057 0.069949225 0.003348362 -0.11522721
-0.14517063 0.10028191 0.11222904 -0.26590994 -0.028444337 0.09847641 -0.06418422 -0.13648953
-0.04944191 -0.04100018 -0.23458691 0.18191913 0.25624123 0.10535653 0.16003095 0.0822369
0.06959587 0.21693423 -0.042955685 -0.009052637 0.031741552 -0.0345749 -0.037646048 0.029068764
-0.062315 -0.10614781 -0.020401955 0.16891395 0.102132015 -0.048358794 0.020824617 -0.1608382
0.16410272 -0.003721967 0.030370384 -0.05442005 0.04953529 0.018417167 0.1894823 -0.075024836
0.055559363 -0.038978092 0.05874098 0.21822792 -0.08744734 0.1093652 0.09972123 -0.057436034
0.12155117 -0.03129269 -0.06571511 -0.033119787 0.11604048 0.0037423135 0.182586 -0.14285615
-0.16735815 0.20378205 -0.1489269 -0.08292711 -0.012852854 0.093827546 -0.017539114 0.11116674
0.19496651 -0.16466744 0.058247466 -0.14392814 -0.19468346 0.05738684 0.16588745 -0.14590758
0.20293127 -0.1415719 -0.19095902 0.11083397 -0.06298355 0.006696666 0.09022563 -0.14135894
0.056613628 0.023074301 0.11128192 -0.094323084 -0.041880116 -0.15417965 0.16456339 0.086926885
0.17381293 0.11018124 0.1322444 -0.11673352 0.10873778 -0.111783564 0.073899515 0.13613644
0.17114711 -0.13968201 0.14690533 -0.0988798 0.15182044 0.11044703 0.15387435 0.14255461
0.18225314 -0.12723534 -0.12312499 -0.059708018 -0.08544548 0.073953286 -0.053991776 0.008302172
-0.15459844 -0.020717937 0.018609408 -0.1602661 0.051845826 -0.043498773 -0.11816714 -0.036111526
-0.03990665 -0.08441751 0.038814586 -0.08366065 0.10020441 -0.16457628 -0.11853468 0.0427164
0.015874395 -0.024514524 0.1452672 -0.1544708 0.052216887 0.12106402 0.1536208 -0.179631
-0.1883398 -0.13875563 -0.012039813 0.029134547 -0.047952 0.062025584 0.045952857 -0.009339236
-0.16379465 0.05484609 -0.015860839 -0.08893935 -2.4361912e-05 0.150351 0.03159218 -0.16433784
0.089354195 -0.114758015 0.13996854 0.0731223 0.015761392 -0.027851246 -0.076926336 -0.024878379
-0.10652156 0.14790012 -0.04980868 0.03008192 0.08499924 -0.08110854 0.08961771 0.13794096
-0.099755965 0.014115256 0.0033536684 0.14419065 -0.13195458 0.015785232 0.016345011 -0.08876852
0.13147363 -0.1644998 0.05490512 -0.0037911301 0.14993583 -0.050010607 -0.09536327 -0.09199614
0.0627368 0.13470122 0.10091106 0.042642873 -0.101626776 -0.15757205 0.15717438 0.16558942
0.051668663 0.08504353 -0.040858354 -0.13136235 0.061342314 -0.1388621 -0.16252893 -0.086714275
0.16587101 -0.109953836 -0.13586928 -0.049565535 -0.09211225 -0.020913877 0.04860208 0.006844922

rnn.bias_ih_l0 f4 [32]
00000000: 3b2f 353e a198 f83d dbc7 10bd 142d 863d
00000010: 2ec0 e73d a8ba 01be 6241 b1bc 0bbe 40bd
00000020: c403 35bd 73ca e6bd 96c7 f2bd 3bb6 25be
00000030: 3d3f 21be 6129 673d 16f5 0abe 1e4d 353d
00000040: a50b 013d ab3c 6bbd 5b4d eebc 47ac d1bd
00000050: 108a 37bd f50d 673d a61d d33d 14c5 21bc
00000060: 2417 3f3e 4a3d be3d 8c6b ff3d d22b 463d
00000070: c6d6 783d 9855 d13d 4c59 e9bd 89fd b23d
0.17693798 0.12138487 -0.035346847 0.06551567 0.11315952 -0.1266886 -0.021637622 -0.04705624
-0.044193044 -0.11269083 -0.11854474 -0.16182797 -0.1574678 0.056435946 -0.13570055 0.044262998
0.031505246 -0.057430904 -0.02908962 -0.102379374 -0.0448094 0.056409795 0.10308389 -0.009873647
0.18661171 0.09289034 0.12471685 0.048381634 0.0607517 0.10221404 -0.11393985 0.08739764

rnn.bias_hh_l0 f4 [32]
00000000: a3da 9dbd caa2 cdbd 2d31 14bd cd47 56bd
00000010: 4183 043d c474 193b 9471 293e 5deb 9abc
00000020: 13fe b03c ac4f 233e 96e9 933d 52d6 12bc
00000030: 8fac 073e 0f94 5a3d 346a 563d 69c0 0bbe
00000040: 878c 003e d33f a9bd c221 07be 1612 fa3d
00000050: 23e4 1b3e b537 eb3d 18f9 98bd 5870 133d
00000060: 64a5 653c 0053 d53d d8e3 89bd fb5f ee3d
00000070: bc86 863d 2eb8 3c3e f4bd 26be ab40 61bd
-0.07707717 -0.10040815 -0.03617971 -0.05231457 0.032351736 0.0023415545 0.16547233 -0.018911058
0.021605527 0.15948361 0.07222287 -0.008962231 0.1324942 0.053363856 0.052347377 -0.13647617
0.12553607 -0.08264127 -0.13196471 0.12210481 0.15223746 0.11485235 -0.07469386 0.03599581
0.014016483 0.104162216 -0.06732911 0.116394006 0.06568667 0.18429634 -0.16283399 -0.054993313

mlp.weight f4 [6, 32]
00000000: 0e08 09be 5317 6d3e 1661 1d39 ffa1 64be
00000010: 9b88 97bd 85a8 89be 6172 193c 572f 8f3e
00000020: e603 963e 03c5 cc3e 4e7e 86bd e4b8 bcbe
00000030: 2fb1 153e 9e79 71be a9df 673e 05c8 76bd
00000040: 0a8f 2b3e 657d c3be 1cf8 36be dfa1 68be
00000050: ee0c 96be cf3e 523e f59e 443e 6769 883e
00000060: ced6 723d 6b3e fc3d 6666 523d 77ce d7bc
00000070: c0a3 0dbd 7e27 683e 3df5 0ebe 64dc 973e
00000080: 59b2 33bd d4e5 163e 5d44 37bd f93c 113e
00000090: 3d9a df3e dd56 23be ac6d 2b3d 04c0 89be
000000a0: 32ce 99bd a016 3f3e ba09 1ebd 2ba3 9f3e
000000b0: 2f3c 3dbe 9a70 53be 4d2b c2be 3b02 97be
000000c0: 3c64 e2bd 03d3 b1be 525a a4be e4f8 2ebe
000000d0: 4ae6 63be 1246 7f3e 8ab8 66be 1455 a6be
000000e0: d996 dfbd c36e 87be bbc9 a03c cb00 9b3e
000000f0: 309a 87bd 2b32 c63d 73c9 acbe 14ce 86be
00000100: aceb 63be 61b4 f83d 3690 5dbd d5c1 b73e
00000110: 7696 88be 6535 2cbd 7fb2 bdbe 7b36 4d3d
00000120: b299 fabd c87c 3abe 7986 bdbe 7a6f 1f3e
00000130: d962 a73e 1064 823e 4fc2 93bd d09e 8039
00000140: c82d 5b3e 5202 22be 942d bbbe c3d4 36be
00000150: 97d9 343e 6919 e03e 4832 6f3e 08d1 9d3e
00000160: ad33 67be 9967 cabe 05af 603e d8f2 cd3e
00000170: b90a e33d 7547 c93b 0f64 a0be 0e01 b83e
00000180: 663e d43e 2c2e 4f3e 1f87 70be f427 babd
00000190: 4881 6f3d 638e 553e c0f4 20be d4c9 9ebe
000001a0: 6d7f 4f3e 533f 5bbe 8f84 a6be aa7e 32bd
000001b0: 9782 6cbd 0d17 99be 1edb 47be 1c35 e7bc
000001c0: d7f8 93be bf00 843e 9563 c3be 6848 acbe
000001d0: ee2b 00be 9528 8b3e a502 2abe 50c2 6ebe
000001e0: deec 233d df39 cebc be29 22be f344 3cbe
000001f0: 3e8a 683e 1556 173e 3773 93be 3962 8dbe
00000200: c1cd 4ebd 90d1 8ebc b51d af3e 2a75 513e
00000210: 802e b83e 5ddb f73d 28bd a1be 7d0e 143e
00000220: 1214 c2be d5d4 83be 1a0c 5cbd 01a6 1dbb
00000230: d703 a3be 8a89 a4be b2c5 a03e 4db2 14be
00000240: 8e92 32be 802a c1be 2dbb 913d 09f2 6e3d
00000250: 1e0d 26bc a42c c83d df86 a4bc 877b 8bbc
00000260: 2ea5 973e 4f03 09be bfb4 30bc 61cb 71be
00000270: a236 e13e 9ce5 e9bd 0a0e 3d3e 2bae 40be
00000280: 2925 45bd 1964 c13e 0600 a3bd 6afe 993d
00000290: e367 18be c371 88be a866 993e 001d a73e
000002a0: 8257 10bd d291 d53e 193f bbbe 2a15 54bd
000002b0: 2cdc 52bd e923 8fbe 9a26 a63d 21bd a9be
000002c0: 9c8c 87be c299 a7bd 9c27 b53e f559 0e3e
000002d0: 7112 69be 5833 0fbe 8269 2d3e 2ef2 2c3d
000002e0: 2f6f a83d 2ed0 ab3e be2c ccbe db26 29be
000002f0: a8d9 33bc 2d65 ad3e 9c05 df3d 064b e6bd
-0.13381979 0.23153429 0.00015008854 -0.22327422 -0.07399102 -0.26886383 0.009365649 0.27965805
0.2929985 0.39994058 -0.065670595 -0.3685981 0.14618371 -0.2358155 0.22643913 -0.060249347
0.16753784 -0.38181606 -0.17868084 -0.22717999 -0.2930674 0.20531772 0.19201262 0.26642916
0.059286885 0.12316593 0.051367186 -0.026343567 -0.034579992 0.22671315 -0.13960738 0.29660332
-0.043871257 0.1473611 -0.04474293 0.14183415 0.43672362 -0.15951104 0.041852638 -0.2690431
-0.07510032 0.18660975 -0.038583495 0.31179175 -0.1847999 -0.20648423 -0.3792366 -0.2949389
-0.110542744 -0.34731302 -0.3210016 -0.17087132 -0.22255817 0.24929073 -0.22531334 -0.32486784
-0.10917444 -0.26451692 0.019627443 0.30274042 -0.06621206 0.096775375 -0.33747444 -0.263291
-0.2225787 0.121437795 -0.05409261 0.3589007 -0.26677293 -0.04204311 -0.37050244 0.050100785
-0.12236346 -0.18211663 -0.37016657 0.15569869 0.32692602 0.25466967 -0.07214796 0.00024532387
0.21404183 -0.15821198 -0.3655821 -0.178546 0.17661129 0.43769386 0.23359025 0.3082354
-0.22578306 -0.39532164 0.21941765 0.40224338 0.110860296 0.0061425515 -0.3132634 0.35938305
0.41453856 0.20232457 -0.23489045 -0.09089652 0.0584729 0.20855097 -0.15718365 -0.31013358
0.20263453 -0.21410875 -0.3252301 -0.043577828 -0.057741728 -0.299004 -0.1951718 -0.028223567
-0.28900787 0.2578182 -0.38161913 -0.33648992 -0.12516758 0.271794 -0.16602571 -0.23316312
0.040020816 -0.02517408 -0.15836236 -0.18385677 0.22708985 0.14778931 -0.2879884 -0.27614
-0.05048919 -0.017433912 0.34202352 0.20454851 0.35972977 0.12102387 -0.31589627 0.14458652
-0.37905937 -0.25748315 -0.05372248 -0.0024055245 -0.31838867 -0.32136184 0.3140083 -0.14521141
-0.17438719 -0.37727737 0.07115779 0.05833629 -0.010134963 0.097741395 -0.020083843 -0.017026676
0.2961821 -0.13380168 -0.010785281 -0.23612739 0.43986994 -0.11420748 0.18462387 -0.1881644
-0.04813114 0.3777168 -0.07958989 0.07519229 -0.1488338 -0.26649293 0.29961133 0.32639313
-0.035239704 0.41712815 -0.36571577 -0.051777996 -0.051479504 -0.27957085 0.081128314 -0.33152106
-0.26474464 -0.08183624 0.35381782 0.13901503 -0.22760941 -0.1398443 0.1693478 0.042223148
0.082243316 0.33557266 -0.39877886 -0.16518728 -0.010977186 0.33866253 0.10889742 -0.11244778

mlp.bias f4 [6]
00000000: f670 6c3c 664b 073d f688 743c c5e7 a23c
00000010: 064d a13c 1af6 ca3c
0.014431229 0.03303089 0.014925232 0.019885907 0.019690048 0.024775553
