rnn_model.pth (torch, 6364 bytes, 6 tensors)

rnn.weight_ih_l0 f4 [20, 5]
00000000: f7a2 39bd 4420 3d3e e4e4 933d 0300 5f3e
00000010: 3afc 76be 6d2a c63b 705c 62bc b41b 2e3d
00000020: 5f43 943c f02d ecbd 9ee4 863e 5a6a 843e
00000030: 5933 893e 59a7 153e 9dce 3cbe 6b33 783e
00000040: b1f9 c33d f3e9 f6bd c035 493e f58c 6dbe
00000050: b144 873d 2e86 013e a5ac 24be 0039 fa3d
00000060: 72f8 dbbd b02e ff3c 7f27 d73d cfb1 f3bd
00000070: da63 5f3d 0d52 20be 8137 443e 11e5 1a3e
00000080: 0ee9 313d 8213 02be f175 30be d026 21be
00000090: 8c55 cebd 1cd7 0ebe 7d24 fcbd ae67 06be
000000a0: c318 133e 3cf4 6e3c af38 4a3e 2fe7 103e
000000b0: 6a46 603d 70c8 0f3e 6f30 873d 754b 9d3b
000000c0: 50a2 8a3c d53f bf3d 15a0 0f3e 4619 7f3d
000000d0: 2f27 013d d86e 203e f1d9 20be d91d abbd
000000e0: 4d0f ea3d f22f 1f3e 418b 46be c46f 0fbe
000000f0: 0a0f c53d 88ff 123e df09 85bd 131a f6bd
00000100: 249a 9cbe 9e84 fe3c 8073 6a3d 229f 0fbe
00000110: ae09 4fbe b951 4f3e 84f0 60be 3ff0 44be
00000120: 5f52 113e cc92 30be d989 2abe 1cbd 2a3e
00000130: 2719 a2bd b38f 083e 645a 573e 048d a33c
00000140: 2daf 70bb ab1c 823e 453d f5bd 3972 43bd
00000150: ebcf f23d 33ed 743d 043c 0cbc f9f6 5e3d
00000160: 368b 763d 63c5 ea3d 47a1 5b3e a438 053c
00000170: 626c 043e 0696 fa3b 13e1 0a3d 3ab8 323d
00000180: dff1 603e 0d72 04be 35e9 2e3e 1a56 a0bc
-0.04532143 0.1846934 0.07221392 0.21777348 -0.24119654 0.006047538 -0.013815984 0.04250689
0.018098531 -0.115321994 0.26346296 0.2586239 0.26796988 0.1461462 -0.18438192 0.24238364
0.09569109 -0.12056341 0.1964941 -0.23198302 0.06604899 0.12648842 -0.16081484 0.12217903
-0.107407466 0.031150192 0.1050558 -0.11899149 0.054538585 -0.156563 0.19161798 0.15126444
0.04343515 -0.12702754 -0.17232491 -0.15737462 -0.100749105 -0.13949245 -0.12311647 -0.13125488
0.14364915 0.014584597 0.19748186 0.1415069 0.054754652 0.14041305 0.06601035 0.004800255
0.0169231 0.09338347 0.1402591 0.062279962 0.03153151 0.15667284 -0.15708138 -0.08355302
0.114287 0.15545633 -0.19389059 -0.14007479 0.09622009 0.1435529 -0.064960234 -0.12016692
-0.3058635 0.031069096 0.057239056 -0.14025548 -0.20218536 0.20246018 -0.2196675 -0.19232272
0.14191578 -0.17243499 -0.16654147 0.16673702 -0.07914954 0.13336067 0.21030575 0.019964702
-0.0036725507 0.25412497 -0.11974577 -0.047716353 0.118560635 0.059796523 -0.008559231 0.05443475
0.060191356 0.1146343 0.21448241 0.00813118 0.1293197 0.0076472787 0.033906054 0.043632723
0.21967266 -0.12934132 0.17081149 -0.019572306

rnn.weight_hh_l0 f4 [20, 20]
00000000: 1ef6 a2bc 04c6 2d3e 4a98 49bd c2e1 783e
00000010: d3e1 c1bd d151 003e ef9c 6c3d e8a9 3a3e
00000020: 845d 273e 7243 07be 244a 7cbe d13c 853e
00000030: 918c 1b3e b9b6 f93d bfce 273e fb0c 31bd
00000040: e38e 793e e7d2 3e3e 6919 7abe e004 543e
00000050: 4ade 633d d9f0 b43d c259 b1bc 9d62 143e
00000060: 37f5 233e 6035 4a3e fc9a 0abe 0c19 7fbc
00000070: 2df1 113e f036 49be bb5b 2e3d 8101 3fbe
00000080: 84cd 1dbe 6aed c73d 8c8a 963d b9a4 acbd
00000090: 8c5c 66bc d86c d1bc d7ef 933e 4541 c33d
000000a0: 8627 763d ecb6 01be abe0 043e a706 e0bd
000000b0: 393c 27bd a6bd 543e 8fe7 1ebc 7763 4a3e
000000c0: 709b 513e f618 ddbd 84cf 873d 6c89 e9bd
000000d0: f1ae 03be f88a 1e3e 3a2b b2bd e082 7d3e
000000e0: acef 883e 20c3 e53d 1ab8 da3d 309d e93d
000000f0: fcfd aa3d 1a80 4c3e 7566 e13d 1be9 4d3e
00000100: 80e6 9dbd e979 7ebd 9f62 e8bd be66 0fbe
00000110: 65ba dabd 22c2 00bd 6a22 303e a73f 873e
00000120: 22cc b6be 1a5f 883d 725d 0b3d 246b c43d
00000130: 7ce3 363e a8a5 49bc d29c 013e e839 2cbd
00000140: 85c6 cfbb 90ac 2f3e 1d73 3bbd 1055 033e
00000150: c54f 873d c154 4dbe 2838 db3d 83e3 6d3d
00000160: 9cff 06bd 42ac 55be 286c cc3d 8567 27bd
00000170: 008c 18bd 3ce2 fcbd b557 4abe 387f 0abe
00000180: ac5a ccbd 0802 6bbe f2c7 60bc 8a58 0f3e
00000190: b004 7e3d e79b 94bd 962c 50be ffab 653d
000001a0: 0c0e a5bb da0b 303e 1c65 37bd 8a2b 263e
000001b0: ff2d 16bc d273 823d c0e7 2e3e ec4e 36be
000001c0: 39ff c7bd 557b e5bd b6c4 2cbe 107b 143d
000001d0: 6de1 84bd 353a 483d 8e9f 4abe 6ac9 07be
000001e0: fb00 96bd 462d 2b3e 4dc8 ac3d d281 a33d
000001f0: 58a5 bebb aead 0d3e 88be 08be d600 fc3d
00000200: f6a6 d1bd d221 dcbd 3f36 9abd c5db c63c
00000210: 3bf0 fdbd 272c f6bd 6c3b 50be ec77 d2bd
00000220: 0b1c 84bd 343c 043e 3f72 8cbe 638e a3bd
00000230: 7212 873d 3f60 bebd cc13 dd3d 9032 1bbe
00000240: 260b 653d be8a 5abe 8945 293d 9b5a 973d
00000250: cb70 3d3e e67a 2cbd b8a7 35be fdfd 013e
00000260: 5528 6cbd edd5 553e 75b0 54bd 73b8 453c
00000270: b01a 3f3e c7e7 cebd dee4 bb3d c60f c93d
00000280: 0151 4f3e 7b4d 78bd 1393 d8bd 1475 413e
00000290: c24f 04be d91c 26be 8a62 273e a066 12be
000002a0: c23f 063e d166 1abc 97ee dabd 84c9 9dbd
000002b0: 232b b5bd 0147 4cbd 7387 1f3e cb3e 813d
000002c0: 9207 403e 8542 033e 6bda 89ba cd8d 803e
000002d0: 4c9e 163e daec 7ebd f324 843d 51d8 00be
000002e0: 5b6b a0bb f43b dabc 3432 e73d f749 fe3d
000002f0: 85dd c0bd a1c5 393e fa71 31be 3d52 ba3d
00000300: 7aa8 153d d8ce 5a3d d691 f1bd 3225 0e3e
00000310: fa08 6fbe 285f 37be fb81 0e3e f5ee 2c3e
00000320: 6348 57bd 1d82 ffbd c8b8 03be 2213 703d
00000330: f69d 1b3e f618 4f3e afec 01bd 11ce 2abe
00000340: 24cc 90bc 3894 30be ecab 913e c9eb 54bd
00000350: cdf7 06be 3d4a ddbd 7ea6 40be ce4b 7b3e
00000360: 2e94 b6bd 13e0 37be 091c 0d3d 011c 69bd
00000370: b670 843e fd3f 85bd e8a1 2a3e 7b8d fa3c
00000380: 02a6 363e 233f 123e 1274 583e 1aa2 dab9
00000390: 90c5 82bd d0c0 233e d12e e1bc 7629 00be
000003a0: 0df5 82be 785e 533d 1f8a bbbd 03d1 6b3e
000003b0: 691b 903e 4633 4e3e cb3f e33d b43b b8bd
000003c0: 8566 94bd 5b3a 343e c38c 25be 0431 0f3e
000003d0: 7c58 243d e920 a43c db52 8fbd 7b07 593e
000003e0: be00 c23d c21b a0bd 78cb 203e 225d 15be
000003f0: 0cf2 18be 522a 583d 7675 10bd f0ff c03d
-0.019892748 0.16970068 -0.0492175 0.2430487 -0.09466901 0.1253121 0.05776685 0.18228877
0.16344267 -0.13209322 -0.24637657 0.26022962 0.1519034 0.12193055 0.16387461 -0.04322527
0.24370913 0.1863514 -0.24423756 0.20704985 0.055631913 0.088350005 -0.021649245 0.14490743
0.16011511 0.19746923 -0.13535684 -0.0155699365 0.14252158 -0.19649863 0.04256795 -0.18652917
-0.15410429 0.0976208 0.073506445 -0.08429856 -0.014060151 -0.025564596 0.2889392 0.095339336
0.060096286 -0.12667435 0.12976329 -0.10938769 -0.040828917 0.2077547 -0.009698763 0.19764505
0.20469451 -0.107957765 0.06631377 -0.11403164 -0.12859704 0.154827 -0.08699651 0.24756956
0.26745355 0.11218858 0.10679646 0.11406934 0.08349225 0.19970742 0.1100587 0.20108454
-0.0770998 -0.06212798 -0.113469355 -0.14004037 -0.10680083 -0.03143514 0.17200628 0.2641575
-0.35702616 0.06658764 0.034024663 0.09590748 0.17860216 -0.012307562 0.12657478 -0.04204741
-0.006340804 0.17155671 -0.045764077 0.12825418 0.06607012 -0.20051862 0.1070407 0.0580783
-0.03295861 -0.20866492 0.09981567 -0.04087021 -0.03724289 -0.12347838 -0.1976002 -0.13525093
-0.09978232 -0.22949994 -0.013719546 0.13998619 0.06201619 -0.072562985 -0.20329508 0.05607223
-0.005037075 0.17192021 -0.04477416 0.16227546 -0.00916624 0.06369747 0.17080593 -0.17803544
-0.09765477 -0.11205164 -0.16871914 0.036250174 -0.06488309 0.048883636 -0.19787428 -0.13260427
-0.07324406 0.16716489 0.08436642 0.07983746 -0.0058180504 0.13835785 -0.13353932 0.12304847
-0.102369234 -0.10748638 -0.07529878 0.024274716 -0.12399336 -0.1202014 -0.20335168 -0.102767795
-0.06450661 0.1291359 -0.27430913 -0.079861425 0.06595315 -0.09295701 0.107947916 -0.15156007
0.055918835 -0.21341988 0.04132608 0.073903285 0.18500058 -0.042109393 -0.17739761 0.12694545
-0.05765565 0.20882387 -0.051926095 0.012067902 0.18662524 -0.10102802 0.09174512 0.09817462
0.20245744 -0.060620766 -0.10574927 0.18892318 -0.1292105 -0.16221942 0.16346183 -0.14296961
0.13110259 -0.009423927 -0.10690039 -0.07704452 -0.08846118 -0.049872402 0.15579014 0.06310805
0.18752888 0.12818344 -0.0010517364 0.25108185 0.14708823 -0.062237598 0.0645236 -0.12582518
-0.0048956103 -0.026639916 0.11288872 0.124164514 -0.094172515 0.18141796 -0.17328635 0.09097717
0.036537625 0.053419918 -0.11795394 0.13881376 -0.23343268 -0.17907393 0.13916771 0.1688803
-0.052559268 -0.12475989 -0.12863457 0.058611996 0.15196976 0.20224366 -0.03171986 -0.1668017
-0.017675467 -0.17244041 0.28451478 -0.051982675 -0.13180466 -0.108051755 -0.18813512 0.24540636
-0.08914982 -0.17956571 0.034450565 -0.056911472 0.25867242 -0.065063454 0.16663325 0.030585041
0.17836764 0.14281897 0.21138027 -0.00041700975 -0.06385338 0.15991521 -0.027488144 -0.12515816
-0.25577584 0.051603764 -0.09157204 0.2302895 0.28145912 0.20136747 0.11096152 -0.089957625
-0.072461165 0.17600386 -0.16166978 0.13983542 0.040123448 0.020035224 -0.06998225 0.2119426
0.09472798 -0.078177944 0.15702617 -0.14586309 -0.14936084 0.052774735 -0.03526827 0.09423816

rnn.bias_ih_l0 f4 [20]
00000000: b4f2 febd 9f19 9d3a 7457 753e 89bd ec3d
00000010: f967 0a3e d640 d2bb ca75 25be cf27 09be
00000020: 3661 4d3c ecdb 47be bd12 cd3c e86e 62bd
00000030: 4571 823e 2958 9abc 4519 bebc cd95 dcbd
00000040: 04b9 25be 0b3a f03c fc96 3f3e 67a5 01be
-0.12448636 0.0011985785 0.23959142 0.115595885 0.13516225 -0.0064164205 -0.16158214 -0.13394092
0.012535384 -0.19517487 0.02503335 -0.05528155 0.25477043 -0.018840866 -0.023205409 -0.1077076
-0.16183859 0.029324552 0.1870994 -0.12660752

rnn.bias_hh_l0 f4 [20]
00000000: f5ce 5b3e be81 30bd a71f 573e 69bb 983d
00000010: 6b9a 0fbe 3fb9 5a3e 2e29 ac3d 899b d23d
00000020: 19c4 c6bd 3e3d 0dbd b186 1dbc 6e5d 153e
00000030: edd2 963e 6b23 b93d dc57 56bd 0979 c0ba
00000040: fff9 ce3d 2eac b0bb 20ff 7e3c 4573 e3bd
0.21465667 -0.04309248 0.21008168 0.07457621 -0.1402375 0.21359728 0.08406292 0.10283572
-0.097053714 -0.034482233 -0.009614632 0.14586422 0.294578 0.090399586 -0.052329883 -0.0014684509
0.10106277 -0.005391619 0.015563756 -0.1110597

mlp.weight f4 [20, 20]
00000000: d957 243c b1bd 8d3e 50dc 99be e499 ad3d
00000010: 2a26 213e 56b0 a63d b2a5 10be bf5b 9b3e
00000020: c794 c13d ea6a a53d 3eb8 49bd 7c42 043e
00000030: 0b7d cc3c 722d 9e3e c35d a63e a9eb 873e
00000040: c8c8 db3e aa7d 0dbe 60f1 d33d f26e 0e3e
00000050: 2c78 59bd 2c13 653e 2eb7 823c 614d 6f3d
00000060: e3be 063e df0d 3fbe 91cb a5be a2e1 c53e
00000070: fcf0 983e 875a 613d 3521 1bbe 0a6d 47be
00000080: 1cd3 8d3e cba8 923e fd26 83be f74f 843e
00000090: dcf2 963c b2df e53d e04c d43d cc3a efbd
000000a0: 1f0f 45be 1c31 b6ba 6629 603e 3dbf 883d
000000b0: f521 613e 0fbd 0bbe 9848 213e df1f 823e
000000c0: 7836 ae3e 13b6 963e 7b51 a2be 75f2 e4bd
000000d0: cc96 923e cda1 17be 8bda b23e 0192 a6be
000000e0: 7acb d93d 1d4e 5a3e 8ae1 c0bc b317 283d
000000f0: bcb3 75be af11 8b3d 51ab bc3e df0e 9abe
00000100: 6421 adbe 1d4b 653e eb6a b73e f3d0 debd
00000110: 8f1b a33c 056f 90be 3c4f 97be b30c b03e
00000120: 5a2e 02be a9b6 7a3e 4566 203e 5643 223e
00000130: 67cb ea3d 958d e3bd 0e32 09bd 7fd2 be3e
00000140: 0faa 843e 859d f03d f35f 90be 2507 c7bd
00000150: c364 23be d756 b43e 9b4b 873e 6e7b 833e
00000160: 505e 503e c61b 8e3e cc56 fabd 8ba7 783e
00000170: 7607 023d e8b5 b23c c345 98be 966c 9a3e
00000180: fff9 4c3d 5e67 57be d4d1 683d a4de c0bd
00000190: 3a67 93bd 2366 c13d 907b 373e 8f04 db3e
000001a0: a7bd f7bd 8f34 db3d 6314 8c3d 2c87 e4bd
000001b0: 8440 94be 95ff b0be df87 90be 989f 9e3d
000001c0: cf30 1b3d a877 393e 2833 093d cd7e d93e
000001d0: 35c3 94bd 3c45 6e3d 5fe6 adbd 6770 abbe
000001e0: a97f 173e 104a 67be c18d b63c 1f98 143e
000001f0: 05cf 9c3e a277 8b3e c2e8 a33e 8285 073e
00000200: 7147 be3e 7141 a6be 4187 c3bc 3ba5 73bc
00000210: cdb1 293d ab8d 4d3e 4dc0 353e b19c 29be
00000220: c93a a63e 960b c9be 7be6 133e 7f82 d13d
00000230: a1da 993e 42f5 453e 011b 433e 1b49 2f3c
00000240: 1bf6 613e b505 193e f7d0 853c e8ad a2be
00000250: d8ce aa3e c01d a03e 7baf 53be 6501 5bbe
00000260: 7f58 8abd db74 ad3e a802 533c 7b18 b4be
00000270: 29c1 edbb 2b2b 243e cb1e c0be 5b21 5dbe
00000280: a3d3 383e 61c0 98be 1024 8ebe 553b c73e
00000290: dc44 75be 392e 87be 8232 b23d 6a0a 7abe
000002a0: 51d4 973e c7bc 9c3e 209c 383e 6699 713d
000002b0: 5e38 4ebe b6c1 973e c501 e73d e822 73be
000002c0: e35e 4c3e 8973 b93c 88d1 533e 3deb debd
000002d0: ac84 3fbc 7a16 32be 73eb 9b3e be0a 06be
000002e0: a878 a4be e90c 46be c305 a2be 2b8c 143e
000002f0: 6e7e 3b3e 0299 65be 14b8 59be c181 e0bd
00000300: 0c69 20bd 921a 843e 40d2 6dbe f337 90bd
00000310: dd4f 83be 560e be3e a163 2c3d ab61 8d3e
00000320: ba0c 44be 5344 813e b0e5 863e 66eb cbbd
00000330: e454 6a3d 4e24 a43e f19f 133e 0c93 123c
00000340: 660f 9abd b60b 67be 04a3 5bbe 65a9 b33e
00000350: 508a 6f3e 2ac4 c9bd 795b d43d e8ea 02bd
00000360: a148 1c3d 10f0 433e 8757 a93e a08d 803d
00000370: ce72 683e 814f 2fbe 7d48 79be d51b 313d
00000380: ed9a 4bbe 9296 84be 5f63 5cbe a07d f1bd
00000390: 3535 a53e 1227 3ebe e148 5ebe 9b91 ca3d
000003a0: cef1 cabe bb33 2a3e dac8 933e 52b0 4abe
000003b0: f5af 8a3d 255b 9c3e c5ca 82be b929 11bd
000003c0: 57e3 be3e 3292 a03d 5186 e3bd 5ba8 84be
000003d0: 535d 723e ef1b 51be 6e67 3ebe 0f9d 06bd
000003e0: b244 003d aaa0 4fbe 139d 973e b472 b13d
000003f0: f58d 12bd 3624 a7be 83b7 98be 3ea0 7e3e
0.01003071 0.27683786 -0.30050898 0.08476618 0.15737215 0.08139102 -0.14125708 0.30343434
0.09452205 0.08077033 -0.049247973 0.12915987 0.024961969 0.30894047 0.3249341 0.26546982
0.4292662 -0.13817468 0.10348773 0.1390951 -0.05309312 0.22370595 0.015956488 0.058423404
0.13158755 -0.18657635 -0.3238187 0.38648707 0.29871356 0.055017974 -0.15149386 -0.19475189
0.27700126 0.28644404 -0.25615683 0.25842258 0.018426351 0.11224307 0.10366225 -0.116811365
-0.1924405 -0.0013900134 0.21890792 0.06677101 0.2198561 -0.13646339 0.15750349 0.2541494
0.3402593 0.29435787 -0.3170279 -0.111790575 0.28630674 -0.14807816 0.3493236 -0.32533267
0.10634513 0.2131886 -0.023545045 0.041038226 -0.23994344 0.06790482 0.36849454 -0.3008947
-0.33814538 0.22391935 0.3582376 -0.10879698 0.019910602 -0.282097 -0.2955264 0.3438469
-0.12712994 0.24483742 0.15664013 0.15845999 0.11464577 -0.11110989 -0.033495 0.3726997
0.25910994 0.117487945 -0.28198203 -0.097181596 -0.15956406 0.35222504 0.2642487 0.25680107
0.20348477 0.27755564 -0.122235864 0.24282663 0.031745397 0.021815255 -0.29740724 0.3016097
0.050043102 -0.21035525 0.056840733 -0.09417465 -0.07197423 0.09443309 0.17918229 0.42776915
-0.1209672 0.10703384 0.06839826 -0.111585945 -0.28955472 -0.34569994 -0.2822866 0.07745284
0.037888344 0.18112051 0.033496052 0.42479554 -0.07263795 0.058171496 -0.084912054 -0.33484194
0.14794792 -0.22586846 0.02228439 0.14511155 0.30626693 0.2723971 0.32013518 0.13234523
0.3716388 -0.32471803 -0.023868205 -0.014870937 0.04142933 0.20073573 0.17749138 -0.1656368
0.32466725 -0.39266652 0.1444339 0.10229968 0.30049613 0.1933184 0.1905327 0.010698582
0.22066538 0.14943583 0.016334994 -0.31773305 0.33360934 0.31272697 -0.20672409 -0.2138725
-0.067551605 0.33878216 0.012879051 -0.35174927 -0.0072556925 0.16032092 -0.37523493 -0.21594755
0.18049483 -0.29834273 -0.27761889 0.38912454 -0.23952049 -0.26402453 0.0870104 -0.24418035
0.29654172 0.30612776 0.18028307 0.058984183 -0.2013869 0.29639977 0.112796344 -0.23743784
0.19958071 0.0226381 0.20685399 -0.10884712 -0.011689346 -0.17391387 0.3045307 -0.13090035
-0.32123303 -0.19340862 -0.3164502 0.14506595 0.18309948 -0.22421649 -0.21261626 -0.109622486
-0.03916268 0.25801522 -0.23224735 -0.070419215 -0.25646868 0.37120312 0.0420872 0.27613577
-0.1914548 0.2524744 0.26347113 -0.09957008 0.057209864 0.32058948 0.14416482 0.0089461915
-0.07522468 -0.22563061 -0.21448904 0.35090175 0.23392606 -0.098518685 0.103690095 -0.031962305
0.0381552 0.19134545 0.3307459 0.06277013 0.22700045 -0.17120172 -0.24344058 0.043239433
-0.19883318 -0.25896126 -0.21522282 -0.11791539 0.32267156 -0.18569592 -0.21707489 0.09891053
-0.39637607 0.16621296 0.28864175 -0.19793823 0.067718424 0.30538288 -0.25545326 -0.03544018
0.37282822 0.078403845 -0.11109603 -0.25909695 0.23668413 -0.20420812 -0.18594143 -0.032864626
0.031315513 -0.20276132 0.29612026 0.08664456 -0.035779912 -0.32644814 -0.29827508 0.24865815

mlp.bias f4 [20]
00000000: ffb1 183d 1c19 543d feec 143d 8dd9 293d
00000010: ebb3 f23c 2e3d d13c 8ca0 e83b 7fc7 b33c
00000020: 0cd8 5e3d 7c9b 373d fc04 223d e254 093d
00000030: 9508 b63c 61c4 c33c 92e5 2d3d 0346 b93c
00000040: 2009 ff3c e381 e23c e927 953c 6c6f 69bd
0.037279125 0.05178176 0.036358826 0.04146724 0.029626807 0.025541868 0.007099217 0.021945713
0.054405257 0.044826016 0.039555535 0.033528216 0.02222089 0.023897352 0.042455263 0.022616392
0.03113228 0.027649825 0.018207507 -0.056991026
