rnn_model.pth (torch, 162720 bytes, 42 tensors)

rnn.weight_ih_l0 f4 [32, 5]
0	0xbd809c46	-0.06279807
1	0xbe1c2629	-0.15248932
2	0x3cf1e984	0.029530294
3	0x3dc476fb	0.09593006
4	0x3dd9e405	0.106391944
5	0x3d11d680	0.035604954
6	0x3ce6d712	0.028178725
7	0x3dc1cf4e	0.09463368
8	0x3decbcc6	0.11559443
9	0xbc42c464	-0.0118876435
10	0x3e49f214	0.19721252
11	0xbdcee11a	-0.101015285
12	0x3e1b1dbb	0.1514806
13	0x3e111252	0.14167145
14	0x3d783a10	0.060602248
15	0x3b2f103d	0.002671256
16	0xbe1008d4	-0.14065868
17	0xbde9709c	-0.11398432
18	0xbe22cc24	-0.15898186
19	0x3e177f95	0.14794762
20	0xbc2be086	-0.010490542
21	0x3e104f2c	0.14092702
22	0xbd418bb3	-0.04725237
23	0x3de1928b	0.11014279
24	0x3d089f1a	0.033354856
25	0xbbaf7b5c	-0.0053552818
26	0xbdd527e5	-0.10408
27	0xbd957072	-0.07296838
28	0x3d392b14	0.045207098
29	0xbdac8cf6	-0.08425324
30	0x3e4b061c	0.1982655
31	0x3e2cd95b	0.1687979
32	0x3dd2d87b	0.102951966
33	0x3e0feb8f	0.14054702
34	0x3da9b0d5	0.08285681
35	0xbd89c4c3	-0.067269824
36	0xbd7831ad	-0.06059425
37	0xbca4f5bc	-0.020136707
38	0x3d29cdf8	0.041456193
39	0xbd8e5be3	-0.0695112
40	0x3e2c3096	0.16815409
41	0xbd1d3a18	-0.03838548
42	0x3c8a466b	0.016879281
43	0x3d680d21	0.056653146
44	0x3e1084eb	0.14113204
45	0xbe11fc7d	-0.14256473
46	0xbd9b8902	-0.075944915
47	0xbe34512d	-0.17609091
48	0xbc07b4dd	-0.008282867
49	0x3d94c179	0.072634645
50	0xbe1913c5	-0.14948948
51	0x3dbe3b59	0.092886634
52	0xbdfaed80	-0.12252331
53	0x3d7266b2	0.05917997
54	0x3db4f9d8	0.088367164
55	0x3de4cc57	0.11171787
56	0x3e1eff74	0.15527135
57	0x3e33248c	0.1749441
58	0x3e568058	0.20947397
59	0x3e0626a1	0.13100673
60	0x3d899fd2	0.067199364
61	0xbd65a282	-0.056063183
62	0x3e1ebcd5	0.15501721
63	0xbbfe129e	-0.007753684
64	0x3c3161ac	0.010826509
65	0x3d0a1237	0.033708777
66	0x3d87ecfe	0.066369995
67	0x3c0319e4	0.008001778
68	0x3d7e86b2	0.062140174
69	0x3d06a14c	0.03286867
70	0xbcc26c46	-0.02373327
71	0x3daa6a55	0.083210625
72	0xbd718e58	-0.05897364
73	0xbcb77099	-0.022392558
74	0xbdd96aa4	-0.10616043
75	0xbe2c2330	-0.16810298
76	0x3c725c60	0.014792532
77	0x3dafbcaa	0.08580907
78	0x3da1d02f	0.07901036
79	0xbdd0a6b4	-0.10188046
80	0x3d502d6e	0.050824575
81	0x3da5d65a	0.08097525
82	0xbe143f11	-0.14477183
83	0xbdd75385	-0.10513977
84	0xbd62f723	-0.05541147
85	0x3e5517e2	0.20809892
86	0xbd28b421	-0.04118741
87	0x3e062c82	0.13102916
88	0x3df61097	0.12014883
89	0xbd7416cf	-0.059592064
90	0xbe004d3b	-0.12529461
91	0xbe02d13f	-0.12775134
92	0x3e01d2dd	0.12678094
93	0xbe34da6e	-0.1766145
94	0x3e1fc257	0.15601479
95	0xbc486b88	-0.012232669
96	0x3e440512	0.19142559
97	0xbd9d8447	-0.076912455
98	0xbd36234d	-0.04446726
99	0x3d9aa57a	0.075510934
100	0x3d395815	0.045250017
101	0xbb4c7063	-0.0031194917
102	0xbe02d044	-0.1277476
103	0xbd8886b9	-0.06666321
104	0xbdf5ba31	-0.11998404
105	0xbd1f70b0	-0.038925827
106	0xbd94ff9b	-0.072753154
107	0xbdf5972d	-0.11991725
108	0xbc8a6a67	-0.01689644
109	0x3e311d7f	0.17296408
110	0x3e20489e	0.15652701
111	0xbdb0c7ea	-0.086318806
112	0xbdb776d4	-0.089582115
113	0x3e05c011	0.13061549
114	0xbddf9432	-0.10916938
115	0xbdb4db52	-0.088308945
116	0x3ddd6f51	0.108122475
117	0x3d36bad3	0.044611763
118	0xbd7477fc	-0.05968474
119	0xbd097418	-0.03355798
120	0x3e2930b7	0.1652249
121	0x3e2f5c3a	0.17125025
122	0x3dfbcbb7	0.12294715
123	0xbd4ac742	-0.049506433
124	0xbd20aa68	-0.039225012
125	0xbd15b3c3	-0.036548387
126	0x3e3bf727	0.18356
127	0x3c85015e	0.016236003
128	0x3bec07a7	0.0072030607
129	0x3dda2880	0.10652256
130	0xbe5eb964	-0.21750408
131	0xbdbc4fd9	-0.09194917
132	0xbe864d3d	-0.26230803
133	0xbe40225f	-0.18763112
134	0x3de8eda1	0.11373449
135	0xbdb10eb8	-0.086453855
136	0xbd8191ba	-0.06326623
137	0x3e2a8537	0.1665238
138	0x3baa8c9e	0.005204751
139	0xbc93f4d1	-0.018061073
140	0x3de17ea7	0.11010485
141	0x3e063a8e	0.13108274
142	0x3e5a7436	0.21333393
143	0xbc7d1e73	-0.015449154
144	0x3e23620d	0.15955372
145	0x391d3bfc	0.00014995033
146	0xbdf24ba7	-0.11830836
147	0x3c5d045c	0.013489809
148	0x3e0a035c	0.13477844
149	0xbce6ac69	-0.028158383
150	0x3e4be742	0.19912437
151	0x3e42a8c0	0.19009686
152	0x3da96b5c	0.0827243
153	0x3e4ed494	0.2019828
154	0xbdd5a45a	-0.10431738
155	0x3e0fa945	0.14029415
156	0x3db647e2	0.08900429
157	0xbd2cf45a	-0.04222522
158	0xbd0bb2d0	-0.034106076
159	0xbd730b16	-0.059336744

rnn.weight_hh_l0 f4 [32, 32]
0	0xbe264e1c	-0.16240734
1	0xbdcbd788	-0.09953219
2	0x3c48821e	0.012238054
3	0xbe127c7f	-0.14305304
4	0xbda90a5f	-0.08253931
5	0x3e030a9f	0.1279702
6	0x3da66f2f	0.08126675
7	0xbdb9a517	-0.090646915
8	0x3d943a2b	0.07237657
9	0xbd2caea3	-0.042158734
10	0xbc56db8a	-0.013113866
11	0x3e231419	0.15925635
12	0x3dd30bee	0.1030501
13	0xbd1d7ccc	-0.038449094
14	0xbd9322e5	-0.0718439
15	0xbd9b1c2b	-0.07573732
16	0x3bb07c0f	0.0053858827
17	0x3c0d92c2	0.008640947
18	0xbdac169e	-0.084027514
19	0x3e10cf5d	0.14141603
20	0x3d854bcd	0.065085985
21	0xbd298e3c	-0.04139541
22	0x3da343e0	0.079719305
23	0xbd9d7f95	-0.0769035
24	0x3d89136c	0.066931576
25	0xbe168c87	-0.14702044
26	0xbc07a110	-0.008278146
27	0x3d053a69	0.032526407
28	0xbcaaa2a0	-0.020829499
29	0xbe219558	-0.15779626
30	0xbd3652f8	-0.04451272
31	0x3db7a5f9	0.08967204
32	0x3c9093bc	0.01764857
33	0x3e01c451	0.12672545
34	0x3e1a5404	0.15071112
35	0x3db85a90	0.090016484
36	0xbdae0d8f	-0.0849868
37	0xbdd5106d	-0.104035236
38	0xbe1b61b5	-0.15173991
39	0x3e00f207	0.12592326
40	0x3e3f69cd	0.18692704
41	0xbd0823c2	-0.033237226
42	0x3de23592	0.11045374
43	0x3b48b677	0.0030626336
44	0x3e30c7b3	0.17263679
45	0x3dae06ac	0.08497366
46	0xbe34727c	-0.17621797
47	0x3e0e0459	0.13868846
48	0xbe272e85	-0.1632634
49	0xbb8301ba	-0.0039980086
50	0x3e1e72c3	0.15473466
51	0xbd977749	-0.07395799
52	0xbd53c7da	-0.051704265
53	0xbd4e6717	-0.050391283
54	0x3e33ca29	0.17557587
55	0xbe090a52	-0.13382843
56	0xbe0161ee	-0.12635013
57	0xbd911909	-0.07084853
58	0x3dbdceb6	0.092679426
59	0x3e0ecb0b	0.13944642
60	0xbd909769	-0.07060129
61	0x39e4e918	0.00043661217
62	0x3e144a62	0.144815
63	0x3e1136c7	0.14181052
64	0x3e07f4bd	0.13276954
65	0x3d2d56ef	0.042319234
66	0x3e688e81	0.22710611
67	0xbdc3471d	-0.09535048
68	0x3d9c63bc	0.0763621
69	0xbe041e7b	-0.12902252
70	0x3db538f0	0.088487506
71	0x3e57fcba	0.21092501
72	0xbd8bf68b	-0.06834134
73	0xbe09110f	-0.13385414
74	0xbcee528b	-0.029092094
75	0xbd4425eb	-0.047887724
76	0xbe07ea6c	-0.13273019
77	0xbdd6b4a6	-0.10483675
78	0x3daff34f	0.08591329
79	0x3e033316	0.12812456
80	0xbdcb8767	-0.09937935
81	0x3e0251ab	0.12726466
82	0xbd086ee3	-0.033308875
83	0xbdc23826	-0.09483366
84	0x3c69fe04	0.014281753
85	0xba6f0323	-0.0009117594
86	0x3e32ad6c	0.17448968
87	0x3e0a9d8d	0.13536663
88	0xbd005d0e	-0.031338744
89	0x3d638d5a	0.055554725
90	0xbdf32c0a	-0.11873634
91	0x3d6ed715	0.058310587
92	0x3defd884	0.11711219
93	0xbe1b692e	-0.15176842
94	0xbbdf907b	-0.0068226433
95	0x3d5786dc	0.052618846
96	0xbe0009e2	-0.1250377
97	0x3c143f2a	0.009048263
98	0x3e3648be	0.17801186
99	0x3e30183a	0.17196742
100	0xbd8ba4bf	-0.06818532
101	0xbdebc0a7	-0.11511355
102	0xbe2a5fe7	-0.16638146
103	0x3d2c408c	0.042053744
104	0x3d68a177	0.05679461
105	0x3dd35123	0.1031821
106	0xbe0ecb3e	-0.13944718
107	0xbde26f08	-0.11056334
108	0xbdaed063	-0.0853584
109	0x3c8bc47e	0.017061468
110	0x3db9b3a1	0.090674646
111	0x3d99dddc	0.075130194
112	0x3d93fddf	0.072261564
113	0xbb88a18c	-0.0041696485
114	0x3b8a6009	0.004222874
115	0xbd64ec96	-0.05588969
116	0x3e0fa55f	0.14027928
117	0x3ddb69a9	0.107135125
118	0x3d9442ff	0.07239341
119	0x3e659aa7	0.22422276
120	0xbd7b73dc	-0.06138979
121	0xbcb4ec83	-0.022085434
122	0x3d7822ee	0.060580187
123	0x3e040f26	0.12896404
124	0x3dbed785	0.09318451
125	0xbc898689	-0.016787784
126	0x3d505851	0.050865475
127	0xbdba4c83	-0.09096625
128	0xbd272078	-0.04080245
129	0x3d03198f	0.032006796
130	0x3da3d52d	0.079996444
131	0xbe1a202b	-0.15051334
132	0x3df44463	0.11927106
133	0x3d8c0c8e	0.06838332
134	0xbdf0d780	-0.11759853
135	0x3d6b7d42	0.057492502
136	0x3e5d321f	0.21601151
137	0xbe4c1404	-0.1992951
138	0x3e14876b	0.14504783
139	0x3c1a6e10	0.009425655
140	0xbdbf7f7c	-0.093504876
141	0xbc8d055e	-0.017214473
142	0xbe042d4a	-0.12907901
143	0xbd3da292	-0.046297617
144	0xbe3989eb	-0.18119018
145	0xbd8f24c4	-0.06989434
146	0x3e08ba76	0.13352379
147	0x3c50f681	0.012754084
148	0xbd0c0947	-0.034188535
149	0xbe03ff13	-0.12890272
150	0x3d93a44e	0.07209073
151	0xbcf70810	-0.030155212
152	0x3d40d92d	0.047082115
153	0xbe01f29b	-0.12690203
154	0x3cce9a25	0.025219986
155	0x3d8c6c13	0.06856551
156	0x3e415bce	0.18882677
157	0xbe04b1d7	-0.12958466
158	0x3e25a6e2	0.16176942
159	0x3cf04df8	0.029334053
160	0xbd8d2914	-0.06892601
161	0xbd97cda4	-0.0741227
162	0xbdbe5f45	-0.09295515
163	0x3da8eb9e	0.082480654
164	0xbe00846d	-0.12550516
165	0xbd2a273f	-0.041541334
166	0x3d20fad9	0.039301727
167	0xbcd23ad7	-0.025662823
168	0x3e65740d	0.22407551
169	0xbd2fba7f	-0.042902466
170	0xbd8ec26a	-0.06970675
171	0xbc6e8f9a	-0.0145606045
172	0xbdd0789d	-0.10179255
173	0x3ccc09bc	0.024906985
174	0xbdb0c7da	-0.08631869
175	0x3e00a75c	0.12563843
176	0x3e2fc1f5	0.17163832
177	0xbda9b379	-0.08286185
178	0xbccef651	-0.025263937
179	0xbb86fda5	-0.0041195923
180	0xbd15fe88	-0.036619693
181	0x3e22161a	0.15828744
182	0x3e0c0a3e	0.13675782
183	0xbe13a0bd	-0.14416786
184	0xbdaf973f	-0.0857377
185	0x3e1f5c1c	0.1556248
186	0x3dee6aa3	0.11641433
187	0xbdfdce9f	-0.123929255
188	0x3df0fa1d	0.11766455
189	0x3d953081	0.07284642
190	0xbcacca69	-0.02109261
191	0xbd172c1f	-0.03690731
192	0x3de8238a	0.113349035
193	0xbe0c0b14	-0.13676101
194	0x3e1fbfab	0.1560046
195	0x3dd5c286	0.10437493
196	0x3deb9302	0.11502649
197	0xbd82c8d9	-0.06385965
198	0x3da64c01	0.08119965
199	0xbdf4b250	-0.11948073
200	0x3d18c17f	0.037293907
201	0xbdf988df	-0.12184309
202	0x3d92f644	0.07175878
203	0xbd35e100	-0.04440403
204	0xbda48201	-0.08032609
205	0x3e49fa7a	0.19724455
206	0xbdbeb1f5	-0.09311286
207	0xbc387ab0	-0.01125972
208	0xbe4cb88f	-0.19992279
209	0xbc9b6e98	-0.018973634
210	0x3de93224	0.11386517
211	0x3b3ea97c	0.002909272
212	0xbd0c57fe	-0.034263603
213	0xbd3d2513	-0.046177935
214	0x3dbde767	0.09272652
215	0x3df6d538	0.12052387
216	0xbe07fbcb	-0.13279645
217	0xbc8f3598	-0.01748161
218	0x3e08a737	0.13345037
219	0x3e5cb87e	0.21554753
220	0x3b31e78b	0.0027146067
221	0xbd1bc293	-0.038027357
222	0xbd4b06d8	-0.049567074
223	0x3d63fad4	0.05565913
224	0xbde96962	-0.11397053
225	0xbe0a691f	-0.13516663
226	0x3e42417b	0.18970291
227	0xbc537e9b	-0.012908603
228	0x3e4d0b82	0.20023921
229	0xbaaf8e58	-0.0013393862
230	0x3d0d7460	0.034534812
231	0xbd9f04e8	-0.07764608
232	0x3df3cbeb	0.11904129
233	0xbe34c99a	-0.1765503
234	0xbe12e6c7	-0.14345847
235	0xbd839d31	-0.06426466
236	0x3daae628	0.0834468
237	0x3daac4a9	0.08338291
238	0xbb985c02	-0.00464964
239	0x3e1ee6c5	0.15517719
240	0x3cc228c4	0.02370108
241	0x3e135a23	0.14389853
242	0x3e1683d4	0.14698726
243	0xbcc4dd81	-0.024031403
244	0x3e0451c6	0.12921819
245	0xbd25ed7d	-0.04050969
246	0xbdb6e5ac	-0.08930525
247	0xbdd33c96	-0.1031429
248	0x3bcf6c1e	0.0063300272
249	0xbd3fa99d	-0.046792615
250	0xbe1b145c	-0.15144485
251	0x3d8b57cc	0.06803855
252	0x3d66eb94	0.05637701
253	0x3df5a758	0.11994809
254	0x3dce115d	0.100619055
255	0x3dc2e7ef	0.09516894

rnn.bias_ih_l0 f4 [32]
0	0xbd8c81c8	-0.06860691
1	0x3c5ac619	0.013352894
2	0x3cc42979	0.023945557
3	0xbdd58e8c	-0.10427579
4	0x3dec1b68	0.11528665
5	0x3c943f64	0.018096633
6	0x3dcbdef8	0.09954637
7	0xbd9cf66e	-0.0766419
8	0x3d5d7030	0.05406207
9	0x3e3abfcf	0.18237232
10	0x3ca5dad8	0.020245954
11	0x3dcb4f94	0.09927288
12	0xbcefb5a9	-0.029261427
13	0x3e46e865	0.19424589
14	0xbdd3b5e9	-0.10337431
15	0xbd835a0b	-0.06413659
16	0xbda24bc9	-0.07924611
17	0x3e3cb1e1	0.1842723
18	0x3d3de5e1	0.046361808
19	0xbc963f61	-0.018340768
20	0x3d061c99	0.032742117
21	0x3e2ead38	0.17058265
22	0xbdfcb941	-0.12340022
23	0x3e1a6447	0.15077315
24	0xbd93b9ce	-0.07213174
25	0x3dce728d	0.100804426
26	0xbe0f440a	-0.13990799
27	0x3cd90bcf	0.026494889
28	0x3dfdc2e2	0.123906866
29	0xbe050461	-0.12989952
30	0xbc6b0dad	-0.014346522
31	0x3e04e051	0.12976195

rnn.bias_hh_l0 f4 [32]
0	0xbdb8bdaa	-0.090205505
1	0x3e2dcdb8	0.16973007
2	0x3dd04c97	0.10170858
3	0x3e380863	0.1797195
4	0xbcda6765	-0.02666063
5	0x3e3310c2	0.17486861
6	0xbe0cd51a	-0.13753167
7	0xbccb8261	-0.024842443
8	0xbde51350	-0.11185324
9	0x3e1b96b6	0.1519421
10	0xbdb63b6d	-0.08898053
11	0x3d5ab662	0.05339659
12	0x3e27b23b	0.16376583
13	0x3e45625f	0.19275807
14	0xbdb00321	-0.08594347
15	0xbcef6ca2	-0.029226605
16	0x3e2bb86d	0.16769572
17	0xbdcfcb83	-0.10146239
18	0x3cbb7013	0.02288059
19	0xbc69693f	-0.014246284
20	0x38b490b5	8.6100226e-05
21	0xbc29d522	-0.010365756
22	0xbc94b9db	-0.018155029
23	0xbc82bd60	-0.015959442
24	0x3e1e7027	0.1547247
25	0xbd7c8199	-0.06164703
26	0x3e28a057	0.16467415
27	0x3e1f891b	0.15579645
28	0xbd9df364	-0.07712439
29	0x3c420766	0.011842584
30	0x3dd883fe	0.105720505
31	0x3e26b09d	0.1627831

rnn.weight_ih_l1 f4 [32, 32]
0	0xbcddc5d3	-0.027071869
1	0xbde0172f	-0.10941922
2	0x3e30286e	0.17202923
3	0xbe1a9a35	-0.15097888
4	0x3e31b962	0.17355874
5	0x3dbc2d43	0.091883205
6	0x3b67cff0	0.0035371743
7	0x3ce598ed	0.028027022
8	0x3e2a798b	0.16647927
9	0xbdf784f4	-0.12085906
10	0x3d96d49d	0.073647715
11	0x3d1f4449	0.03888348
12	0x3e3315b1	0.17488743
13	0x3e12ccc5	0.14335926
14	0xbdcd6166	-0.10028343
15	0xbd24eb89	-0.040263686
16	0xbd1704ff	-0.03687
17	0x3dbaaa41	0.091145046
18	0x3e19dc36	0.1502541
19	0xbdb89efc	-0.09014699
20	0xbd1650c0	-0.036698103
21	0xbdfe20eb	-0.12408622
22	0xbd08c0e6	-0.033387087
23	0xbe1bd326	-0.15217265
24	0xbde43be1	-0.111442335
25	0x3d88d823	0.0668185
26	0xbcd3c6b7	-0.02585159
27	0xbdb7f0df	-0.089814894
28	0xbd809fa2	-0.062804475
29	0x3d3fd370	0.046832502
30	0x3d000732	0.031256862
31	0xbdd742ee	-0.10510813
32	0x3e18903a	0.14898768
33	0x3c8c0a1d	0.017094666
34	0xbe1d91c4	-0.15387636
35	0x3e1c6fed	0.15277071
36	0xbe1ced95	-0.15325005
37	0xbdc14062	-0.09436108
38	0xbdb7c92d	-0.08973918
39	0x3db37a92	0.08763613
40	0xbd9e7e44	-0.07738927
41	0xbd4add9f	-0.04952776
42	0x3d870ea0	0.06594586
43	0x3d532add	0.05155455
44	0x3d7fc523	0.062443864
45	0xbcf001dc	-0.029297762
46	0x3e0e447b	0.1389331
47	0x3dc577fe	0.09642027
48	0x3ceccea9	0.028907137
49	0x3df3de73	0.11907663
50	0x3deb3bda	0.11486025
51	0x3c9f6878	0.019458994
52	0xbd17cf2d	-0.037062813
53	0x3e29e7e2	0.16592363
54	0xbd667443	-0.05626322
55	0xbe27d2a3	-0.16388945
56	0xbde9df01	-0.11419488
57	0x3d59adb1	0.05314416
58	0xbd045b42	-0.032313593
59	0x3d9d9541	0.076944835
60	0xbe00b1b0	-0.12567782
61	0xbe26406e	-0.16235515
62	0xbdc67a6c	-0.09691319
63	0x3d1db003	0.038497936
64	0xbe0f60b7	-0.14001738
65	0xbe33876a	-0.17532125
66	0xbe31a250	-0.17347074
67	0xbe170dd6	-0.14751372
68	0x3dfe4613	0.12415709
69	0xbe17bb3f	-0.14817522
70	0x3df7eaf7	0.12105363
71	0x3dff1856	0.124558136
72	0x3cc0aed7	0.02352087
73	0x3dd97ff6	0.1062011
74	0x3daae4a7	0.08344393
75	0xbde29ecc	-0.11065444
76	0xbd81acd1	-0.0633179
77	0xbd7ef5c1	-0.062246088
78	0xbde51e30	-0.111873984
79	0xbd3b5bea	-0.045741953
80	0x3d9212c4	0.071324855
81	0xbdc100a5	-0.09423951
82	0x3e159f0f	0.14611457
83	0xbdb1f872	-0.08689965
84	0xbe20853a	-0.15675822
85	0xbd8691c1	-0.06570769
86	0x3db7e6b4	0.0897955
87	0x3c023722	0.007947715
88	0xbdc585ca	-0.09644659
89	0x3cb379a2	0.021908585
90	0xbda61589	-0.08109576
91	0xbddbd8ea	-0.107347324
92	0xbdbab92b	-0.09117349
93	0x3e1a645b	0.15077345
94	0x3d2eeb1b	0.042704683
95	0x3e11707e	0.14203069
96	0xbdb0ddc8	-0.086360514
97	0xbe1f8dcb	-0.15581433
98	0xbb923b9f	-0.004462674
99	0xbd8cdcc2	-0.06878044
100	0xbe0e1136	-0.13873753
101	0xbc069c2c	-0.008215945
102	0x3ddf07f5	0.108901896
103	0x3cb82791	0.022479804
104	0x3dc468f4	0.09590331
105	0x3d946cbe	0.072473034
106	0x3e1905d9	0.14943637
107	0xbe0a27a7	-0.13491689
108	0x3e14bf93	0.14526205
109	0x3e096b5d	0.13419862
110	0xbe34ed4b	-0.17668645
111	0x3e0ff57e	0.14058492
112	0xbcc1bc64	-0.023649402
113	0x3d64517e	0.05574178
114	0x3d172579	0.03690097
115	0x3dad758a	0.084696844
116	0xbbddd847	-0.006770167
117	0xbcc0cb55	-0.023534456
118	0xbd1bf0ff	-0.03807163
119	0x3bac6032	0.005260491
120	0x3d54f77c	0.051993832
121	0xbdcb351b	-0.099222384
122	0xbdbac677	-0.091198854
123	0x3dd24cf8	0.10268587
124	0xbcbea3bc	-0.023271434
125	0x3e239bb9	0.15977372
126	0xbc9a017d	-0.018799538
127	0xbd53ac26	-0.051677845
128	0x3e1805aa	0.1484591
129	0x3e1b258c	0.15151042
130	0x3da17aea	0.07884772
131	0x3d2de6c4	0.042456403
132	0x3e053867	0.13009797
133	0xbd0af890	-0.033928454
134	0xbe2b050b	-0.16701142
135	0x3e502530	0.20326686
136	0xbe38dcfa	-0.18053046
137	0x3dc056b8	0.0939154
138	0x3d1a59db	0.03768335
139	0xbe1adb1c	-0.15122646
140	0x3dbd4a7a	0.09242721
141	0xbda11c29	-0.07866699
142	0xbd8d7597	-0.06907194
143	0xbc2123a3	-0.009835157
144	0x3df1b1d4	0.11801496
145	0x3e0892d1	0.13337256
146	0x3d03f6fa	0.032217957
147	0xbdca9aac	-0.098927826
148	0x3c52cf7a	0.012866849
149	0xbde9a094	-0.11407581
150	0x3d910aa4	0.07082108
151	0xbcf3ed49	-0.029776232
152	0xbe187a75	-0.14890464
153	0xbd8a18ac	-0.06742987
154	0x3d734cc9	0.0593994
155	0xbc91d182	-0.017800096
156	0xbe13d755	-0.14437611
157	0x3da67be3	0.08129098
158	0xbd85ee73	-0.06539621
159	0x3d26d624	0.040731564
160	0xbddba943	-0.107256435
161	0x3d974a59	0.073872276
162	0x3e3222c3	0.17396073
163	0x3d204194	0.03912504
164	0x3e4ea919	0.20181693
165	0xbe2c5aa7	-0.16831456
166	0x3de04f12	0.109525815
167	0x3e4fa0a5	0.20276125
168	0x3de5f6bb	0.11228701
169	0xbe411c0c	-0.18858355
170	0x3e2db409	0.16963209
171	0xbdb0e84a	-0.086380556
172	0xbde7fd75	-0.1132764
173	0x3e0dbfa9	0.13842644
174	0x3dc80ec5	0.09768442
175	0x3da56500	0.08075905
176	0x3e1cda3e	0.15317628
177	0x3e395a5a	0.18100873
178	0xbdf52483	-0.11969855
179	0xbe0a7429	-0.13520874
180	0x3d3180f4	0.04333587
181	0x3df00d12	0.11721243
182	0xbd58fcc8	-0.052975446
183	0x3deb99aa	0.115039185
184	0x3e069f17	0.13146625
185	0x3e4d1148	0.20026124
186	0xbe87c29d	-0.26515666
187	0x3d8bd47f	0.0682764
188	0x3e548a63	0.20755915
189	0xbbf9101f	-0.0076007987
190	0x3c4715c3	0.0121511845
191	0xbca09815	-0.019603768
192	0x3e11aa70	0.14225173
193	0xbd60abb4	-0.05485125
194	0x3df0ef98	0.11764449
195	0xbe741953	-0.23837785
196	0x3d0c5f41	0.03427053
197	0xbd5c052b	-0.053715866
198	0xbbd82e52	-0.0065973187
199	0x3ddaf437	0.106911115
200	0x3d29d6ab	0.04146449
201	0xbc9d13f4	-0.019174553
202	0x3d36acb4	0.044598296
203	0x3d526565	0.05136623
204	0x3b38dfe7	0.0028209628
205	0x3e0c385a	0.13693371
206	0xbe206f5d	-0.15667482
207	0xbe24a898	-0.16079938
208	0x3d230d05	0.03980734
209	0x3c60d69e	0.013723044
210	0xbe30fd50	-0.17284131
211	0x3bcab1b8	0.0061857365
212	0xbb812d14	-0.0039421413
213	0xbe4179ea	-0.18894163
214	0x3c8b9769	0.017039971
215	0xbda15cbb	-0.07879015
216	0x3e1dcd8b	0.1541044
217	0xbd624ce0	-0.055249095
218	0xbe3b5a70	-0.18296218
219	0x3d734f97	0.059402075
220	0x3da44b64	0.08022192
221	0x3e1c8c75	0.15287955
222	0xbd38928c	-0.045061633
223	0x3dcbb7a4	0.09947136
224	0xbdf4a7e8	-0.11946088
225	0x3e383f5f	0.17992924
226	0xbd3ef5c8	-0.046621114
227	0xbdb5b9f0	-0.088733554
228	0xbd14a52e	-0.03629034
229	0xbd45d5af	-0.048299488
230	0x3d8b1dc4	0.06792787
231	0xbdd75f01	-0.105161674
232	0xbdde14b1	-0.1084379
233	0x3dd0ba00	0.10191727
234	0x3a64ad5f	0.0008723344
235	0x3e05a8e3	0.13052706
236	0x3d09e581	0.033666138
237	0xbcb0649d	-0.021532351
238	0xbe31e987	-0.1737424
239	0xbd2a50e3	-0.041581046
240	0xbc068619	-0.008210682
241	0x3dc3c45b	0.09558936
242	0x3e2bdee5	0.16784246
243	0x3d7a0f55	0.061049778
244	0x3d0e666f	0.034765657
245	0xbca771d4	-0.02044002
246	0x3d08c7b5	0.03339358
247	0xbe356ade	-0.17716548
248	0x3c2c5e78	0.01052057
249	0xbdb5d5e9	-0.08878691
250	0xbca81efd	-0.020522589
251	0x3df53367	0.11972695
252	0x3e0e685a	0.13906994
253	0xbe29043a	-0.16505519
254	0xbd7dee56	-0.061994873
255	0x3dabf8b8	0.08397049

rnn.weight_hh_l1 f4 [32, 32]
0	0xbe17658b	-0.1478483
1	0xbce64fa0	-0.02811414
2	0x3df24c88	0.118310034
3	0x3d775586	0.060384296
4	0x3dd915eb	0.10599884
5	0xbd54a9b2	-0.051919647
6	0xbe320680	-0.17385292
7	0x3cc8c425	0.024507592
8	0xbd5bf8ca	-0.05370406
9	0x3d82338b	0.06357487
10	0xbe2ad78f	-0.16683792
11	0xbe0f029a	-0.13965836
12	0xbe0e498e	-0.13895246
13	0x3deca1b7	0.11554282
14	0xbd6a79f6	-0.057245217
15	0x3b47bec8	0.0030478705
16	0x3e321164	0.17389446
17	0x3df37694	0.11887851
18	0x3c3b9a84	0.011450414
19	0xbe151d2e	-0.14561912
20	0x3e3237f6	0.1740416
21	0x3d8b7e8f	0.068112485
22	0x3d3fa9be	0.04679274
23	0xbda1abab	-0.07894071
24	0xbdee9b02	-0.11650659
25	0x3cd12c50	0.025533825
26	0x3e0a4c7d	0.1350574
27	0x3caa9186	0.020821344
28	0x3dd7168f	0.105023496
29	0xbc835666	-0.016032409
30	0x3e329f01	0.17443468
31	0xbdb66e34	-0.08907738
32	0xbb9b82a4	-0.004745798
33	0xbd79c396	-0.06097754
34	0xbda6af6e	-0.08138929
35	0xbdff440a	-0.12464149
36	0xbe0e410c	-0.13892001
37	0x3d9cccc5	0.07656244
38	0x3e1d6101	0.15369035
39	0x3de983b7	0.11402076
40	0xbdc1f9f7	-0.09471505
41	0xbd1b33ba	-0.037891127
42	0x3d8ca707	0.068677954
43	0x3de3e5e9	0.11127836
44	0x3d5d4242	0.054018266
45	0xbd8dddc4	-0.06927064
46	0xbe17058a	-0.14748207
47	0x3e164d70	0.14677978
48	0xbdb19018	-0.08670062
49	0x3d1096bf	0.035300013
50	0x3e1eab19	0.15494956
51	0x3e112255	0.14173253
52	0xbc14d55e	-0.009084074
53	0x3df36514	0.118845135
54	0xbe289f60	-0.16467047
55	0xbd7a56d2	-0.061117955
56	0x3d8cd80f	0.068771474
57	0xbdbbec96	-0.091759846
58	0x3d58610b	0.052826922
59	0xbb8c2263	-0.00427656
60	0xbd82eb1a	-0.06392498
61	0xbe3391b0	-0.17536044
62	0x3d8f8b6d	0.07009015
63	0x3cd92de2	0.026511136
64	0xbdd02881	-0.101639755
65	0xbcab0cd3	-0.020880139
66	0xbdfcf402	-0.12351228
67	0x3cfc0a6f	0.030766694
68	0x3e1d19de	0.15341899
69	0xbe036b3b	-0.12833874
70	0xbe06fdce	-0.13182756
71	0xbd5f16c8	-0.054465085
72	0x3e145c4d	0.14488335
73	0x3e0e10a2	0.13873532
74	0xbde4aa5a	-0.111653045
75	0xbd021ca9	-0.031765614
76	0x3cff5cf3	0.031172251
77	0x3c0c2699	0.008554124
78	0xbbf873b9	-0.0075821546
79	0xbd2045d3	-0.03912909
80	0xbd9195c9	-0.071086474
81	0xbccc1b6f	-0.024915425
82	0xbdf94cb8	-0.12172836
83	0x3d806436	0.06269114
84	0x3e2c6b42	0.1683779
85	0x3df8e180	0.12152386
86	0x3d87f1ee	0.06637941
87	0xbd2afe0b	-0.04174618
88	0xbd5ddadc	-0.0541638
89	0xbdecef03	-0.11569025
90	0x3e15800a	0.14599624
91	0x3d6868f0	0.0567407
92	0x3e092af0	0.13395286
93	0x3d0b8f3b	0.034072142
94	0x3e306bfb	0.17228691
95	0x3e001319	0.12507285
96	0xbe03f00b	-0.12884538
97	0xbb9410f0	-0.0045186207
98	0xbe2e0903	-0.16995625
99	0x3d21966b	0.03945009
100	0xbe3937d1	-0.18087699
101	0x3de61def	0.11236178
102	0xbdfee3d6	-0.124458
103	0x3dcb0aff	0.09914207
104	0x3c739908	0.014868028
105	0xbd31b7d4	-0.043388203
106	0xbd13f135	-0.036118705
107	0xbd07b625	-0.03313269
108	0x3e3055b1	0.17220189
109	0xbd3ac22f	-0.045595344
110	0x3dcb32e5	0.09921817
111	0x3dfe7033	0.12423744
112	0xbbabfe20	-0.0052488
113	0x3df90613	0.12159362
114	0x3cb4a42c	0.02205094
115	0xbd34b74b	-0.044120114
116	0x3dfa218a	0.12213428
117	0xbe38e205	-0.1805497
118	0x3d9ed29d	0.07755015
119	0x3d99276a	0.07478221
120	0x3e3a2f68	0.18182147
121	0x3dc51e6c	0.09624943
122	0xbbbf7274	-0.0058425013
123	0xbcea82d7	-0.028626842
124	0x3ca6a888	0.020344034
125	0x3d91e42a	0.07123597
126	0x3e261c92	0.16221836
127	0x3dc0192c	0.09379801
128	0xbe08e6d6	-0.13369307
129	0x3d09395b	0.033501964
130	0x3bb0a1b6	0.005390371
131	0xbd2aa185	-0.041657943
132	0x3e1ca8e7	0.15298806
133	0x3e1f8803	0.15579228
134	0x3e2f7095	0.1713279
135	0x3d20a9ac	0.03922431
136	0x3e3825be	0.17983148
137	0xbd576e9a	-0.052595712
138	0x3da912c5	0.08255533
139	0x3dbd6cf4	0.09249297
140	0x3d6be87e	0.05759477
141	0x3d385890	0.045006335
142	0x3d8f2383	0.06989195
143	0xbe19faa1	-0.15037014
144	0x3dbf02b8	0.093266904
145	0xbd85e8cc	-0.06538543
146	0xbd775908	-0.06038764
147	0xbe085e54	-0.13317233
148	0xbdc89e14	-0.09795776
149	0x3daaef71	0.08346451
150	0x3dc6a400	0.09699249
151	0x3dc82bbf	0.09773969
152	0x3e1513ea	0.14558378
153	0x3e08a07f	0.13342474
154	0xbdd19a80	-0.10234547
155	0xbced89c9	-0.028996365
156	0x3e0a0f5a	0.13482419
157	0xbe2eba2e	-0.1706321
158	0xbc800ef0	-0.015632123
159	0xbe0b6aa5	-0.136149
160	0x3e33e787	0.1756879
161	0xbe12ca1a	-0.14334908
162	0x3deefc61	0.11669231
163	0x3cb8aed4	0.022544302
164	0x3de3a956	0.11116283
165	0x3dfba91e	0.12288116
166	0x3e13875a	0.14407101
167	0x3d60b29c	0.054857835
168	0x3e232742	0.15932944
169	0x3dc736b6	0.09727232
170	0xbc47c650	-0.0121932775
171	0x3e2d34f7	0.16914736
172	0x3e1eb45c	0.15498489
173	0x3d1334ac	0.035938904
174	0xbe2df50b	-0.16988008
175	0x3c196ef6	0.009364834
176	0x3e11952c	0.14217061
177	0x3dc0100b	0.0937806
178	0x3e43b2d1	0.19111182
179	0x3d226da6	0.03965535
180	0xbd86a145	-0.065737285
181	0xbe29d03b	-0.1658334
182	0x3e3ea56b	0.1861779
183	0x3e235b2b	0.15952747
184	0x3df1b0a2	0.11801268
185	0xbd039053	-0.03212006
186	0x3de00826	0.10939054
187	0xbce3c5bd	-0.02780425
188	0x3e4f57a3	0.20248275
189	0xbcf574e4	-0.029962964
190	0xbcb8c815	-0.022556344
191	0x3e172b74	0.1476267
192	0x3e34788b	0.17624108
193	0xbc9f2f61	-0.019431772
194	0x3c2cba37	0.010542444
195	0x3e3b9d43	0.1832171
196	0x3dfb2fe3	0.12264993
197	0x3dd8d381	0.10587216
198	0xbb1f64cb	-0.0024321552
199	0xbe111e9b	-0.14171831
200	0x3c1ea53e	0.0096829515
201	0x3e6fc50c	0.23415011
202	0x3d8ee623	0.06977489
203	0x3e288e51	0.1646054
204	0x3cef7b92	0.029233728
205	0x3e0c80d3	0.13721018
206	0xbe14c9d3	-0.14530115
207	0xbd85f5d5	-0.06541029
208	0x3e1c7655	0.15279515
209	0xbce1e9ff	-0.027577398
210	0xbd3f3976	-0.04668566
211	0x3cadb107	0.021202577
212	0x3e2bfe8b	0.16796319
213	0xbe30d64d	-0.1726925
214	0x3e1cc639	0.15309991
215	0x3dc5d69f	0.09660076
216	0x3e1fe7a6	0.1561571
217	0x3e4aac5a	0.1979231
218	0xbdfdf4bc	-0.12400195
219	0x3dc5bb5a	0.09654875
220	0x3e0f2d18	0.13982046
221	0x3de4d47d	0.111733414
222	0xbdd28cd4	-0.10280767
223	0xbbef92dd	-0.0073112086
224	0x3e0369d8	0.12833345
225	0xbde84f47	-0.11343246
226	0xbe2b50d3	-0.1673005
227	0x3e27d565	0.16389997
228	0xbe0c2b43	-0.13688378
229	0x3dc63f66	0.09680061
230	0xbddf25de	-0.108958945
231	0x3e04e99d	0.12979741
232	0xbdd14009	-0.10217292
233	0x3df43b66	0.11925392
234	0x3e46a96d	0.19400568
235	0xbd4f55c7	-0.050618913
236	0x3ac779aa	0.0015218754
237	0x3e017e7b	0.12645905
238	0xbd09d4f6	-0.03365036
239	0xbd001629	-0.031271134
240	0x3d845bd1	0.06462825
241	0xbc5707b5	-0.013124396
242	0xbcbccb1a	-0.023046065
243	0x3e1d0433	0.15333633
244	0xbe34d637	-0.17659841
245	0xbb214a91	-0.0024611095
246	0x3d0d8f09	0.034560237
247	0xbe18e77d	-0.14932056
248	0x3d660f97	0.05616721
249	0x3e212604	0.15737158
250	0x3d8caad1	0.06868518
251	0x3e374da7	0.17900716
252	0x3dee91cb	0.116489016
253	0x3e0c50ba	0.1370267
254	0x3bcf9c20	0.00633575
255	0x3dddcf72	0.10830583

rnn.bias_ih_l1 f4 [32]
0	0xbda2da4f	-0.07951795
1	0xbde9b42b	-0.114113174
2	0xbe1e98ba	-0.15487948
3	0x3e08edb3	0.13371925
4	0x3c22543d	0.009907779
5	0x3de819e1	0.11333061
6	0x3cf49b35	0.029859165
7	0x3de372c9	0.11105878
8	0xbbc550f7	-0.0060216147
9	0xbe13369d	-0.14376302
10	0x3e240a3f	0.16019534
11	0xbe1bea1b	-0.15226023
12	0x3ce49a7b	0.027905693
13	0x3defd22c	0.11710009
14	0xbd92f362	-0.07175328
15	0x3c8e3892	0.01736096
16	0xbe204ddc	-0.15654701
17	0xbdb403d3	-0.08789792
18	0x3d887e1e	0.0666468
19	0x3e003243	0.12519173
20	0x3d3553dc	0.044269428
21	0x3dc70fe5	0.097198285
22	0x3dbaa766	0.0911396
23	0xbe27f3a4	-0.16401535
24	0x3cbb667a	0.022876013
25	0x3dfd269a	0.12360878
26	0xbe2cb44a	-0.1686565
27	0x3da0a2d1	0.07843555
28	0xbde60d25	-0.11232976
29	0xbd5ddb72	-0.054164357
30	0x3da832ce	0.08212815
31	0xbbda4db4	-0.006662095

rnn.bias_hh_l1 f4 [32]
0	0xbe169a64	-0.14707333
1	0x3d534a8e	0.051584773
2	0x3e33e4c5	0.17567737
3	0x3d5b44e7	0.053532507
4	0x3de96453	0.113960885
5	0x3dc35666	0.095379636
6	0xbd52c31a	-0.051455595
7	0x3ddedaf7	0.10881608
8	0xbdbf9ffd	-0.09356687
9	0x3d9708a6	0.073746964
10	0xbe0a63fd	-0.13514705
11	0xbd1e26e1	-0.038611297
12	0xbe32866d	-0.17434092
13	0x3e37ce0a	0.17949691
14	0xbb711995	-0.003678893
15	0x3bb15bfb	0.0054125763
16	0x3d6bce9c	0.057570085
17	0xbe230200	-0.15918732
18	0x3d7bacfc	0.061444268
19	0xbd8552ba	-0.065099195
20	0xbd7bea53	-0.061502766
21	0x3d4b4f8e	0.049636416
22	0xbdc3fdd6	-0.095699
23	0xbdebe0dc	-0.11517498
24	0xbe15bf0d	-0.14623661
25	0xbe1dc1c1	-0.15405942
26	0xbe1bf034	-0.15228349
27	0xbd247f45	-0.040160436
28	0xbdf2ca0e	-0.11854945
29	0xbdb64146	-0.08899169
30	0x3dc1df52	0.09466423
31	0x3e2bb71b	0.16769068

rnn.weight_ih_l2 f4 [32, 32]
0	0x3e22baf5	0.15891631
1	0xbe2af9a0	-0.16696787
2	0x3d9a92c7	0.07547527
3	0xbe07391d	-0.1320538
4	0x3e3a84a0	0.18214655
5	0x3e48b5d4	0.19600612
6	0xbbfb94d0	-0.007677652
7	0xbb99ef62	-0.004697726
8	0xbc244f8b	-0.01002873
9	0xbb2cbe05	-0.0026358378
10	0x3c009802	0.0078487415
11	0xbdc6e0ce	-0.09710847
12	0xbdbeb78e	-0.09312354
13	0x3dc19fad	0.09454284
14	0xbe1a8d7f	-0.15093039
15	0xbd908999	-0.07057495
16	0x3d3fdd1e	0.046841733
17	0x3e068fe6	0.1314083
18	0xbdd5da53	-0.10442033
19	0xbd9cd774	-0.07658282
20	0xbd8ddd00	-0.06926918
21	0xbdb0a516	-0.08625238
22	0xbd095eeb	-0.033537786
23	0x3e4ef921	0.20212223
24	0x3d907c0a	0.070549086
25	0x3dcf56ed	0.10124002
26	0x3d441ddd	0.047880042
27	0x3d6f4727	0.058417466
28	0xbcda9426	-0.02668197
29	0xbdf219bd	-0.118213154
30	0xbd317a0c	-0.043329284
31	0x3d9895fb	0.074504815
32	0xbe17eb08	-0.14835751
33	0x3d9e360a	0.07725151
34	0xbe201cfb	-0.15636055
35	0x3d312565	0.043248553
36	0x3cd9e6bb	0.026599279
37	0xbd8ac961	-0.06776691
38	0x3e3bd72f	0.18343805
39	0x3e219286	0.1577855
40	0xbc63dcd0	-0.013907626
41	0xbe11f1b5	-0.1425236
42	0xbe20e94a	-0.15713993
43	0x3df98db4	0.12185231
44	0x3dfcc92a	0.123430565
45	0x3dba72a2	0.09103896
46	0xbc3339c6	-0.010939067
47	0xbe00293f	-0.12515734
48	0xbdbee3aa	-0.09320767
49	0xbc80b60a	-0.015711803
50	0x3b38bb1f	0.0028187705
51	0x3e3bb5dc	0.18331093
52	0x3da4f8f4	0.080552965
53	0x3e06429b	0.13111345
54	0xbd810fea	-0.063018635
55	0xbe2f96aa	-0.17147318
56	0x3cabfc40	0.020994306
57	0xbdb8f437	-0.09030955
58	0xbaff2155	-0.001946489
59	0x3e27aef2	0.1637533
60	0xbd87ed0e	-0.066370115
61	0x3d0b7ca3	0.03405441
62	0xbced61a6	-0.028977226
63	0x3e31224b	0.17298238
64	0x3db472be	0.08810948
65	0x3e0310a2	0.12799314
66	0xbde68108	-0.112550795
67	0xbe149cf3	-0.14512996
68	0xbe290b70	-0.1650827
69	0xbd9b5957	-0.075853996
70	0xbd6c913a	-0.057755686
71	0x3de11718	0.10990733
72	0xbe0c0ff6	-0.13677964
73	0xbcaf0756	-0.021365803
74	0x3dc88c80	0.09792423
75	0xbe3317f2	-0.17489603
76	0x3defeb0b	0.11714753
77	0x3e03bf1b	0.1286587
78	0x3c27b293	0.0102354465
79	0xbe336112	-0.17517498
80	0x3e26df9e	0.1629624
81	0x3e254bcc	0.16142195
82	0x3cf1cd8c	0.029516958
83	0xbdd545b6	-0.10413687
84	0x3d093839	0.033500884
85	0xbd1c7df5	-0.03820606
86	0x3e192db3	0.14958839
87	0xb925592f	-0.0001576885
88	0x3e284ea0	0.16436243
89	0xbbf30e50	-0.0074174777
90	0x3dc6b1ef	0.09701907
91	0xbe1edba3	-0.15513472
92	0xbcc0db32	-0.02354202
93	0x3dad7cdc	0.08471081
94	0xbe00ff87	-0.12597476
95	0x3e26daf4	0.16294461
96	0x3e265756	0.16244254
97	0xbcb2023f	-0.021729587
98	0x3e05a9a9	0.13053001
99	0x3d8f4f54	0.069975525
100	0x3dd54f81	0.10415555
101	0xbd98cbc7	-0.074607424
102	0x3e04d7f1	0.12973
103	0x3cb3aab0	0.021931976
104	0x3d896345	0.06708387
105	0x3e2e1ffc	0.17004389
106	0x3ddbda3e	0.10734986
107	0x3e0ae985	0.13565643
108	0x3c27fa14	0.010252494
109	0xbe294403	-0.1652985
110	0xbdf74d1d	-0.12075255
111	0x3dce5256	0.10074298
112	0x3da10752	0.07862724
113	0x3db021a5	0.08600167
114	0xbe2be948	-0.16788208
115	0x3e1a9504	0.15095907
116	0x3dc38794	0.09547344
117	0x3e2351fc	0.15949243
118	0x3d974edb	0.07388087
119	0x3e0dd6f4	0.1385153
120	0x3df330e5	0.1187456
121	0xbcacd839	-0.021099197
122	0xbd8e709a	-0.06955071
123	0xbdee7e1e	-0.11645149
124	0x3d48ff52	0.049071617
125	0xbe0f0fce	-0.13970873
126	0x3cbed448	0.023294583
127	0x3db1aacf	0.08675157
128	0x3e18e099	0.14929427
129	0xbc2ca8e4	-0.010538314
130	0xbe2b55ba	-0.16731921
131	0xbdc926e1	-0.09821869
132	0xbe455e19	-0.19274177
133	0x3d6c8753	0.057746243
134	0xbe0564ad	-0.13026686
135	0x3c3b56a7	0.011434234
136	0x3ded3152	0.11581673
137	0xbdfc3726	-0.12315206
138	0x3d0cebc5	0.034404535
139	0xbe23c2a9	-0.15992226
140	0x3e3060c7	0.17224418
141	0xbe3cca46	-0.18436536
142	0x3c7cd66f	0.015431984
143	0x3c73cc80	0.0148803
144	0xbdd6bb96	-0.10484998
145	0xbde90a6f	-0.11378943
146	0xbdc8a718	-0.097974956
147	0x3c8b164c	0.016978405
148	0x3d2b2c45	0.041790266
149	0xbe16368d	-0.14669247
150	0x3df66c3d	0.120323636
151	0xbe23f657	-0.1601194
152	0x3df2848d	0.11841688
153	0x3d9b50a7	0.075837426
154	0x3e098ebf	0.1343336
155	0xbcb95d46	-0.022627484
156	0xbd71c684	-0.05902721
157	0x3dc71c1a	0.09722157
158	0xbdff4b95	-0.12465588
159	0xbe19c75e	-0.15017459
160	0x3df81583	0.12113478
161	0xbcc1bb52	-0.023648892
162	0xbe04b4f0	-0.12959647
163	0x3da908e6	0.0825365
164	0xbe185bcb	-0.14878766
165	0x3e147be1	0.14500381
166	0x3e407b56	0.18797049
167	0x3e0ec0b0	0.13940692
168	0xbc8b04ee	-0.016970124
169	0x3e3f95b2	0.18709448
170	0xbe035ab9	-0.12827577
171	0xbdfc5a91	-0.12321962
172	0x3e24fc46	0.1611186
173	0x3c62eda3	0.013850602
174	0x3de25405	0.11051182
175	0x3c2db617	0.010602496
176	0x3e0b6041	0.13610937
177	0x3e0a310a	0.1349527
178	0xbbe3895c	-0.0069438647
179	0xbd5c68ec	-0.053811
180	0xbcf944c6	-0.030428302
181	0xbd4d8c30	-0.05018252
182	0x3ccedca5	0.025251696
183	0xbd4281ac	-0.047486946
184	0x3d634ab7	0.055491176
185	0x3e0762d6	0.13221297
186	0x3e1440d6	0.14477858
187	0x3d95485e	0.072891936
188	0x3c99d8c9	0.018780129
189	0xbe0276cb	-0.12740628
190	0x3e3bf9c9	0.18357004
191	0x3d5e4990	0.054269373
192	0xbda99e58	-0.08282155
193	0xbdb1ceb7	-0.08682006
194	0xbce0b71d	-0.027431065
195	0xbdf00d86	-0.117213294
196	0xbcb1047c	-0.021608584
197	0xbdb643db	-0.08899661
198	0x3d8ca452	0.06867279
199	0xbdf66cf9	-0.12032504
200	0x3d0bff55	0.03417905
201	0xba17e537	-0.00057943485
202	0xbd950441	-0.07276202
203	0x3dcf2294	0.10114017
204	0x3d40e00d	0.04708867
205	0x3da998bb	0.08281084
206	0xbd650c63	-0.055920016
207	0xbdb463c9	-0.08808095
208	0x3e0fdf5a	0.14050046
209	0xbe07adb7	-0.1324986
210	0xbdc27476	-0.094948694
211	0xbc210fa9	-0.009830394
212	0x3e07e86a	0.13272253
213	0x3b93463a	0.0044944556
214	0x3cadec64	0.021230884
215	0x3d41f5d5	0.047353584
216	0x3d6633de	0.05620181
217	0x3db33e97	0.087521724
218	0xbe2f00be	-0.17090127
219	0x3dc1dce0	0.09465957
220	0xbe21ebb0	-0.15812564
221	0x3d94ae58	0.07259816
222	0xbcf27aa6	-0.029599499
223	0xbdb2842b	-0.08716615
224	0xbe109003	-0.14117436
225	0xbe52eebb	-0.20598881
226	0x3df689eb	0.120380245
227	0xbd127f56	-0.03576597
228	0x3de042db	0.10950252
229	0x3e2de441	0.16981603
230	0x3e19aa79	0.15006436
231	0x3e00c072	0.12573412
232	0x3da9d788	0.082930624
233	0x3db9b56d	0.09067807
234	0x3e2d2e05	0.16912086
235	0x3e2ec96c	0.17069024
236	0xbe131f95	-0.14367516
237	0xbdcd90f2	-0.10037412
238	0xbe26d90d	-0.16293736
239	0x3e2255a3	0.1585298
240	0xbc955af1	-0.01823184
241	0xbdf218a7	-0.11821108
242	0xbd287798	-0.04112968
243	0x3d28c845	0.041206617
244	0x3e15c96a	0.14627615
245	0xbe164acf	-0.14676975
246	0xbde4ced2	-0.1117226
247	0x3e33353c	0.17500776
248	0x3e0a4f1e	0.13506743
249	0x3d063b5d	0.032771457
250	0x3d26a2a6	0.040682457
251	0x3d0c2113	0.03421123
252	0xbba2bb42	-0.0049661705
253	0x3d849cf4	0.06475249
254	0x3db3f52f	0.087869994
255	0xbdc4b3aa	-0.09604581

rnn.weight_hh_l2 f4 [32, 32]
0	0xbde2ada8	-0.110682786
1	0x3deb19cb	0.11479529
2	0x3da63112	0.08114828
3	0xbdd8f644	-0.105938464
4	0xbdf59535	-0.119913496
5	0xbda0b4b5	-0.07846967
6	0x3e159037	0.14605795
7	0x3de25859	0.11052007
8	0x3e3c4d51	0.18388869
9	0x3c95209a	0.018204022
10	0xbe034082	-0.12817577
11	0xbdceaedd	-0.10091946
12	0x3dd6497f	0.10463237
13	0x3dd46601	0.10371018
14	0x3dd83029	0.10556061
15	0x3e094bb4	0.13407785
16	0x3e0170ba	0.12640658
17	0xbdfeba7e	-0.12437914
18	0x3e4bd4dd	0.1990542
19	0x3d2c3cd6	0.042050205
20	0xbe20074a	-0.1562778
21	0x3e14f305	0.1454583
22	0xbddfd566	-0.109293744
23	0xbe119bbc	-0.14219564
24	0xbdfd674a	-0.123732165
25	0x3dde1898	0.10844535
26	0x3c27a61c	0.010232475
27	0xbda658f0	-0.08122432
28	0x3d3f52b4	0.04670973
29	0xbe22ef30	-0.15911555
30	0xbda7aac3	-0.08186867
31	0x3d98d364	0.074621946
32	0x3dcb966f	0.09940802
33	0x3e04f58f	0.12984298
34	0x3d3de1cb	0.04635791
35	0xbc58aca3	-0.013224754
36	0xbdea9fea	-0.114562824
37	0x3c1a9a12	0.009436147
38	0x3e305462	0.1721969
39	0xbd61ae38	-0.05509779
40	0xbcf5d8aa	-0.03001054
41	0x3c5e4fb7	0.01356881
42	0x3dff9f74	0.12481585
43	0xbd1b5bd3	-0.037929367
44	0x3db3d8e5	0.08781604
45	0x3d2d9ded	0.042386938
46	0xbda59e5a	-0.08086844
47	0x3e19abe1	0.15006973
48	0x3df3dabc	0.11906955
49	0x3e3ea605	0.18618019
50	0x3e015391	0.12629534
51	0x3d72ce1c	0.059278592
52	0x3cc925be	0.02455413
53	0xbe28dde8	-0.164909
54	0xbdf15b80	-0.1178503
55	0x3dc0fe60	0.09423518
56	0x3d83c04c	0.06433162
57	0x3da1e2e4	0.07904604
58	0x3d876e38	0.066128194
59	0xbcc75a25	-0.024334976
60	0x3e272f67	0.16326676
61	0x3ce04bff	0.027379988
62	0x3e25a01b	0.16174357
63	0x3b40a687	0.0029396133
64	0x3d8adfbf	0.067809574
65	0x3e2a460f	0.16628288
66	0xbc356891	-0.011072294
67	0x3d8df82c	0.06932101
68	0x3d05ffd8	0.032714695
69	0xbb152114	-0.0022755312
70	0x3e0086d4	0.12551433
71	0x3e3fce8f	0.1873114
72	0x3e2b90f3	0.16754512
73	0x3db3dc5f	0.08782267
74	0xbe1f9a62	-0.15586236
75	0xbcf71f03	-0.030166155
76	0xbdddd222	-0.10831095
77	0x3c802b91	0.015645774
78	0xbda71d4f	-0.08159887
79	0x3d9f19a6	0.07768564
80	0xbc412170	-0.011787757
81	0x3d9e980f	0.077438466
82	0x3ddd17dd	0.10795567
83	0xbd87db53	-0.0663363
84	0x3e38c21a	0.18042794
85	0x3d9a490a	0.07533462
86	0xbccae6a1	-0.024768176
87	0x3d64e425	0.055881638
88	0x3de2e721	0.110792406
89	0x3e208318	0.15675008
90	0x3d9757b7	0.07389777
91	0xbe2b545b	-0.16731398
92	0x3c4e8295	0.012604375
93	0x3e1f1080	0.15533638
94	0x3d85bde9	0.06530363
95	0x3dba806e	0.09106527
96	0x3dab8722	0.08375384
97	0xbd98c56a	-0.07459529
98	0x3dc7957e	0.0974531
99	0xbe0d3f5e	-0.13793704
100	0xbca13436	-0.019678216
101	0xbe07404d	-0.13208123
102	0xbe09c748	-0.13454926
103	0xbd2efd12	-0.042721815
104	0xbd50d398	-0.05098304
105	0x3d1bc73b	0.038031798
106	0xbe167e51	-0.14696623
107	0x3e042d21	0.1290784
108	0x3c7fc65a	0.015611256
109	0xbdb28de9	-0.087184735
110	0x3e1839e1	0.14865829
111	0xbd3f910f	-0.046769198
112	0x3bac3a3a	0.0052559646
113	0xbda6190c	-0.08110246
114	0x3ca0c877	0.01962684
115	0x3dba7404	0.091041595
116	0xbe1a66dd	-0.15078302
117	0x3c95a2d9	0.018266128
118	0xbe16d0c5	-0.14728077
119	0x3de44337	0.11145633
120	0x3db6e064	0.08929518
121	0xbda3e8a8	-0.0800336
122	0xbdc3633e	-0.09540413
123	0x3d0d396b	0.034478586
124	0xbba685e0	-0.005081877
125	0x3e13084f	0.14358638
126	0xbe1506d0	-0.1455338
127	0xbda7849a	-0.081795886
128	0xbdf36d62	-0.118860975
129	0x3e16a763	0.1471229
130	0x3c06a462	0.008217903
131	0x3e0cb744	0.13741785
132	0x3dd928df	0.10603499
133	0xbe2dce95	-0.16973336
134	0xbe1587c8	-0.14602578
135	0x3d8f62ce	0.070012674
136	0xbe003b34	-0.12522584
137	0x3dd8ebb2	0.1059183
138	0x3dc0febd	0.094235875
139	0x3e02dcd6	0.12779555
140	0xbda282d6	-0.07935111
141	0xbd5873a0	-0.052844644
142	0xbdaaa768	-0.083327115
143	0xbd7ac119	-0.06121931
144	0xbe214ba5	-0.15751512
145	0xbe137640	-0.14400578
146	0x3dc9cc27	0.09853392
147	0x3d59ddd2	0.05319006
148	0x3d8667cb	0.06562766
149	0xbd8af2b2	-0.06784572
150	0xbe133c3a	-0.14378443
151	0x3d4652aa	0.04841868
152	0x3dd4555a	0.10367842
153	0x3e2279d5	0.15866788
154	0xbd784875	-0.060615975
155	0x3dd62bf8	0.10457605
156	0xbc8aaf47	-0.016929282
157	0xbcc1b30e	-0.02364495
158	0x3d1f54d6	0.038899265
159	0x3cc41565	0.023935983
160	0xbdd16281	-0.10223866
161	0xbe058baf	-0.13041566
162	0xbd884599	-0.066539
163	0x3dbcb2ac	0.092137665
164	0x3d584e31	0.052808944
165	0xbd7f6013	-0.062347483
166	0x3d839302	0.06424524
167	0x3dad2305	0.08453945
168	0x3e1d9929	0.15390457
169	0x3e1a6c0f	0.15080284
170	0xbb4e1cf2	-0.0031450358
171	0x3e26daad	0.16294356
172	0xbe2e4fe8	-0.1702267
173	0xbde02d7e	-0.10946177
174	0xbd93969b	-0.0720646
175	0x3d9f4fd1	0.07778896
176	0x3d04f37b	0.032458764
177	0x3daeb875	0.08531276
178	0xbda0968d	-0.07841215
179	0x3d2beb52	0.041972466
180	0xbdd16a95	-0.10225407
181	0x3df0d621	0.11759592
182	0x3e31b2af	0.17353319
183	0x3c59012d	0.013244909
184	0xbbe88b4a	-0.0070966827
185	0xbd120dc4	-0.03565766
186	0x3d2d98dd	0.04238211
187	0x3e1a74c6	0.15083608
188	0xbc86a1bd	-0.016434545
189	0xbe0aa813	-0.13540678
190	0xbdcdfd54	-0.10058084
191	0x3dd67f02	0.104734436
192	0xbd6009df	-0.054696914
193	0xbdf56237	-0.119816236
194	0xbdcb587e	-0.09928988
195	0xbc071dfc	-0.008246895
196	0x3d895fbf	0.06707715
197	0xbcd03e26	-0.02542026
198	0xbded75e4	-0.115947515
199	0x3e03da2e	0.12876198
200	0xbc957422	-0.018243853
201	0xbd802416	-0.06256883
202	0xbdf0cbb1	-0.11757601
203	0xbe26cef5	-0.16289885
204	0x3dcad0d7	0.09903114
205	0x3d12662f	0.03574198
206	0x3e25a364	0.1617561
207	0x3d35afbd	0.04435705
208	0x3d982cde	0.07430433
209	0x3d126fff	0.03575134
210	0x3e32554b	0.17415349
211	0x3da114dd	0.078653075
212	0x3e15baf4	0.14622098
213	0x3d9fe4b8	0.078072965
214	0xbdaa4dc6	-0.08315615
215	0x3e129055	0.14312871
216	0x3db19ead	0.08672843
217	0x3db7aac1	0.089681156
218	0xbde554ec	-0.11197838
219	0x3c439449	0.011937209
220	0x3d26ab77	0.040690865
221	0x3dc7d086	0.097565696
222	0x3c87a089	0.016556041
223	0xbde5adbd	-0.112147786
224	0x3d1bf7d8	0.03807816
225	0xbdd30737	-0.103041105
226	0x3e461459	0.193437
227	0x3dd2c81d	0.10292075
228	0xbdf43255	-0.119236626
229	0x3e0b911d	0.13629575
230	0x3dc57061	0.09640575
231	0xbdd2b7ab	-0.10288938
232	0x3de0392a	0.10948403
233	0xbd8306fa	-0.06397815
234	0xbdb0e6bb	-0.08637758
235	0xbdc1487c	-0.094376534
236	0x3e1a19e5	0.1504894
237	0x3db50761	0.08839298
238	0x3d72136e	0.05910056
239	0xbdd74dd7	-0.10512894
240	0x3e1ede4e	0.1551449
241	0x3d14a30d	0.03628831
242	0x3d446c31	0.047954742
243	0xbe03d654	-0.12874728
244	0x3e4d85b6	0.20070538
245	0x3bf3a44c	0.007435357
246	0xbd8973ff	-0.067115776
247	0x3d8d5d92	0.06902613
248	0xbe191626	-0.14949855
249	0xbcd1d608	-0.025614753
250	0x3d79573c	0.06087421
251	0x3c759b8b	0.014990698
252	0xbdc7f587	-0.097636275
253	0x3d99c900	0.07509041
254	0xbd9ce1ee	-0.0766028
255	0x3e462f27	0.19353925

rnn.bias_ih_l2 f4 [32]
0	0x3b998875	0.0046854564
1	0x3d107340	0.03526616
2	0xbc3325c1	-0.010934294
3	0xbddb1969	-0.10698206
4	0xbd4ec3e9	-0.050479803
5	0x3e1daa12	0.15396908
6	0xbc1de047	-0.009635991
7	0xbe1f0ea8	-0.15532935
8	0x3d38d5fc	0.045125946
9	0xbd912d7e	-0.07088755
10	0x3d1feb56	0.039042793
11	0xbcf36b06	-0.029714119
12	0x3c642a50	0.013926104
13	0x3df10ff5	0.11770622
14	0x3c864868	0.016391948
15	0xbc8e50f9	-0.017372595
16	0xbde7a1e0	-0.11310172
17	0xbe388bf9	-0.18022145
18	0x3daabf4d	0.08337269
19	0xbdbc6032	-0.09198035
20	0xbda334c1	-0.079690464
21	0x3c3eb6b8	0.011640243
22	0xbe2e18be	-0.17001626
23	0x3b833864	0.004004525
24	0x3dec71af	0.11545121
25	0x3d4aba56	0.04949411
26	0xbc1e42d5	-0.009659489
27	0x3e184a79	0.14872159
28	0x3d1fcfb5	0.039016444
29	0x3da7e1fa	0.081973985
30	0xbd029506	-0.0318804
31	0xbd4696d2	-0.048483677

rnn.bias_hh_l2 f4 [32]
0	0x3e2a14d4	0.16609508
1	0xbcf9bf96	-0.030486863
2	0x3daccd65	0.084376134
3	0xbe17c843	-0.14822488
4	0x3e382e68	0.17986453
5	0x3e175900	0.14780045
6	0x3c8d86ea	0.017276246
7	0xbdabbe9f	-0.083859675
8	0x3de93efe	0.11388968
9	0x3d67822c	0.056520626
10	0x3d906367	0.070502095
11	0x3e3a5f88	0.18200505
12	0xbd1d5a19	-0.038416002
13	0xbe29556f	-0.16536497
14	0xbe213697	-0.1574348
15	0x3dc8f977	0.09813207
16	0x3d415d46	0.047208093
17	0x3d67312f	0.05644339
18	0x3ddadbcc	0.10686454
19	0x3da49ebc	0.08038089
20	0x3e2afeba	0.16698733
21	0x3cebcd71	0.028784486
22	0xbda16b2f	-0.07881772
23	0x3d331758	0.043723434
24	0xbdbc12c2	-0.09183265
25	0xbe05dd95	-0.13072808
26	0xbd93666c	-0.0719727
27	0xbcc7f96a	-0.024410922
28	0x3c56e7fd	0.013116834
29	0x3d1f36ca	0.03887061
30	0xbda86a25	-0.082233705
31	0x3d162fa3	0.036666524

rnn.weight_ih_l3 f4 [32, 32]
0	0x3df26e00	0.11837387
1	0x3dff1fb5	0.124572195
2	0xbe240a0f	-0.16019462
3	0x3c05a721	0.008157522
4	0xbc2483e8	-0.0100412145
5	0xbd82b95e	-0.06383012
6	0x3e2d634c	0.1693241
7	0x3d1f73d4	0.03892882
8	0x3e314c9b	0.17314379
9	0xbe0b998e	-0.13632795
10	0x3cfc6ce5	0.030813644
11	0x3d685deb	0.056730192
12	0x3d8187e5	0.06324748
13	0xbdc1eab2	-0.09468593
14	0x3d787831	0.0606615
15	0x3e354ec4	0.17705828
16	0xbde4e3bd	-0.1117625
17	0x3df81bc4	0.12114671
18	0xbde614a1	-0.112344034
19	0xbdee6003	-0.116394065
20	0x3c8192f3	0.015817141
21	0xbd093bce	-0.0335043
22	0x3d98914a	0.07449587
23	0x3992984b	0.00027960757
24	0xbd9f2ae3	-0.07771852
25	0xbe0a444e	-0.13502619
26	0x3e0fdd0b	0.14049165
27	0x3dea1dbc	0.11431453
28	0x3c4cf05f	0.012508481
29	0x3d529d59	0.05141959
30	0x3d1d1b65	0.038356204
31	0x3dafc331	0.08582152
32	0xbd4b8ab8	-0.04969284
33	0x3d38b35e	0.045092933
34	0xbd0fcc33	-0.03510685
35	0x3db8941f	0.09012627
36	0xbd826425	-0.06366757
37	0x3cdd5072	0.027015898
38	0xbe322ea0	-0.17400599
39	0xbde401d4	-0.11133161
40	0xbe33c175	-0.17554267
41	0x3d49e236	0.049287997
42	0x3e0fcceb	0.14043014
43	0x3e16d80e	0.14730856
44	0x3ac6069b	0.001510817
45	0x3df99e52	0.121884
46	0x3e27aaf3	0.16373806
47	0x3dc9cbdd	0.09853337
48	0xbe307c81	-0.17234994
49	0xbe14ba64	-0.14524227
50	0xbd01bb75	-0.031672914
51	0x3d127db2	0.035764404
52	0xbdec5fc1	-0.11541701
53	0x3e0aa508	0.13539517
54	0xbd0c19ea	-0.0342044
55	0xbdf0ff9e	-0.11767505
56	0xbdb241b9	-0.08703942
57	0xbdb940ae	-0.0904554
58	0x3e0d6f6b	0.13812034
59	0x3d976376	0.073920175
60	0xbdfbd588	-0.12296587
61	0xbd81f056	-0.063446686
62	0x3d9d17fb	0.076705895
63	0x3d8dc184	0.06921676
64	0xbdbbb349	-0.09165055
65	0x3d069709	0.032858882
66	0xbdddfab6	-0.10838835
67	0xbd622e63	-0.05522002
68	0xbde59999	-0.11210937
69	0x3c5bf3f9	0.013424867
70	0xbdd17cf2	-0.102289096
71	0x3cf50738	0.029910669
72	0x3db91eac	0.09039053
73	0xbe23e897	-0.16006695
74	0x3d20ff93	0.039306235
75	0x3d856c4c	0.065147966
76	0xbdd8e658	-0.105908096
77	0xbe0a4e81	-0.1350651
78	0x3d134974	0.035958722
79	0x3d968261	0.073490866
80	0xbe33d2bc	-0.17560858
81	0x3e0e8104	0.13916403
82	0x3e23ff1a	0.16015282
83	0xbdecd04f	-0.11563169
84	0x3d595ce8	0.053067118
85	0xbc793e7d	-0.015212652
86	0x3e29036c	0.16505212
87	0x3d2abc7b	0.041683655
88	0xbdead64e	-0.114666566
89	0xbdca3177	-0.09872716
90	0x3dc3397d	0.095324494
91	0x3de82a15	0.113361515
92	0x3cff6f12	0.031180892
93	0x3d8bf845	0.06834463
94	0xbd49c7da	-0.04926286
95	0x3a977852	0.0011556244
96	0xbe0d86e2	-0.13820985
97	0xbde95afa	-0.113943055
98	0x3da79d43	0.08184292
99	0x3e25e707	0.16201411
100	0xbe301547	-0.17195617
101	0xbcdd5c69	-0.027021604
102	0x3dabc13c	0.08386466
103	0xbcddacb9	-0.0270599
104	0x3e2eb850	0.17062497
105	0xbd0ab831	-0.033867065
106	0x3ddde30c	0.108343214
107	0x3d6c7c14	0.057735518
108	0xbdd63c1b	-0.10460683
109	0x3dc73c4c	0.097282976
110	0x3dcf7530	0.101297736
111	0xbdd8edcc	-0.10592231
112	0xbe281805	-0.16415413
113	0x3dd0db9a	0.10198136
114	0xbe2449c4	-0.16043764
115	0xbc7dc449	-0.015488693
116	0xbd706d9a	-0.058698274
117	0xbd4c1aa3	-0.04983009
118	0x3d846c28	0.06465942
119	0x3cad1fc3	0.02113331
120	0x3d84ef26	0.064909264
121	0x3d9703d2	0.073737755
122	0xb9e2d944	-0.00043267955
123	0xbe0254b1	-0.1272762
124	0xbcf83cd3	-0.03030244
125	0x3df27f70	0.11840713
126	0x3d98075b	0.07423278
127	0x3dc9d94c	0.09855899
128	0xbda3b5eb	-0.079936825
129	0xbe2a6bb7	-0.16642652
130	0xbdf704ef	-0.12061488
131	0x3e248be0	0.16068983
132	0x3d53c2a0	0.05169928
133	0xbd9e5d6b	-0.07732662
134	0xbda51cb0	-0.08062112
135	0xbde77148	-0.113009036
136	0x3d8dd12c	0.06924662
137	0x3d6c57b1	0.057700817
138	0xbc093a5b	-0.008375729
139	0x3e0da6d6	0.13833174
140	0x3decb817	0.1155855
141	0x3dc34d17	0.09536188
142	0xbc3291a6	-0.010898983
143	0xbe0b94a2	-0.13630918
144	0x3d1af1b5	0.037828166
145	0xbdf4335c	-0.119238585
146	0x394fc793	0.00019815406
147	0x3dc1efec	0.094695896
148	0xbd02a2bd	-0.03189348
149	0xbe18e403	-0.1493073
150	0xbd1add39	-0.03780863
151	0x3dcc43f6	0.099739
152	0xbc643549	-0.01392872
153	0x3e009675	0.12557395
154	0x3ce431a0	0.027855694
155	0xbe30e42e	-0.17274544
156	0xbd01d485	-0.031696815
157	0xbe066ec8	-0.13128197
158	0xbdb2f6d1	-0.08738483
159	0xbc5ab3ed	-0.013348562
160	0x3e349389	0.17634405
161	0xbdf67dc0	-0.12035704
162	0x3e323f1d	0.17406888
163	0x3dd3e275	0.103459276
164	0x3e0af8f2	0.13571528
165	0xbe00f4a2	-0.1259332
166	0x3df02cec	0.11727318
167	0xbd8637ba	-0.06553598
168	0x3cbfaa52	0.023396645
169	0x3d74607b	0.059662323
170	0xbd9c2b88	-0.076254904
171	0x3dbe7619	0.09299869
172	0xbdaf8322	-0.085699335
173	0x3daf1100	0.08548164
174	0xbd84377a	-0.06455894
175	0xbde0750b	-0.10959824
176	0xbd6e46f7	-0.058173146
177	0xbd929bf8	-0.07158655
178	0x3dd60c12	0.10451521
179	0x3dd3d03d	0.10342453
180	0xbe213719	-0.15743674
181	0xbe1094fc	-0.14119333
182	0x3bbada2f	0.005702279
183	0xbe21baa7	-0.15793858
184	0x3e06f32e	0.13178703
185	0xbd36e208	-0.044649154
186	0x3d7948fc	0.06086062
187	0xbd07286e	-0.03299754
188	0x3e2d04f2	0.16896418
189	0x3dd4efc7	0.103972964
190	0x3d867168	0.06564599
191	0x3d262737	0.040564742
192	0x3ddeaaa7	0.10872393
193	0xbe18f21e	-0.1493611
194	0xbc5f2cfa	-0.013621563
195	0xbd4ec5e7	-0.050481703
196	0x3d003707	0.03130248
197	0x3dc4c1b9	0.09607262
198	0x3e283f63	0.1643043
199	0x3e4458f4	0.19174558
200	0x3e257b60	0.16160345
201	0x3e00bd96	0.12572321
202	0x3d2c7c4b	0.042110723
203	0x3ca1235f	0.019670187
204	0x3d1c20bf	0.038117167
205	0x3e271787	0.16317569
206	0x3e0e9e24	0.13927513
207	0x3c72cb6d	0.014819008
208	0x3c9275fc	0.017878525
209	0x3e064d3a	0.13115397
210	0xbdd71913	-0.105028294
211	0xbcddbf10	-0.027068645
212	0xbd7acd7b	-0.061231118
213	0xbd7b66e4	-0.06137742
214	0x3e06a1e1	0.1314769
215	0x3dc2d539	0.09513325
216	0xbd1389dd	-0.03602015
217	0xbde3b127	-0.111177735
218	0xbc259e36	-0.010108521
219	0x3c387e39	0.011260563
220	0xbc51d26c	-0.012806516
221	0xbb8ba074	-0.004261071
222	0xbdab4721	-0.08363176
223	0x3d566888	0.052345783
224	0x3de7c5e4	0.113170415
225	0xbc317813	-0.010831851
226	0x3d6d9870	0.058006704
227	0xbcc7df5a	-0.024398495
228	0x3e0533c1	0.13008024
229	0x3c39869f	0.0113236
230	0x3cb6738a	0.02227189
231	0xbc9dc53a	-0.019259084
232	0xbca91870	-0.020641536
233	0xbe01776b	-0.1264321
234	0x3de1460b	0.10999688
235	0xbd9a255a	-0.075266555
236	0xbc35dce2	-0.011100026
237	0xbe294a2c	-0.165322
238	0xbe3142e3	-0.17310672
239	0xbe172c17	-0.14762913
240	0xbdac4c48	-0.08412987
241	0x3d6f39e9	0.058404837
242	0x3d9fcf08	0.0780316
243	0x3b7fb5d3	0.0039018288
244	0x3dd1cb0a	0.10243805
245	0x3d69fd61	0.057126407
246	0xbdb0a2fd	-0.086248375
247	0xbe0c6ed1	-0.13714148
248	0xbe2b9034	-0.16754228
249	0x3b9bcc31	0.004754566
250	0x3da08610	0.078380704
251	0xbdfabdbf	-0.122432224
252	0xbe002696	-0.1251472
253	0xbe34e158	-0.17664087
254	0x3e114d89	0.14189734
255	0x3d974541	0.07386256
