rnn_model.pth (torch, 160674 bytes, 10 tensors)

gru.weight_ih_l0 f4 [192, 8]
-0.3643919 -0.28630883 -0.2077895 -0.39172783 -0.28991327 -0.128382 -0.20097435 -0.30711612
-0.16976091 0.017080262 0.025396397 0.024411248 -0.06461197 -0.048654374 -0.15996923 0.052605808
0.09509306 -0.090681255 -0.056907944 0.0022605464 0.06271753 -0.07654689 -0.09859762 -0.09223203
0.06232385 0.09486061 -0.07957191 -0.045149975 -0.10543368 -0.074281216 -0.02039684 -0.058709625
-0.15282312 -0.1438263 -0.15674138 -0.114387706 -0.0694096 -0.18941745 -0.09900093 0.025623156
0.08963734 -0.11348507 -0.02604754 0.0920611 0.009093615 0.019408105 -0.038277827 0.0641639
0.09895755 -0.0708324 -0.03608272 -0.07239226 -0.030633163 -0.027756756 -0.11464902 0.10164705
-0.11520146 -0.11232813 -0.098902255 0.00023463611 0.034561742 0.0537317 0.082934536 -0.03175608
-0.17494325 -0.071698524 -0.046389725 -0.056120414 -0.051124103 -0.0006851169 0.048073538 0.0069578495
0.037000276 -0.06712563 0.08536882 -0.097125255 -0.033664823 -0.030345483 0.08297644 -0.07681357
0.10769471 0.02112719 -0.052946582 -0.033418722 0.09242331 0.110681 -0.10198083 0.10628377
0.025554344 -0.009386358 -0.055100907 -0.047386486 -0.039547857 -0.07617218 -0.056209963 0.05514315
0.05186572 -0.13742745 -0.07321513 -0.028242301 -0.13324362 -0.07340006 -0.02183984 -0.14294328
-0.14329794 -0.002003453 -0.10620166 -0.03229395 -0.07028452 -0.024730159 -0.09057863 -0.06282622
-0.09183869 0.10195381 0.07007438 -0.027252423 -0.017181918 -0.11243172 0.0084428415 -0.06294642
-0.040696487 0.08026932 -0.010019764 -0.11909393 -0.06482974 -0.10707918 0.054328226 -0.09611704
0.02628765 0.06682912 -0.13357477 0.04952132 0.013428807 0.016677056 0.022466553 -0.0005040448
0.031134218 -0.0132035315 -0.040036596 -0.090727724 -0.12000963 -0.06162512 -0.12393818 -0.11995281
-0.02676201 -0.0383945 0.11697573 -0.10067807 -0.002462634 -0.10818004 0.043651577 -0.012856439
-0.004642128 -0.026241932 0.066239625 -0.011146926 0.033690326 -0.11693476 -0.037930205 0.016561015
0.008880453 0.05117721 0.019440938 -0.007293754 -0.032284617 0.107256815 -0.08064644 0.005576571
0.04802047 0.112799555 0.085336946 -0.0011466632 0.08084577 0.091944344 0.06497009 0.11936902
0.04131722 0.06559253 -0.066005446 0.10622726 0.09119619 0.14473002 -0.036241297 -0.089291774
-0.10136584 0.06664994 -0.08148348 -0.038447123 0.0045682653 0.026966998 0.012132268 0.08602932
0.06668158 0.0653824 -0.057221584 0.023695458 0.07727686 0.050000083 0.031095833 -0.0431103
0.040301338 0.013851708 -0.052545726 0.024350565 0.099979796 -0.073969625 -0.046602704 -0.10273451
-0.012769732 0.07377688 -0.029080058 0.11596827 0.04046063 0.04428911 -0.07829847 -0.11794728
0.061104156 -0.02472466 0.072857454 -0.08358241 0.124061905 -0.07009305 0.01951782 -0.11720516
0.013091601 -0.053200066 -0.107851155 0.118965 -0.083776064 0.12758356 -0.091615684 0.027372522
0.10133957 -0.06099921 0.07457703 -0.060757425 0.037622996 -0.00054456847 -0.028810157 0.021829715
0.08852964 0.025144752 0.111005545 0.07716228 -0.08638311 0.023652773 -0.12524106 -0.060885355
0.028386574 -0.050301168 0.099886045 -0.009671872 -0.0033235673 0.03222366 -0.004044228 -0.121915415
00000000: 9391 babe 1297 92be c5c6 54be 8d90 c8be
00000010: 836f 94be 9276 03be 38cc 4dbe 533e 9dbe
00000020: ced5 2dbe e8eb 8b3c 1b0c d03c 19fa c73c
00000030: 4853 84bd cf49 47bd f9ce 23be 3079 573d
00000040: 26c0 c23d 18b7 b9bd 4e18 69bd ad25 143b
00000050: 0c72 803d 9ec4 9cbd 8ded c9bd 26e4 bcbd
00000060: 4b47 7f3d 4846 c23d 99f6 a2bd 2eef 38bd
00000070: 9ded d7bd c020 98bd 4617 a7bc 8179 70bd
00000080: aa7d 1cbe 3447 13be d080 20be 1a44 eabd
00000090: 9f26 8ebd a6f6 41be 00c1 cabd a7e7 d13c
000000a0: c893 b73d dc6a e8bd a761 d5bc 888a bc3d
000000b0: 63fd 143c bffd 9e3c 36c9 1cbd 5d68 833d
000000c0: 42aa ca3d 9410 91bd 79cb 13bd 6542 94bd
000000d0: 66f2 fabc 2362 e3bc 1bcd eabd 542c d03d
000000e0: beee ebbd 4a0c e6bd 448d cabd a708 7639
000000f0: 9d90 0d3d c515 5c3d 95d9 a93d aa12 02bd
00000100: 5324 33be add6 92bd 2703 3ebd 85de 65bd
00000110: 8267 51bd 6b99 33ba c2e8 443d acfe e33b
00000120: 9a8d 173d 2a79 89bd d9d5 ae3d 9be9 c6bd
00000130: 20e4 09bd 1797 f8bc 8def a93d 6f50 9dbd
00000140: 0b8f dc3d ee12 ad3c 84de 58bd 12e2 08bd
00000150: 6f48 bd3d b8ac e23d 53db d0bd 4eab d93d
00000160: 5857 d13c 3dc9 19bc 7db1 61bd 5518 42bd
00000170: effc 21bd 2900 9cbd 6b3c 66bd c9dd 613d
00000180: 2671 543d c8b9 0cbe d0f1 95bd 665c e7bc
00000190: 0471 08be c552 96bd 77e9 b2bc b95f 12be
000001a0: b2bc 12be 5d4c 03bb 4280 d9bd a946 04bd
000001b0: 55f1 8fbd e796 cabc 4a81 b9bd 09ab 80bd
000001c0: ec15 bcbd 29cd d03d 2883 8f3d 7940 dfbc
000001d0: 18c1 8cbc 9a42 e6bd d853 0a3c 0dea 80bd
000001e0: 5cb1 26bd 3e64 a43d f029 24bc 85e7 f3bd
000001f0: 74c5 84bd 544c dbbd 4687 5e3d 03d9 c4bd
00000200: 3359 d73c b5dd 883d d3c7 08be ded6 4a3d
00000210: 8004 5c3c 529e 883c c70b b83c e021 04ba
00000220: 300d ff3c a053 58bc 6afd 23bd 75cf b9bd
00000230: 9cc7 f5bd 9f6a 7cbd 4dd3 fdbd d2a9 f5bd
00000240: 013c dbbc 8d43 1dbd f990 ef3d 4e30 cebd
00000250: 2464 21bb 7f8d ddbd ffcb 323d d0a3 52bc
00000260: fe1c 98bb 52f9 d6bc a4a8 873d 99a1 36bc
00000270: defe 093d 7e7b efbd b45c 1bbd f7aa 873c
00000280: 527f 113c 329f 513d 9a42 9f3c 7100 efbb
00000290: e03c 04bd 76a9 db3d f629 a5bd abbb b63b
000002a0: 1db1 443d 7403 e73d 23c5 ae3d a24b 96ba
000002b0: 7892 a53d 514d bc3d 0a0f 853d bf77 f43d
000002c0: 3f3c 293d 6055 863d dd2d 87bd ad8d d93d
000002d0: 11c5 ba3d 1b34 143e c171 14bd 9bde b6bd
000002e0: e598 cfbd c47f 883d d0e0 a6bd bb7a 1dbd
000002f0: 63b1 953b e5e9 dc3c 6cc6 463c 2430 b03d
00000300: 5a90 883d 35e7 853d 2e61 6abd fa1c c23c
00000310: 5543 9e3d e3cc 4c3d b0bc fe3c 6d94 30bd
00000320: 0413 253d 46f2 623c 303a 57bd d67a c73c
00000330: 35c2 cc3d 637d 97bd 7ae2 3ebd 7966 d2bd
00000340: 2338 51bc 5518 973d 4d39 eebc c680 ed3d
00000350: 0cba 253d 7f68 353d f35a a0bd 588e f1bd
00000360: 5a48 7a3d 5f8b cabc 4a36 953d 412d abbd
00000370: 2b14 fe3d f28c 8fbd d6e3 9f3c 4209 f0bd
00000380: 287e 563c 50e8 59bd 11e1 dcbd eca3 f33d
00000390: c992 abbd 44a5 023e 01a1 bbbd 573c e03c
000003a0: 1f8b cf3d 4fda 79bd d8bb 983d c7dc 78bd
000003b0: 921a 1a3d 5fc1 0eba 4703 ecbc 3bd4 b23c
000003c0: 074f b53d 5efc cd3c e056 e33d 4207 9e3d
000003d0: a1e9 b0bd 76c3 c13c 313f 00be ec62 79bd
000003e0: f68a e83c 9908 4ebd 0e91 cc3d c576 1ebc
000003f0: 35d0 59bb f5fc 033d 7185 84bb caae f9bd

gru.weight_hh_l0 f4 [192, 64]
-0.32868758 -0.42069125 0.11122456 -0.20240587 0.17423807 0.037622202 -0.16463467 -0.24663568
0.005331437 -0.0754676 -0.19739361 0.24289404 0.23638497 -0.24515519 -0.13620922 -0.23830466
0.18867485 -0.022783237 0.14542326 -0.0050288774 -0.052285276 -0.06956674 0.11238074 -0.2652358
-0.029868348 0.15176716 -0.03927497 0.09030873 0.15698135 -0.12762299 -0.15591928 0.16648144
-0.09807063 0.119514436 0.09045881 -0.30739436 0.093265265 0.13530113 -0.090513274 -0.25603268
-0.04608879 -0.12841041 -0.09012765 -0.048524898 -0.081741765 0.08951131 0.1512722 -0.059227705
-0.055313133 0.120411836 0.25984696 -0.07845566 -0.08529336 0.12702149 0.09996545 -0.18253991
0.16230895 -0.15049885 -0.1612817 -0.14489399 0.17681831 -0.21515891 0.15192124 -0.08376444
-0.0021493188 -0.14465237 0.1841993 -0.13634443 -0.04153806 -0.0725236 0.04671374 0.14972076
-0.1317361 0.012513366 -0.19599637 -0.021995008 -0.020139415 -0.12441187 0.0520244 0.027436202
0.14601605 0.12809968 0.0818418 -0.037184607 -0.062692106 0.00044770507 0.1929375 0.004641964
0.06413772 0.18084243 -0.151702 -0.10231039 0.002133315 -0.032405328 0.15290831 -0.18012421
-0.13177548 -0.12783906 0.033848748 -0.040183887 0.19315262 0.01148387 -0.14442371 0.08250078
0.2450776 -0.12813316 0.07089996 -0.037637938 0.24493735 -0.056905676 0.022873484 0.20992717
-0.0062997914 0.113517284 -0.04156394 0.048834644 -0.14387004 0.09520842 -0.34762168 -0.006208594
-0.22242555 0.026710805 0.15117024 -0.14812462 -0.01203401 -0.101787746 -0.17785135 -0.10656859
0.077256754 -0.0006491013 0.059697744 0.12565719 -0.06322549 -0.053909924 0.03954733 -0.028484577
-0.00071986933 -0.07382483 -0.06424615 0.106917255 -0.12622999 -0.0384952 -0.064009 -0.04400325
-0.00321553 -0.045854356 0.10842171 0.03838924 -0.037174024 -0.06667331 -0.1398162 0.0051589743
0.03335712 0.021046069 -0.007171955 0.041854534 0.076782554 -0.09273209 0.078986585 0.0201908
-0.072658814 -0.046958547 0.09461349 0.061162654 0.039847665 -0.029236011 -0.03103958 -0.02740854
0.042977 -0.041336343 -0.030700102 -0.07010389 0.105517454 0.04452296 0.11652602 0.07134799
0.08197955 0.02942519 0.03300452 0.110420205 0.025070032 0.029625988 -0.07716235 0.024323137
-0.11140766 -0.042635173 0.1595924 0.018469473 0.02728469 0.008525294 0.07443139 -0.084223635
-0.07659324 -0.031965017 0.047567934 0.10509818 0.08357837 -0.0036096887 -0.028422803 0.09061986
-0.014125824 -0.042219587 -0.12292398 0.038948692 0.0016424572 -0.036280796 0.10142718 0.08296001
0.08198957 0.07348717 0.008665168 -0.0989542 -0.02882974 0.0463107 0.0051388447 -0.1132712
0.041617118 -0.057295434 -0.057578664 -0.024612144 0.11919077 0.03435647 0.012410028 0.03581899
0.11815052 -0.0013774043 -0.06884855 -0.084880665 0.03291124 0.077040814 0.09593871 0.09741955
-0.014057067 -0.057916112 -0.021508742 -0.05823437 -0.03573816 0.09917611 0.01342134 0.043945823
0.025057727 -0.0563439 0.026779635 0.08143507 -0.048099443 -0.059848048 0.07673711 -0.07117907
0.00454699 0.10894929 0.095816605 -0.027912002 -0.05177249 0.010731581 -0.07291678 0.120868154
00000000: bd49 a8be d864 d7be b4c9 e33d 7c43 4fbe
00000010: 776b 323e bd19 1a3d fe95 28be 108e 7cbe
00000020: 56b3 ae3b c28e 9abd 8d21 4abe 37b9 783e
00000030: e70e 723e f609 7bbe 6e7a 0bbe 2306 74be
00000040: fb33 413e e9a3 babc d6e9 143e 48c9 a4bb
00000050: 1629 56bd 0279 8ebd e027 e63d fdcc 87be
00000060: 77ae f4bc da68 1b3e cade 20bd c9f3 b83d
00000070: b8bf 203e 9aaf 02be 4ea9 1fbe 1c7a 2a3e
00000080: 41d9 c8bd fcc3 f43d 7842 b93d cb62 9dbe
00000090: dc01 bf3d 618c 0a3e 065f b9bd b716 83be
000000a0: 99c7 3cbd 057e 03be d894 b8bd 0bc2 46bd
000000b0: 3a68 a7bd b551 b73d 19e7 1a3e c098 72bd
000000c0: 0690 62bd 7b9a f63d a90a 853e 5cad a0bd
000000d0: 49ae aebd ec11 023e b0ba cc3d beeb 3abe
000000e0: 5134 263e 5f1c 1abe 0827 25be 175f 14be
000000f0: dc0f 353e 9e52 5cbe 3e91 1b3e b18c abbd
00000100: 96db 0cbb c01f 14be be9e 3c3e e09d 0bbe
00000110: d023 2abd 4187 94bd e856 3f3d 6650 193e
00000120: d4e5 06be dc04 4d3c 46b3 48be e02e b4bc
00000130: 6afb a4bc a7cb febd 8a17 553d e3c1 e03c
00000140: 3b85 153e 902c 033e ac9c a73d e34e 18bd
00000150: b864 80bd f5b9 ea39 6891 453e 9e1b 983b
00000160: a35a 833d c22e 393e c557 1bbe 1c88 d1bd
00000170: 16cf 0b3b 73bb 04bd ff93 1c3e 7b72 38be
00000180: 27f0 06be 3ee8 02be fca4 0a3d dc97 24bd
00000190: cdc9 453e d826 3c3c cfe3 13be 2bf6 a83d
000001a0: 9ff5 7a3e 5735 03be 0034 913d 3d2a 1abd
000001b0: dbd0 7a3e ed15 69bd 2c61 bb3c 26f7 563e
000001c0: 7b6e cebb c07b e83d f33e 2abd d606 483d
000001d0: ab52 13be a2fc c23d 78fb b1be 7671 cbbb
000001e0: 86c3 63be 9ed0 da3c 5fcc 1a3e fbad 17be
000001f0: 4c2a 45bc 1876 d0bd aa1e 36be a240 dabd
00000200: ca38 9e3d 7328 2aba 9f85 743d 47ac 003e
00000210: 5e7c 81bd a7d0 5cbd 62fc 213d 7d58 e9bc
00000220: 9db5 3cba 7931 97bd 7c93 83bd 6ff7 da3d
00000230: 6f42 01be 25ad 1dbd 2717 83bd c03c 34bd
00000240: a4bb 52bb c7d1 3bbd 340c de3d 093e 1d3d
00000250: ca43 18bd 048c 88bd fa2b 0fbe 9d0c a93b
00000260: 7aa1 083d ce68 ac3c b802 ebbb a96f 2b3d
00000270: 2c40 9d3d 52ea bdbd b8c3 a13d 2d67 a53c
00000280: 25ce 94bd 9b57 40bd b8c4 c13d b185 7a3d
00000290: 4e37 233d 5c80 efbc b846 febc e087 e0bc
000002a0: a708 303d 4c50 29bd c87e fbbc a192 8fbd
000002b0: 8919 d83d b55d 363d 32a5 ee3d e51e 923d
000002c0: e5e4 a73d 190d f13c bf2f 073d fd23 e23d
000002d0: ab5f cd3c 33b2 f23c 4b07 9ebd 5141 c73c
000002e0: b329 e4bd 38a2 2ebd 316c 233e 4b4d 973c
000002f0: 2484 df3c adad 0b3c 7c6f 983d 717d acbd
00000300: ebdc 9cbd c0ed 02bd 98d6 423d b73d d73d
00000310: 232b ab3d 8790 6cbb f0d6 e8bc e896 b93d
00000320: 0070 67bc 72ee 2cbd 91bf fbbd aa88 1f3d
00000330: b847 d73a 2c9b 14bd 0eb9 cf3d f0e6 a93d
00000340: 26ea a73d 7180 963d 59f8 0d3c 80a8 cabd
00000350: 592c ecbc 4ab0 3d3d c163 a83b bbfa e7bd
00000360: b676 2a3d 9eae 6abd 9bd7 6bbd 689f c9bc
00000370: 4a1a f43d 5fb9 0c3d 6e53 4b3c efb6 123d
00000380: e6f8 f13d 058a b4ba 7800 8dbd ead5 adbd
00000390: f0cd 063d 93c7 9d3d 847b c43d e783 c73d
000003a0: 9d4f 66bc 7239 6dbd 1a33 b0bc 2a87 6ebd
000003b0: 2d62 12bd d81c cb3d 2ee5 5b3c 8900 343d
000003c0: dd45 cd3c dcc8 66bd f760 db3c 6ec7 a63d
000003d0: ec03 45bd 3a23 75bd 5928 9d3d 55c6 91bd
000003e0: ebfe 943b ce20 df3d 7f3b c43d b6a7 e4bc
000003f0: 640f 54bd 83d3 2f3c 6555 95bd b989 f73d

gru.bias_ih_l0 f4 [192]
-0.077500835 -0.08783256 -0.05909894 0.116903394 -0.12940621 0.095807806 0.114273384 0.03502933
-0.1363767 0.09119386 0.045318164 -0.10431041 0.0004249793 -0.09397979 -0.05566221 0.032001227
-0.113007 -0.11638081 0.09403751 -0.12316124 -0.1147029 0.105665796 0.09509723 -0.08261258
-0.14434686 -0.09575607 -0.04255689 -0.01114141 0.057523258 0.04885772 -0.014314703 0.034153644
-0.116784014 -0.14908797 -0.09287153 -0.03335143 -0.013341125 0.07619439 -0.121708825 -0.112944536
-0.06928165 -0.09862639 -0.09615747 -0.005012974 0.07166507 0.03165279 -0.041963622 0.021029279
0.078121886 -0.008699104 0.09483762 0.04038588 -0.07240833 0.108541854 -0.00802841 -0.005168935
0.0654377 -0.09518237 -0.0132153565 -0.011788444 0.07467957 -0.07234663 -0.030317178 0.047500517
-0.15929753 -0.41062763 -0.012081674 -0.6573756 0.17240162 -0.21345733 -0.22816032 0.08596123
-0.5630273 -0.20529236 -0.30401725 -0.21623342 -0.21722972 -0.15605606 -0.10882532 0.10159814
-0.4961142 0.119922705 -0.24980336 -0.04741541 -0.1455596 -0.18004407 -0.25090986 -0.47257733
-0.11570679 -0.17856458 -0.099507205 0.0045710397 -0.16517153 -0.54624015 -0.25864014 0.13782105
-0.19806883 -0.21775497 -0.08754279 -0.19463855 -0.33582166 0.011943404 -0.29082406 -0.17313711
-0.3235022 -0.11365303 -0.07429017 -0.24917097 -0.19718294 -0.1294441 -0.17414832 -0.22932549
-0.022074766 -0.22472154 -0.38915303 -0.39653844 -0.038915094 0.01894606 -0.118135735 -0.011031712
-0.16497102 -0.21121217 -0.1953187 -0.1727596 -0.29085484 -0.31714115 -0.106775776 0.067621864
0.07786712 -0.10461129 -0.106836624 -0.039869413 -0.027163954 0.08960769 -0.06050191 0.0067651286
0.071002126 -0.03245293 0.036454517 0.14347796 -0.010277032 0.08073642 -0.047841825 0.03816301
0.07808865 -0.036299407 0.08658444 0.094741486 0.077243574 -0.027587755 -0.012506697 0.04763139
0.07535144 0.07965531 -0.011197357 -0.044034738 0.011397965 -0.08277536 -0.0033256435 0.06479191
-0.034814935 0.08067174 0.04641179 -0.02796999 0.020134343 -0.07220178 0.021469124 -0.10763239
-0.10032034 0.0068223877 -0.05448553 -0.045306172 -0.13172995 0.12097635 -0.005539672 -0.11444657
0.00902232 -0.04459631 -0.08525785 -0.072747156 0.042418703 -0.07963356 0.06374244 -0.034750365
0.0281126 0.0798707 -0.06481912 0.10925983 0.0861326 -0.011614071 0.030156996 0.05898001
00000000: c2b8 9ebd 8fe1 b3bd bb11 72bd 0c6b ef3d
00000010: 1083 04be e236 c43d 2a08 ea3d ea7a 0f3d
00000020: 55a6 0bbe d9c3 ba3d 8a9f 393d b2a0 d5bd
00000030: c2cf de39 7a78 c0bd 0ffe 63bd b813 033d
00000040: 3770 e7bd 1059 eebd bd96 c03d f63b fcbd
00000050: 5be9 eabd 4f67 d83d 56c2 c23d c930 a9bd
00000060: aacf 13be c21b c4bd 2250 2ebd 768a 36bc
00000070: 829d 6b3d 081f 483d 3788 6abc b1e4 0b3d
00000080: 752c efbd 84aa 18be 6e33 bebd 829b 08bd
00000090: bc94 5abc ce0b 9c3d 7a42 f9bd 774f e7bd
000000a0: 8ae3 8dbd a2fc c9bd 35ee c4bd e043 a4bb
000000b0: 23c5 923d 5ba6 013d 0ce2 2bbd 9845 ac3c
000000c0: 5efe 9f3d b086 0ebc 3a3a c23d aa6b 253d
000000d0: d24a 94bd 314b de3d 9889 03bc 2b60 a9bb
000000e0: 3304 863d f9ee c2bd 3985 58bc 5124 41bc
000000f0: 9af1 983d 782a 94bd bb5b f8bc e78f 423d
00000100: e41e 23be c93d d2be 37f2 45bc c449 28bf
00000110: 0d8a 303e 8f94 5abe dca2 69be 710c b03d
00000120: 8f22 10bf 2938 52be 26a8 9bbe 4b6c 5dbe
00000130: 7871 5ebe 29cd 1fbe cfdf debd b012 d03d
00000140: ae02 febe 099a f53d 74cc 7fbe a936 42bd
00000150: 930d 15be 795d 38be 4277 80be a8f5 f1be
00000160: aef7 ecbd a2d9 36be 6fca cbbd a9c8 953b
00000170: ba22 29be 65d6 0bbf 7b6c 84be f620 0d3e
00000180: 8ed2 4abe 29fb 5ebe a249 b3bd 544f 47be
00000190: d1f0 abbe 44ae 433c e4e6 94be db4a 31be
000001a0: 15a2 a5be ebc2 e8bd 7225 98bd ad26 7fbe
000001b0: 53ea 49be ff8c 04be f053 32be 4dd4 6abe
000001c0: 24d6 b4bc 671d 66be 113f c7be 1607 cbbe
000001d0: 6f65 1fbd c534 9b3c 26f1 f1bd 5bbe 34bc
000001e0: 2aee 28be 0148 58be a001 48be e5e7 30be
000001f0: edea 94be 5360 a2be 42ad dabd 557d 8a3d
00000200: cc78 9f3d 723e d6bd 29cd dabd 1c4e 23bd
00000210: f186 debc 3d84 b73d dad0 77bd 03ae dd3b
00000220: 9069 913d 5ded 04bd 5551 153d e3eb 123e
00000230: ff60 28bc 2359 a53d caf5 43bd d150 1c3d
00000240: f1ec 9f3d b0ae 14bd 2f53 b13d d307 c23d
00000250: e131 9e3d b7ff e1bc e4e8 4cbc 2219 433d
00000260: db51 9a3d 5322 a33d 1f75 37bc c55d 34bd
00000270: 88be 3a3c 2186 a9bd 0af3 59bb 9fb1 843d
00000280: 1b9a 0ebd 3a37 a53d 4a1a 3e3d 5221 e5bc
00000290: c7f0 a43c 87de 93bd 04e0 af3c 5f6e dcbd
000002a0: c074 cdbd 568e df3b 382c 5fbd f792 39bd
000002b0: 37e4 06be 73c2 f73d 2386 b5bb f762 eabd
000002c0: 5ad2 133c 9faa 36bd ab9b aebd 76fc 94bd
000002d0: 3cbf 2d3d eb16 a3bd 658b 823d 6656 0ebd
000002e0: 654c e63c 4093 a33d e3bf 84bd 9ec3 df3d
000002f0: 4a66 b03d f248 3ebc ce0b f73c 0695 713d

gru.bias_hh_l0 f4 [192]
-0.06679916 -0.23167422 -0.11553911 -0.06508556 -0.022277663 -0.12889172 -0.058708265 -0.08018625
-0.13990049 -0.11906899 -0.107076615 -0.0107426215 -0.099880435 0.08155047 -0.036056504 -0.09919417
0.011467025 -0.0035360768 -0.088320166 -0.011335035 -0.05333763 -0.060074784 -0.068806395 -0.12371614
0.045532648 0.080131054 -0.073143855 0.054831814 0.09737514 -0.071590014 -0.005378067 -0.029308997
-0.05075656 -0.13516942 -0.14363354 0.088691585 0.00887176 0.057855118 -0.056786027 0.014516764
-0.12656802 -0.02852693 -0.070323564 -0.08344368 -0.10814131 -0.058006343 0.0864161 0.055613276
-0.11471811 0.09197683 -0.12594104 -0.10678278 0.037838783 -0.10067518 0.110840075 -0.04178012
-0.046461444 0.043995943 -0.09894576 0.028823156 -0.03272676 -0.08404152 0.07998269 0.028710445
-0.09381356 -0.43133333 -0.11931244 -0.5321842 0.027518751 -0.16856465 -0.24741504 0.2561974
-0.40716967 -0.18309875 -0.1841608 -0.054068804 -0.18033461 -0.018648602 -0.05703921 0.027856747
-0.5933457 -0.024198432 -0.01148679 -0.023102416 -0.0061950036 -0.35959357 -0.2256031 -0.40725324
-0.12279243 -0.35573265 0.11115573 -0.06462549 -0.12163627 -0.51023996 -0.2902682 0.25268173
-0.15494293 -0.30093294 -0.15605266 -0.13444124 -0.29324457 -0.0819535 -0.34918064 -0.32277104
-0.3054399 -0.14736657 0.056133293 -0.18807839 -0.108414926 -0.1533115 -0.17861079 -0.19519879
-0.18167758 -0.21487859 -0.16165422 -0.19230823 0.071164794 0.108649135 -0.12622657 -0.033537585
-0.16163412 -0.37175605 -0.24161367 -0.14601722 -0.14615631 -0.3265307 -0.03742182 -0.09177867
-0.035845663 0.04937228 0.010023924 -0.11483187 -0.011873498 0.09410651 -0.09518776 0.025249464
-0.027655339 0.028875152 -0.06095107 0.12971967 -0.024029998 -0.016948273 -0.086242385 -0.06911151
-0.11605368 0.07126565 -0.085551426 -0.10713193 0.08425286 0.0027352055 0.13958287 -0.03561952
0.049000453 -0.010729568 0.029495088 -0.024784083 0.04078502 -0.061673675 -0.03082943 -0.04192533
-0.10668621 0.01835927 0.020605233 0.021917628 -0.004584602 0.013853148 0.012790171 0.03868238
-0.09673735 -0.037136756 0.12065748 0.06502648 0.03247997 -0.041665282 0.13033663 -0.0915637
0.09200953 0.12586106 0.06016651 0.023063932 0.016915245 0.0006627717 0.07030523 0.008548539
-0.07651106 0.115993336 0.03336218 -0.016392883 -0.06793625 -0.11499056 0.02073786 -0.036990073
00000000: ffcd 88bd 023c 6dbe c59f ecbd 944b 85bd
00000010: a57f b6bc 31fc 03be 1478 70bd b038 a4bd
00000020: 1342 0fbe 71da f3bd fc4a dbbd d201 30bc
00000030: 1d8e ccbd ef03 a73d fcaf 13bd 5026 cbbd
00000040: 30e0 3b3c 86bd 67bb 34e1 b4bd 95b6 39bc
00000050: 8f78 5abd fa10 76bd 5eea 8cbd e35e fdbd
00000060: 7180 3a3d c01b a43d 72cc 95bd 5397 603d
00000070: 9e6c c73d c99d 92bd 7f3a b0bb 6c19 f0bc
00000080: 1ce6 4fbd da69 0abe ac14 13be efa3 b53d
00000090: dc5a 113c 7df9 6c3d 7798 68bd b9d7 6d3c
000000a0: 0c9b 01be 4fb1 e9bc cd05 90bd 85e4 aabd
000000b0: 3179 ddbd 0f98 6dbd edfa b03d bfca 633d
000000c0: 54f1 eabd 595e bc3d b0f6 00be eeb0 dabd
000000d0: d7fc 1a3d ca2e cebd 1f00 e33d a221 2bbd
000000e0: 5b4e 3ebd 1735 343d 13a4 cabd 8a1e ec3c
000000f0: 7f0c 06bd f61d acbd f7cd a33d 2b32 eb3c
00000100: 5321 c0bd b9d7 dcbe 155a f4bd 393d 08bf
00000110: 016f e13c 369c 2cbe 5e5a 7dbe 4e2c 833e
00000120: 8b78 d0be 3d7e 3bbe a694 3cbe 4077 5dbd
00000130: a3a9 38be f4c4 98bc f2a1 69bd d533 e43c
00000140: 81e5 17bf ca3b c6bc 1733 3cbc 4741 bdbc
00000150: 75ff cabb a61c b8be 8004 67be 7f83 d0be
00000160: 997a fbbd 9722 b6be 9ea5 e33d 5e5a 84bd
00000170: 701c f9bd 169f 02bf 099e 94be 805f 813e
00000180: 5ca9 1ebe e213 9abe 45cc 1fbe f7aa 09be
00000190: 2724 96be 3dd7 a7bd cec7 b2be 3f42 a5be
000001a0: 9e62 9cbe 43e7 16be 06ec 653d 9f97 40be
000001b0: a508 debd b1fd 1cbe bfe5 36be 31e2 47be
000001c0: b009 3abe 2209 5cbe af88 25be 73ec 44be
000001d0: d9be 913d 7083 de3d 8a41 01be b55e 09bd
000001e0: 6a83 25be cf56 bebe 9369 77be 8a85 15be
000001f0: 00aa 15be 082f a7be 9f47 19bd 75f6 bbbd
00000200: e7d2 12bd 963a 4a3d 623b 243c f92c ebbd
00000210: 0f89 42bc eaba c03d cdf1 c2bd f7d7 ce3c
00000220: 738d e2bc 958b ec3c d4a7 79bd 3cd5 043e
00000230: 8fda c4bc 1bd7 8abc d99f b0bd 568a 8dbd
00000240: 8dad edbd baf3 913d 9635 afbd fc67 dbbd
00000250: c38c ac3d 2241 333b d0ee 0e3e c6e5 11bd
00000260: b3b4 483d 12cb 2fbc af9f f13c fd07 cbbc
00000270: 310e 273d 899d 7cbd 008e fcbc e5b9 2bbd
00000280: 4d7e dabd 2e66 963c 4ecc a83c 998c b33c
00000290: 6e3a 96bb 50f8 623c de8d 513c 6a71 1e3d
000002a0: 3b1e c6bd b61c 18bd 451b f73d 9a2c 853d
000002b0: b809 053d 37a9 2abd f776 053e c085 bbbd
000002c0: 7e6f bc3d b9e1 003e 2971 763d 92f0 bc3c
000002d0: d791 8a3c dbbd 2d3a 30fc 8f3d 2c0f 0c3c
000002e0: d5b1 9cbd ea8d ed3d c8a6 083d 5e4a 86bc
000002f0: 2922 8bbd 2c80 ebbd 72e2 a93c e782 17bd

gru.weight_ih_l1 f4 [192, 64]
-0.054811183 0.00692074 -0.053800065 0.092454806 0.02663234 0.038062748 -0.0863996 -0.01926727
-0.03155949 -0.016949879 -0.05026078 -0.016440446 -0.120628886 -0.06193257 -0.11342013 0.04811151
0.05797184 0.040079173 -0.08386424 0.08880422 0.11548165 0.08885629 -0.11540521 -0.0234439
0.13258693 0.02082285 0.033068653 -0.04295415 0.121751025 -0.028636912 -0.071882285 0.04787216
-0.0566657 -0.067950405 0.011430506 0.017945545 -0.025678132 -0.103251174 -0.0698811 -0.023720471
0.11725186 -0.14896214 0.038903546 0.02621834 0.024613846 0.13305487 0.13319688 -0.01718873
-0.008469567 0.003865144 0.087312356 0.0012363542 -0.09683553 0.08107627 -0.027208602 0.044710115
0.07887559 -0.046821974 0.057907674 -0.024486598 -0.08383215 0.11337104 0.1598082 0.05201845
-0.11884078 -0.13509415 0.13142431 0.008156174 0.01865046 0.088043794 -0.017885607 0.12090154
-0.033982914 -0.06035122 -0.19180183 0.08954963 0.14481387 -0.047653172 0.11026531 -0.17102431
0.061445117 0.07829805 -0.057941623 -0.08081226 -0.024894603 -0.089583226 0.13675706 -0.06822438
-0.10394986 0.07693794 -0.050536204 -0.07159243 -0.0042625046 -0.036220904 -0.038178783 0.029680567
-0.22199637 0.18923262 0.034851514 0.019124402 -0.020985262 0.09875555 -0.14425825 -0.0071893367
0.052250754 -0.036744345 0.13916211 -0.021253604 0.09170856 0.04965223 0.120699115 0.08682627
-0.0760622 0.059116695 0.0063289166 -0.03726807 -0.079507254 -0.047757708 0.022799669 -0.002601316
-0.102421865 -0.04286044 -0.0829282 -0.059523936 0.114169426 -0.11544916 -0.06859592 -0.013182953
-0.08597912 0.043547098 0.008547499 0.057617705 0.036887433 -0.08952553 -0.015861966 0.004255083
0.021565396 -0.021492375 0.019581983 -0.047237463 0.07473295 0.10894257 -0.04502698 -0.11691741
-0.08803158 -0.032888852 0.061865564 -0.061919942 0.10132957 0.104476005 0.08640461 0.09611121
-0.0064337766 0.010815733 0.0245375 0.043798894 -0.02986513 0.042470098 -0.11446312 0.10150849
-0.08710942 0.10917331 0.0094221085 -0.12688778 0.020062467 0.11653863 -0.00795138 -0.00044168194
-0.10883775 0.01497088 -0.052847814 -0.08473329 -0.1285984 -0.12706809 0.022515362 -0.07564683
-0.1283657 0.1035633 0.04110457 0.20484705 0.06681548 -0.02504514 -0.052626524 -0.10617795
0.03859793 -0.046941638 0.051053755 0.061768733 0.05182742 0.034184374 -0.091648 0.06721916
-0.10765467 -0.057183832 0.10534675 0.06660491 0.06033428 -0.06634993 0.10437423 -0.07396813
-0.08338917 0.059406556 0.117975295 0.027248401 0.072161466 -0.102030754 0.057674654 0.06686538
-0.113228686 0.103222124 -0.0334179 -0.10169884 0.009678229 0.017128972 0.05169423 -0.10457357
-0.06010572 0.03656582 0.060397994 -0.06946869 -0.0029481926 -0.027488824 -0.061637286 -0.05548851
0.08503787 0.052017387 -0.03757828 0.096921176 0.0022031309 -0.074843906 -0.11917564 -0.11399763
0.023500383 0.09366638 -0.045735527 -0.13094841 0.058044624 0.011643928 -0.16502628 -0.010067983
-0.09599951 0.13118482 0.027842293 0.028259378 0.057909157 -0.12168253 -0.14656414 -0.030190978
0.010911142 0.00433278 0.08842147 -0.024619572 -0.15062033 0.07411322 -0.1329972 -0.11098636
00000000: b181 60bd 60c7 e23b 755d 5cbd f258 bd3d
00000010: 112c da3c afe7 1b3d 46f2 b0bd 65d6 9dbc
00000020: 8644 01bd 79da 8abc 3fde 4dbd 1dae 86bc
00000030: 470c f7bd 02ad 7dbd d048 e8bd 9310 453d
00000040: e173 6d3d 0f2a 243d 04c1 abbd fdde b53d
00000050: a581 ec3d 49fa b53d 9159 ecbd 6c0d c0bc
00000060: dec4 073e ae94 aa3c ff72 073d b1f0 2fbd
00000070: 9a58 f93d f597 eabc 0537 93bd 9915 443d
00000080: 4b1a 68bd 9529 8bbd 0447 3b3c 8902 933c
00000090: f25a d2bc 5a75 d3bd d21d 8fbd 6f51 c2bc
000000a0: be21 f03d 8889 18be 5359 1f3d d8c7 d63c
000000b0: faa2 c93c 893f 083e c364 083e 61cf 8cbc
000000c0: f0c3 0abc 5b4e 7d3b d2d0 b23d 2a0d a23a
000000d0: b551 c6bd 510b a63d 93e4 debc f421 373d
000000e0: 8689 a13d 66c8 3fbd 9930 6d3d 1e98 c8bc
000000f0: 31b0 abbd 132f e83d c3a4 233e 4c11 553d
00000100: cb62 f3bd 1f56 0abe 1894 063e 79a1 053c
00000110: d9c8 983c 4e50 b43d d684 92bc 3a9b f73d
00000120: ab31 0bbd d732 77bd b367 44be cc65 b73d
00000130: 164a 143e f92f 43bd c7d2 e13d ff20 2fbe
00000140: e0ad 7b3d ba5a a03d 3254 6dbd e680 a5bd
00000150: c4ef cbbc 6977 b7bd 0b0a 0c3e 39b9 8bbd
00000160: aae3 d4bd a491 9d3d 0dff 4ebd 0d9f 92bd
00000170: 7bac 8bbb 5f5c 14bd 5b61 1cbd a924 f33c
00000180: 0453 63be 32c6 413e 76c0 0e3d c7aa 9c3c
00000190: 49e9 abbc 5a40 ca3d 6fb8 13be 8794 ebbb
000001a0: e304 563d 3d81 16bd 8380 0e3e 0a1c aebc
000001b0: b3d1 bb3d 2360 4b3d 1931 f73d f9d1 b13d
000001c0: 80c6 9bbd 5924 723d cd62 cf3b 67a6 18bd
000001d0: b3d4 a2bd 969d 43bd 5fc6 ba3c d77a 2abb
000001e0: 8ec2 d1bd 6e8e 2fbd 43d6 a9bd 5fcf 73bd
000001f0: a9d1 e93d 9c70 ecbd 057c 8cbd 50fd 57bc
00000200: d215 b0bd 715e 323d cf0a 0c3c 8b00 6c3d
00000210: 4717 173d 2959 b7bd f4f0 81bc 396e 8b3b
00000220: eaa9 b03c c710 b0bc 656a a03c 127c 41bd
00000230: 970d 993d 481d df3d 366e 38bd 6572 efbd
00000240: e749 b4bd 76b6 06bd bf66 7d3d c49f 7dbd
00000250: e185 cf3d 84f7 d53d e6f4 b03d f4d5 c43d
00000260: 6ed2 d2bb 7934 313c de02 c93c 7866 333d
00000270: b8a7 f4bc 20f5 2d3d a46b eabd afe3 cf3d
00000280: 6c66 b2bd 4296 df3d 305f 1a3c dfee 01be
00000290: 0b5a a43c ceab ee3d 8146 02bc 8c91 e7b9
000002a0: 54e6 debd 6c48 753c f376 58bd a688 adbd
000002b0: 4daf 03be 231e 02be 2372 b83c baec 9abd
000002c0: 4c72 03be ff18 d43d 445d 283d 6dc3 513e
000002d0: 8ed6 883d 772b cdbc e98e 57bd d373 d9bd
000002e0: dd18 1e3d e045 40bd be1d 513d 3601 7d3d
000002f0: fd48 543d ea04 0c3d f2b1 bbbd 33aa 893d
00000300: 0d7a dcbd 9839 6abd 09c0 d73d 2868 883d
00000310: 1421 773d 79e2 87bd 28c2 d53d 9a7c 97bd
00000320: f1c7 aabd 4a54 733d 089d f13d 0a38 df3c
00000330: 64c9 933d 80f5 d0bd 423c 6c3d b7f0 883d
00000340: 71e4 e7bd 1f66 d33d 35e1 08bd 7b47 d0bd
00000350: 6f91 1e3c 0f52 8c3c 54bd 533d ab2a d6bd
00000360: 6a31 76bd 0bc6 153d e363 773d 9a45 8ebd
00000370: 7736 41bb 3e30 e1bc 6177 7cbd eb47 63bd
00000380: 5628 ae3d 2f10 553d afeb 19bd 9c7e c63d
00000390: 6762 103b c347 99bd 5c12 f4bd 9777 e9bd
000003a0: e083 c03c 29d4 bf3d 2d55 3bbd 5717 06be
000003b0: 33c0 6d3d 2cc6 3e3c a6fc 28be 2ef4 24bc
000003c0: 649b c4bd 5055 063e 8515 e43c 3680 e73c
000003d0: 2732 6d3d b134 f9bd e914 16be 1253 f7bc
000003e0: a6c4 323c fef9 8d3b 5116 b53d fcae c9bc
000003f0: 373c 1abe acc8 973d 6b30 08be d14c e3bd

gru.weight_hh_l1 f4 [192, 64]
-0.13253234 -0.049542844 -0.07725895 0.03776743 0.09507723 0.025854042 0.08072231 -0.080375284
0.03587727 -0.025073987 -0.120268784 -0.0386719 0.061743893 0.08728829 0.102625 -0.080127336
-0.016752686 -0.12706475 0.05089967 -0.09225081 0.03279795 0.08841507 -0.076801635 -0.053011242
0.10242721 0.054878842 -0.017832976 0.066431455 -0.002228683 -0.019425448 -0.09968255 -0.08649225
0.082205445 0.019540397 -0.15915628 0.13400054 0.03870166 -0.09991504 0.037684128 -0.099540785
0.006564483 0.080173306 0.03235704 -0.032940306 0.07718534 0.08441893 -0.014986564 0.07388859
0.028994182 0.0743351 0.016433112 0.040515464 0.1108299 0.11821144 -0.009239882 0.09026626
-0.038811717 0.040560015 -0.059112195 0.08364171 0.0224888 0.038931634 -0.022254566 -0.061173037
-0.0113996 -0.026428632 0.0712179 -0.0048368266 -0.13703427 0.038528096 0.0030458681 0.0519716
0.11791114 0.033373978 0.0062668393 0.058988497 0.051512748 -0.01763834 -0.05328505 -0.073460355
0.007258548 0.019437348 0.0085035665 -0.15984131 -0.019292839 0.0775038 0.027230188 0.19029185
0.036424566 0.105244994 -0.02346764 -0.0069414773 -0.017615417 -0.008298196 -0.08358309 0.10427922
-0.1508358 0.021016631 -0.0052551255 -0.08490134 -0.09014618 0.04060661 0.013899627 -0.04017384
0.014223834 0.047128078 0.029934479 -0.06420421 0.10852927 -0.09725463 0.11324728 0.16448836
0.019338964 0.17208575 -0.0068861665 -0.002995924 0.13324307 0.041935634 -0.026048658 -0.14392062
-0.044680215 -0.07698938 -0.027421469 0.14852594 -0.025201507 0.047473937 0.08173885 0.09673806
0.04674452 0.09676236 -0.08751187 0.0249276 -0.049165457 -0.02251246 0.16644292 0.030810436
-0.031090064 0.08947997 -0.034955803 -0.029209763 -0.04125257 -0.07477251 -0.03653529 -0.09174769
0.07125936 -0.11351256 -0.1330548 -0.1247939 -0.10612738 -0.13196783 0.089288846 -0.06710426
-0.015946945 0.0074737575 0.0868839 0.101437755 0.057204142 -0.09956117 0.04536353 -0.09341111
-0.12858553 0.0026916177 -0.074292645 0.071395226 -0.10351418 0.069665775 0.05386537 -0.055021275
0.041706223 0.0025300172 0.065972045 -0.006128899 0.0734208 -0.07003894 -0.02520357 0.12390744
-0.053566653 -0.015466942 0.029985337 -0.124146454 -0.09072252 -0.02447632 0.10461256 0.059117258
0.023080925 -0.00267328 -0.1204205 -0.037175957 -0.10836391 0.019643253 0.056715634 0.057447392
0.1059403 -0.025406163 0.11453102 -0.08779989 0.022139952 0.071000814 0.068343826 0.017997375
-0.09560115 0.03085956 -0.10062027 0.08576934 0.02067898 0.029118529 -0.008809165 -0.076869324
-0.018534977 0.028971624 -0.077015996 0.03531559 -0.0783185 0.03672153 0.04717901 -0.017150998
0.103565946 0.08792685 0.029209763 0.00059036905 -0.06439749 -0.123466685 -0.1281806 -0.08170717
-0.06617017 -0.059697397 0.06340511 0.058714204 0.01009201 -0.057322647 0.05442002 -0.11039983
0.07051202 -0.08602763 -0.09834146 0.07586965 -0.08774965 0.11617828 -0.020027764 -0.10154443
-0.030695938 -0.022161078 0.042518884 0.03215415 -0.05908018 0.070222974 -0.13534908 -0.08378312
0.023380067 -0.14176461 0.041084208 0.0212053 -0.050403774 0.02341981 0.0037383726 -0.03749172
00000000: 8fb6 07be 70ed 4abd f139 9ebd 05b2 1a3d
00000010: dab7 c23d dbcb d33c bd51 a53d cc9b a4bd
00000020: 0bf4 123d f667 cdbc 7b4f f6bd 6d66 1ebd
00000030: 2ae7 7c3d 34c4 b23d 0e2d d23d cd19 a4bd
00000040: ee3c 89bc 431d 02be 2c7c 503d feed bcbd
00000050: 2557 063d f612 b53d 2d4a 9dbd 5122 59bd
00000060: 5bc5 d13d a3c8 603d 7616 92bc 370d 883d
00000070: 190f 12bb 1e22 9fbc 5d26 ccbd d922 b1bd
00000080: 545b a83d 2f13 a03c ddf9 22be 7037 093e
00000090: a285 1e3d 42a0 ccbd ac5a 1a3d 0adc cbbd
000000a0: e01a d73b e731 a43d d188 043d 6aec 06bd
000000b0: 5913 9e3d d5e3 ac3d 358a 75bc e752 973d
000000c0: 3585 ed3c 003d 983d bc9e 863c 8bf3 253d
000000d0: c9fa e23d d718 f23d e062 17bc 84dd b83d
000000e0: 09f9 1ebd 4222 263d a11f 72bd 584c ab3d
000000f0: 6f3a b83c c776 1f3d 354f b6bc 9490 7abd
00000100: 63c5 3abc dc80 d8bc b1da 913d 3e7e 9ebb
00000110: b652 0cbe a3cf 1d3d 309d 473b 2ce0 543d
00000120: 657b f13d 27b3 083d 0f5a cd3b ec9d 713d
00000130: 08ff 523d 487e 90bc 6d41 5abd 6272 96bd
00000140: 1dd9 ed3b 133b 9f3c 8b52 0b3c 71ad 23be
00000150: 040c 9ebc 50ba 9e3d d811 df3c dedb 423e
00000160: ed31 153d b08a d73d 353f c0bc 5575 e3bb
00000170: 354e 90bc 28f5 07bc 9c2d abbd 5890 d53d
00000180: b374 1abe 122b ac3c 3033 acbb c1e0 adbd
00000190: 8f9e b8bd 1e53 263d 43bb 633c 538d 24bd
000001a0: 150b 693c 5f09 413d 2739 f53c 7f7d 83bd
000001b0: 9844 de3d 6f2d c7bd 31ee e73d a36f 283e
000001c0: bf6c 9e3c 3f37 303e 5aa5 e1bb 4457 44bb
000001d0: df70 083e b3c4 2b3d ff63 d5bc ed5f 13be
000001e0: 9a02 37bd 9cac 9dbd fda2 e0bc 2f17 183e
000001f0: 6473 cebc 0874 423d b366 a73d 9b1e c63d
00000200: 2f77 3f3d 582b c63d 6c39 b3bd f734 cc3c
00000210: b861 49bd 0d6c b8bc 0370 2a3e 2b66 fc3c
00000220: 97b0 febc 4641 b73d d12d 0fbd 5049 efbc
00000230: 74f8 28bd 5422 99bd 07a6 15bd 37e6 bbbd
00000240: 6df0 913d 4679 e8bd 843f 08be f293 ffbd
00000250: 5059 d9bd 9322 07be 12dd b63d f56d 89bd
00000260: 2ba3 82bc 6ce6 f43b 30f0 b13d 99be cf3d
00000270: e44e 6a3d bae6 cbbd 1ccf 393d 534e bfbd
00000280: edab 03be da65 303b be26 98bd a937 923d
00000290: 3eff d3bd eeac 8e3d efa1 5c3d fd5d 61bd
000002a0: 25d4 2a3d a5ce 253b 5a1c 873d eed4 c8bb
000002b0: a55d 963d 9370 8fbd b877 cebc 2fc3 fd3d
000002c0: b568 5bbd 0f69 7dbc cfa3 f53c 7f40 febd
000002d0: bbcc b9bd 9082 c8bc 1c3f d63d f024 723d
000002e0: 3514 bd3c 3232 2fbb 069f f6bd d145 18bd
000002f0: e6ed ddbd e3ea a03c a74e 683d f54d 6b3d
00000300: 3af7 d83d 9620 d0bc 3d8f ea3d 6ed0 b3bd
00000310: d85e b53c e068 913d d9f7 8b3d 3b6f 933c
00000320: 89ca c3bd 30cd fc3c 0012 cebd d6a7 af3d
00000330: f766 a93c fb89 ee3c 5154 10bc aa6d 9dbd
00000340: aad6 97bc e655 ed3c 90ba 9dbd 15a7 103d
00000350: 7365 a0bd 5169 163d c73e 413d 4080 8cbc
00000360: 621a d43d fe12 b43d 5049 ef3c ffc2 1a3a
00000370: d5e2 83bd 1adc fcbd c641 03be 1756 a7bd
00000380: 3a84 87bd 4285 74bd 8ada 813d 4e7e 703d
00000390: f558 253c 27cb 6abd 87e7 5e3d 4e19 e2bd
000003a0: 9b68 903d 412f b0bd 3f67 c9bd 8c61 9b3d
000003b0: 17b6 b3bd e1ee ed3d 4411 a4bc 87f6 cfbd
000003c0: 0c76 fbbc 268b b5bc 4828 2e3d 12b4 033d
000003d0: 0ffe 71bd 10d1 8f3d f398 0abe 7c96 abbd
000003e0: 8e87 bf3c be2a 11be ea47 283d bdb6 ad3c
000003f0: 3074 4ebd e7da bf3c 7cff 743b eb90 19bd

gru.bias_ih_l1 f4 [192]
-0.09219811 -0.095454656 -0.0766103 -0.061266482 0.10490467 0.03731197 0.040160194 0.05047931
0.04627363 -0.052171424 0.0688911 -0.12061364 -0.031018086 -0.1267035 0.018161908 0.04110058
0.030294526 0.06995504 0.03752653 -0.08718541 -0.03081873 0.011423926 -0.07565213 0.066030756
-0.09146304 0.010734585 0.016451623 -0.040368985 0.026039233 0.11484556 0.0025659231 -0.10029796
0.022109216 -0.008134383 0.029307434 0.06585464 -0.06950666 -0.007848176 -0.08616847 -0.10230014
-0.080063306 -0.005860269 0.028110085 -0.1368024 0.091112025 0.0030597884 0.009566186 -0.10041791
-0.01881726 -0.014224659 0.08630485 -0.07345487 0.08649441 0.050937913 -0.080676734 -0.11574919
-0.06338599 -0.122260034 0.012221743 -0.07189244 -0.052688923 0.012662432 -0.052388582 0.022177402
-0.653763 0.07910569 -0.4024475 -0.3318657 -0.46369871 -0.15315984 -0.43792495 -0.12563217
-0.36501056 -0.34775513 -0.21135752 -0.21095462 -0.05770306 -0.30923048 -0.040167097 0.06144153
-0.042312946 -0.06699246 -0.41984653 -0.31542715 -0.2536809 -0.21082914 -0.1548424 -0.3298814
-0.6942061 -0.11593416 -0.3314566 -0.3363802 0.0038702947 -0.45612454 -0.09326956 -0.068431966
-0.38458708 -0.1933276 -0.12663285 -0.28465873 0.053755008 -0.3179172 -0.16205457 -0.21707396
-0.33953962 -0.030723896 -0.3543148 -0.7008102 0.012467009 0.038555134 -0.014873043 -0.050991554
-0.10181414 -0.12977828 -0.6247468 -0.39344686 -0.27961436 -0.02833278 -0.5042184 -0.21840455
-0.26317012 0.06598884 -0.092323005 -0.23887287 -0.36515868 -0.036773596 -0.37932432 -0.024017245
-0.09342192 0.0073265503 0.044205345 0.047034577 0.019066377 0.099596225 -0.014990179 -0.08714419
0.09192213 -0.12372723 -0.083105125 0.06921656 -0.014653322 0.024608046 0.0957723 0.07884668
0.1042611 0.103705496 -0.10502226 -0.005358449 -0.08274246 -0.10715672 -0.09685843 0.045724794
-0.09084296 -0.043318506 -0.089820616 -0.05414425 -0.10290315 0.0028270094 0.056032315 -0.009558902
0.03267373 -0.08511963 -0.07023785 -0.05352906 0.05687295 0.043316804 -0.0395647 -0.021165015
-0.031218406 0.0013498241 0.009868666 -0.0136445295 0.10592404 -0.066962905 0.05298054 -0.10970225
-0.060416393 -0.08357205 -0.08929148 0.009997788 -0.105474845 -0.10280999 0.073392764 0.07371186
0.09956621 0.073534675 -0.052710783 -0.11627092 0.010472253 -0.065334715 0.048944224 0.08114969
00000000: 5dd2 bcbd bb7d c3bd dce5 9cbd 90f2 7abd
00000010: 42d8 d63d 70d4 183d 047f 243d 65c3 4e3d
00000020: 6b89 3d3d b4b1 55bd c716 8d3d 4904 f7bd
00000030: a419 febc 90be 01be 48c8 943c 1559 283d
00000040: 3a2c f83c 9744 8f3d 6bb5 193d 448e b2bd
00000050: 9077 fcbc 6b2b 3b3c 81ef 9abd 223b 873d
00000060: f950 bbbd 1de0 2f3c 8ec5 863c f359 25bd
00000070: 3b50 d53c 2634 eb3d 0c29 283b 0469 cdbd
00000080: 631e b53c 1346 05bc 2516 f03c ccde 863d
00000090: 8259 8ebd a395 00bc 1879 b0bd bc82 d1bd
000000a0: 3bf8 a3bd 8007 c0bb 1f47 e63c ee15 0cbe
000000b0: f198 ba3d bb86 483b 7ebb 1c3c e8a7 cdbd
000000c0: a826 9abc 8b0e 69bc 99c0 b03d 826f 96bd
000000d0: fb23 b13d 46a4 503d d839 a5bd e90d edbd
000000e0: 84d0 81bd 7863 fabd b53d 483c 583c 93bd
000000f0: 57d0 57bd 1776 4f3c 6995 56bd 62ad b53c
00000100: 035d 27bf 2a02 a23d 990d cebe 4dea a9be
00000110: eb69 edbe efd5 1cbe b337 e0be b8a5 00be
00000120: aae2 babe f60c b2be 1b6e 58be 7d04 58be
00000130: 0b5a 6cbd 7553 9ebe 4186 24bd 1daa 7b3d
00000140: 5750 2dbd 5833 89bd 20f6 d6be ab7f a1be
00000150: 77e2 81be 98e3 57be 028f 1ebe 37e6 a8be
00000160: 7eb7 31bf e46e edbd aeb4 a9be 073a acbe
00000170: c5a4 7d3b 2889 e9be 1c04 bfbd 0f26 8cbd
00000180: 99e8 c4be acf7 45be 0bac 01be cabe 91be
00000190: 362e 5c3d 0bc6 a2be a2f1 25be a348 5ebe
000001a0: 23d8 adbe aeb0 fbbc c068 b5be 4c68 33bf
000001b0: 6d42 4c3c fdeb 1d3d 10ae 73bc 85dc 50bd
000001c0: ef83 d0bd 99e4 04be 68ef 1fbf de71 c9be
000001d0: 9d29 8fbe 251a e8bc 7514 01bf 71a5 5fbe
000001e0: 3cbe 86be 2825 873d d813 bdbd 179b 74be
000001f0: 14f6 babe e99f 16bd cc36 c2be d0bf c4bc
00000200: fe53 bfbd 8f13 f03b aa10 353d 54a7 403d
00000210: 1731 9c3c 1bf9 cb3d 5e99 75bc a778 b2bd
00000220: ab41 bc3d b464 fdbd 0533 aabd 69c1 8d3d
00000230: 7d14 70bc d096 c93c 4524 c43d 5e7a a13d
00000240: d886 d53d 8c63 d43d e915 d7bd ee95 afbb
00000250: e174 a9bd fb74 dbbd b65d c6bd ec49 3b3d
00000260: e00b babd bf6e 31bd dff3 b7bd 5cc6 5dbd
00000270: e3be d2bd 5945 393b 2482 653d f19c 1cbc
00000280: e4d4 053d 3353 aebd ddd8 8fbd 4a41 5bbd
00000290: 9cf3 683d f66c 313d 980e 22bd 4162 adbc
000002a0: bebd ffbc 95ec b03a 2fb0 213c 4e8d 5fbc
000002b0: b4ee d83d d923 89bd 1f02 593d 93ab e0bd
000002c0: 2e77 77bd d327 abbd 74de b6bd c3cd 233c
000002d0: 3203 d8bd 0b8e d2bd f24e 963d 3ef6 963d
000002e0: 5ee9 cb3d 5999 963d 43e7 57bd 731f eebd
000002f0: d093 2b3c 35ce 85bd bd79 483d cf31 a63d

gru.bias_hh_l1 f4 [192]
0.07619236 -0.045066938 -0.07309965 0.053418007 -0.025033765 0.079585634 0.094749436 -0.087514706
0.021159137 -0.1376157 -0.037381742 -0.025558123 -0.026531434 -0.058564708 -0.048841186 0.06885247
0.071199186 0.09557135 -0.08543303 0.052191403 -0.14638919 0.046242595 -0.08492174 -0.014045813
-0.04004133 -0.051719077 -0.027502153 -0.24505167 0.0531309 -0.0738693 -0.1436886 0.08386135
-0.12703843 0.04163036 0.11473308 -0.06331539 0.00559171 -0.0754894 0.03496058 0.006274989
-0.08352576 0.009960102 -0.0854783 -0.12490441 0.002321454 -0.056039672 -0.19701272 -0.00032244966
0.0036339068 -0.09154183 -0.05920987 0.11339508 -0.07076055 -0.1355589 0.06863307 -0.06492003
-0.012902725 -0.030571196 0.0043942723 -0.17608154 -0.10557875 0.10817365 -0.03282064 0.01912736
-0.81231165 0.18524261 -0.23320886 -0.3129646 -0.5315556 -0.03033248 -0.30699316 -0.033663154
-0.23585103 -0.40926397 -0.3414259 -0.25084454 0.022985803 -0.3592359 -0.012012549 -0.022608105
-0.060132913 -0.14866875 -0.50750554 -0.44822848 -0.39378825 -0.07754733 0.048487734 -0.21498352
-0.5909222 -0.1433775 -0.4582497 -0.4925407 0.003899794 -0.50855154 -0.053084224 0.1485591
-0.32928723 -0.020745814 -0.21379429 -0.16897662 0.004248274 -0.17269127 -0.15815614 -0.36223468
-0.29366198 -0.15576401 -0.4013668 -0.5377443 -0.10313802 -0.0010063355 -0.076655746 -0.24586797
-0.20602353 -0.37018043 -0.54934925 -0.3652155 -0.29567352 -0.02367656 -0.50073665 -0.41684228
-0.08313496 0.10624383 0.01617459 -0.3838101 -0.38286316 0.070180565 -0.39756304 0.055679597
0.07342831 0.096035846 -0.12644589 -0.021950962 0.107191555 0.10016424 0.054965615 0.08655572
0.06794434 0.051235612 -0.0073181386 0.015891101 -0.017451541 0.027104406 0.052577298 0.009203819
-0.11832379 0.10720594 -0.055956393 -0.04888499 0.011826828 0.100569956 0.08651039 -0.12426007
-0.050097447 -0.020724775 0.1168238 0.013785207 0.054836065 0.012215756 -0.08139385 -0.102032326
0.11499623 0.02931706 -0.05003237 0.08123512 0.07231604 0.056256782 -0.09107923 0.11940938
0.00032413687 0.059228096 -0.05701143 -0.057503223 0.008997026 -0.12810524 0.0767597 0.10905707
0.0040374985 0.038084682 -0.10775238 0.020785877 -0.0039929417 -0.0017991823 0.10021783 0.1071255
0.09471058 0.058816537 -0.10786049 0.050736647 -0.04730241 -0.07511151 -0.054137815 0.051295355
00000000: bd0a 9c3d 1c98 38bd 45b5 95bd d7cc 5a3d
00000010: 9c13 cdbc cbfd a23d fe0b c23d e93a b3bd
00000020: ed55 ad3c 21eb 0cbe 991d 19bd 455f d1bc
00000030: 7358 d9bc 8ce1 6fbd b20d 48bd 8602 8d3d
00000040: e1d0 913d e9ba c33d 83f7 aebd a7c6 553d
00000050: 0ce7 15be e068 3d3d 73eb adbd 6920 66bc
00000060: 6102 24bd 62d7 53bd 324c e1bc d3ee 7abe
00000070: c99f 593d ca48 97bd 1b23 13be 80bf ab3d
00000080: 5d16 02be 9984 2a3d 2df9 ea3d 80ab 81bd
00000090: aa3a b73b 309a 9abd d332 0f3d 6c9e cd3b
000000a0: 8e0f abbd b22f 233c 3f0f afbd e2cd ffbd
000000b0: 8923 183b db89 65bd b4bd 49be 760e a9b9
000000c0: d726 6e3b 487a bbbd 0c86 72bd ae3b e83d
000000d0: e8ea 90bd f4cf 0abe 7f8f 8c3d cbf4 84bd
000000e0: f365 53bc 7270 fabc d4fd 8f3b b84e 34be
000000f0: ac39 d8bd 268a dd3d ef6e 06bd fbb0 9c3c
00000100: a8f3 4fbf 3db0 3d3e 4ece 6ebe e53c a0be
00000110: 0714 08bf d27b f8bc 352e 9dbe 60e2 09bd
00000120: ef82 71be 0c8b d1be 60cf aebe b26e 80be
00000130: b94c bc3c c5ed b7be 48d0 44bc a234 b9bc
00000140: ee4d 76bd 9f3c 18be e2eb 01bf 347e e5be
00000150: 9d9e c9be 22d1 9ebd 139b 463d a424 5cbe
00000160: ad46 17bf 8dd1 12be b49f eabe 4b2e fcbe
00000170: b093 7f3b 6f30 02bf d86e 59bd e01f 183e
00000180: 5698 a8be 20f3 a9bc e4ec 5abe 3508 2dbe
00000190: 1b35 8b3b fbd5 30be aff3 21be d376 b9be
000001a0: dd5a 96be 9a80 1fbe f37f cdbe 9ca9 09bf
000001b0: 073a d3bd 04e7 83ba b0fd 9cbd d0c4 7bbe
000001c0: d5f7 52be 4a88 bdbe 27a2 0cbf 87fd babe
000001d0: 8562 97be 58f5 c1bc 4730 00bf 5a6c d5be
000001e0: a942 aabd 5d96 d93d 9380 843c c282 c4be
000001f0: a406 c4be d4ba 8f3d 628d cbbe 4a10 643d
00000200: 9561 963d 71ae c43d 087b 01be 81d2 b3bc
00000210: 3f87 db3d e922 cd3d a023 613d 2044 b13d
00000220: 6726 8b3d 6fdc 513d ffcc efbb 0e2e 823c
00000230: 89f6 8ebc 0f0a de3c 4b5b 573d 9dcb 163c
00000240: be53 f2bd ca8e db3d 8832 65bd a13b 48bd
00000250: 50c5 413c 9ff7 cd3d 5c2c b13d 107c febd
00000260: fb32 4dbd 01c7 a9bc 5141 ef3d 59db 613c
00000270: c89b 603d 9824 483c d2b1 a6bd 53f6 d0bd
00000280: 2583 eb3d 552a f03c beee 4cbd 995e a63d
00000290: 6f1a 943d 836d 663d bf87 babd e88c f43d
000002a0: eaf0 a939 2999 723d d184 69bd 8088 6bbd
000002b0: 4368 133c 052e 03be 3134 9d3d 5059 df3d
000002c0: fe4c 843b affe 1b3d 48ad dcbd 2547 aa3c
000002d0: 39d7 82bb 8ad2 ebba 013f cd3d 9d64 db3d
000002e0: 9ff7 c13d 9ce9 703d f6e5 dcbd 3bd1 4f3d
000002f0: 2cc0 41bd 10d4 99bd 9dbf 5dbd 141b 523d
