rnn_model.pth (torch, 8860 bytes, 6 tensors)

rnn.weight_ih_l0 f4 [20, 5]
0	0xbe0da805	-0.13833626
1	0x3e5c5fdc	0.21520942
2	0xbdbe97de	-0.0930631
3	0x3dfac5f1	0.122447856
4	0xbdcbf197	-0.09958189
5	0x3dda9e64	0.10674742
6	0xbd2b75e2	-0.04186047
7	0x3b1a9784	0.0023588846
8	0xbcca3a06	-0.02468587
9	0xbe60c565	-0.219503
10	0x3e8d756a	0.27628642
11	0x3e397a32	0.1811302
12	0x3e0441bd	0.12915702
13	0x3e84483e	0.25836366
14	0x3dbbde12	0.09173216
15	0x3e898d19	0.2686546
16	0x3c942ac0	0.018086791
17	0x3e550d91	0.20805956
18	0x3e95d2fa	0.29262525
19	0xbe07274f	-0.13198589
20	0xbe0c6a71	-0.13712479
21	0x3e686538	0.22694862
22	0x3e14be1d	0.14525647
23	0x3e6deb70	0.23234344
24	0xbd319f15	-0.043364603
25	0xbe1c9309	-0.15290464
26	0xbae58122	-0.0017509798
27	0xbdbd5bf4	-0.09246054
28	0xbcf0e2c9	-0.029405015
29	0xbd21ee70	-0.039534032
30	0xbda45fa6	-0.08026056
31	0xbde555b1	-0.11197985
32	0x3de69291	0.11258424
33	0xbe1255e8	-0.14290583
34	0x3df8b85b	0.12144538
35	0x3de17a1e	0.1100962
36	0x3e4bd41d	0.19905134
37	0x3e6ddf97	0.23229824
38	0x3d4c560f	0.04988676
39	0x3d4c5c4e	0.049892716
40	0xbe39ef77	-0.18157755
41	0xbd1084eb	-0.03528301
42	0xbe37d4ce	-0.17952272
43	0xbe4d3094	-0.20038062
44	0x3e584ee9	0.21123852
45	0x3e417feb	0.18896453
46	0x3e8e61bd	0.27808943
47	0x3e83da4a	0.2575248
48	0xbcb77740	-0.02239573
49	0x3e031bdf	0.128036
50	0xbd4dfe41	-0.050291304
51	0xbdca344d	-0.09873257
52	0xbcf3d474	-0.029764391
53	0x3e161aeb	0.14658706
54	0x3e096104	0.13415915
55	0x3e4f3b84	0.20237547
56	0x3dd53f86	0.10412507
57	0x3e1e93a6	0.15486011
58	0x3deeb075	0.1165475
59	0xbddcde3e	-0.10784577
60	0x3d93d8f3	0.07219114
61	0xbc91a936	-0.017780881
62	0x3cc92a1c	0.024556212
63	0x3dea2582	0.11432935
64	0x3e41c025	0.18920954
65	0x3bc41665	0.005984115
66	0xbe6d82e0	-0.23194456
67	0x3e112b98	0.14176786
68	0x3d134c69	0.035961542
69	0xbd6bb2b8	-0.057543486
70	0xbd45d8b8	-0.048302382
71	0xbce6fe0b	-0.028197309
72	0x3e3efb80	0.18650627
73	0x3dc552f4	0.09634963
74	0xbd809eaf	-0.062802665
75	0x3dd31a6c	0.10307774
76	0xbe46c781	-0.19412042
77	0xbce6964b	-0.028147837
78	0xbe35a72d	-0.17739554
79	0x3e546200	0.20740509
80	0x3d260d0d	0.04053979
81	0xbe5a2f24	-0.21307045
82	0x3d36f9a8	0.044671685
83	0x3dcecbbf	0.10097455
84	0xbc270f98	-0.010196589
85	0xbe3699bb	-0.17832081
86	0xbe5fae8b	-0.21843927
87	0xbe5eb156	-0.21747336
88	0xbdf119dd	-0.11772511
89	0xbd53285a	-0.051552154
90	0xbe0853dd	-0.13313241
91	0x3d16cbde	0.036815517
92	0xbdb6d18c	-0.08926687
93	0x3d3a5597	0.04549178
94	0x3e1071a7	0.14105855
95	0x3cf8f22e	0.030388918
96	0x3e28d36c	0.16486901
97	0x3e725cae	0.23668167
98	0x3e3c90d3	0.18414621
99	0xbe45be37	-0.19310842

rnn.weight_hh_l0 f4 [20, 20]
0	0x3d4f33d0	0.05058652
1	0xbd4e712b	-0.050400894
2	0x3dcc0b75	0.09963123
3	0x3e32d803	0.17465214
4	0x3e016870	0.12637496
5	0x3d89a461	0.06720806
6	0xbe426cb6	-0.18986782
7	0x3e04df0f	0.12975715
8	0xbe509d3f	-0.20372485
9	0x3d83b8d5	0.06431738
10	0xbe262245	-0.1622401
11	0xbc43670f	-0.011926427
12	0xbe04554e	-0.12923166
13	0x3e3e7efb	0.18603127
14	0x3df35233	0.11880913
15	0x3e633445	0.22187908
16	0x3e00c2a2	0.12574247
17	0xbe872c5f	-0.2640104
18	0xbda7ff42	-0.082029834
19	0x3e558e1b	0.2085499
20	0xbe1b4125	-0.1516157
21	0xbe237a8b	-0.15964715
22	0xbd5102ad	-0.051027942
23	0x3e2fe755	0.1717809
24	0xbd949385	-0.072546996
25	0x3e20ea11	0.15714289
26	0xbda4117a	-0.08011146
27	0xbdd834a5	-0.10556916
28	0xbe5fe8e7	-0.21866189
29	0xbdce8313	-0.10083594
30	0xbe121647	-0.1426631
31	0xbe189453	-0.14900331
32	0xbd3ad2f2	-0.04561133
33	0xbdb606ea	-0.088880375
34	0xbd859120	-0.06521821
35	0xbc179cc6	-0.009253686
36	0xbcc21d6c	-0.02369567
37	0x3e07b4fa	0.13252631
38	0xbe4e8a61	-0.20169975
39	0x3e1f11b7	0.15534101
40	0x3d10ad8a	0.03532175
41	0xbd4c08e6	-0.049813174
42	0xbdb13f25	-0.08654622
43	0xbe033d6e	-0.12816402
44	0xbda72be2	-0.08162667
45	0x3e5b891c	0.21439022
46	0x3c79c931	0.015245722
47	0x3e03ab35	0.12858279
48	0x3db2d623	0.087322496
49	0x3c84e50b	0.016222497
50	0xbc695fd3	-0.014244038
51	0xbdfa349d	-0.122170664
52	0xbd000ffe	-0.03126525
53	0xbe57b317	-0.21064411
54	0x3de6b08a	0.11264141
55	0x3d29b918	0.041436285
56	0x3e45778d	0.19283886
57	0x3ccdb6a7	0.02511151
58	0xbdcf5ab7	-0.10124724
59	0x3e39cd0a	0.18144622
60	0x3e945946	0.2897436
61	0xbd228fad	-0.0396878
62	0xbc48c582	-0.012254121
63	0x3e621dc8	0.22081673
64	0xbe023b2a	-0.12717882
65	0x3c8381a0	0.016053021
66	0xbe212ed9	-0.15740527
67	0x3e11cb53	0.14237718
68	0x3d388fa4	0.04505886
69	0x3e7596e6	0.23983344
70	0xbde46e99	-0.11153907
71	0x3e4cbd19	0.1999401
72	0xbd4821f5	-0.04886051
73	0xbd1a5318	-0.0376769
74	0xbdbb01b5	-0.09131185
75	0xbe2cdf56	-0.16882071
76	0x3e38cb7f	0.18046378
77	0xbe157e43	-0.14598946
78	0x3e54ae2e	0.2076957
79	0x3e46ef23	0.19427161
80	0x3d212309	0.039340053
81	0xbe1544ab	-0.14576976
82	0xbdcc5a66	-0.0997818
83	0xbdcde008	-0.10052496
84	0x3e748c5c	0.23881668
85	0xbdab2bb5	-0.08357946
86	0x3d79aeb0	0.06095761
87	0x3e64896f	0.22318052
88	0x3e430cf3	0.19047908
89	0x3e4fb9a0	0.20285654
90	0xbca9d528	-0.020731524
91	0xbc8d6856	-0.017261665
92	0x3d870f69	0.06594736
93	0x3e70257e	0.23451802
94	0xbe3d894f	-0.1850941
95	0xbe291099	-0.16510238
96	0xbd16090d	-0.036629725
97	0xbe15ef1a	-0.14641991
98	0xbd80a309	-0.062810965
99	0x3e20928a	0.156809
100	0xbe4ef487	-0.20210467
101	0xbe3a9a74	-0.18222982
102	0xbe08cf64	-0.13360363
103	0x3ca8211f	0.020523606
104	0xbd67da7f	-0.05660486
105	0x3c60dee6	0.013725018
106	0x3d810353	0.06299462
107	0xbd9d7f5e	-0.07690309
108	0x3e15db93	0.14634542
109	0x3c8a6891	0.016895564
110	0xbd03bea4	-0.03216423
111	0xbe555a0e	-0.20835134
112	0x3c954b35	0.018224338
113	0xbd9df08d	-0.07711897
114	0xbe4430f9	-0.19159307
115	0xbd97c526	-0.0741065
116	0x3bb8742a	0.005629082
117	0x3e1edd9b	0.15514223
118	0xbd55d65a	-0.052206375
119	0x3e1f866a	0.15578619
120	0x3e322b05	0.17399223
121	0xbcdbdbad	-0.026838148
122	0x3dcc581b	0.09977742
123	0xbe40238c	-0.1876356
124	0xbd1ed055	-0.0387729
125	0x3e45f0dd	0.19330163
126	0x3e2eb226	0.17060146
127	0xbd0275cd	-0.031850625
128	0x3d343b80	0.044002056
129	0x3d65f61f	0.056142922
130	0x3db90bf7	0.09035485
131	0x3d7331a4	0.059373513
132	0x3dcc2887	0.099686675
133	0x3d2da838	0.042396754
134	0xbd757284	-0.059923664
135	0xbd2698ce	-0.04067307
136	0x3e20472f	0.15652154
137	0x3c99f068	0.018791392
138	0xbd3b6562	-0.045750983
139	0x3d96857a	0.073496774
140	0x3d639f15	0.055571634
141	0x3d72c47d	0.059269417
142	0x3e44097e	0.19144246
143	0x3d84a101	0.064760216
144	0x3e4f0b61	0.20219184
145	0x3d20e63f	0.03928208
146	0x3b971904	0.0046111364
147	0xbd8af04e	-0.06784116
148	0x3decd3f3	0.115638636
149	0xbd83a97b	-0.0642881
150	0xbe16e34e	-0.14735147
151	0x3d4de3f7	0.050266232
152	0x3e158b3e	0.14603898
153	0xbcbbca59	-0.022923635
154	0x3e392779	0.18081464
155	0xbdd84c93	-0.105614804
156	0xbd56aa23	-0.05240835
157	0xbe8e19d3	-0.27754077
158	0x3e46a495	0.1939872
159	0x3e6a5745	0.22884853
160	0xbe236e67	-0.15960084
161	0x3c96803c	0.018371694
162	0x3e4290ba	0.19000521
163	0xbdf991b7	-0.12185996
164	0x3e1d1621	0.15340473
165	0x3b8c9f5a	0.004291457
166	0x3e5d767c	0.2162723
167	0xbe0aa5fb	-0.13539879
168	0xbe09a3f5	-0.13441451
169	0xbc1a06b6	-0.009401014
170	0x3e3a008d	0.18164273
171	0x3e5187e0	0.20461988
172	0xbe18f752	-0.14938095
173	0x3e47522f	0.19464944
174	0xbdc20cf2	-0.09475125
175	0xbe4a627e	-0.19764134
176	0xbd050da9	-0.03248373
177	0xbdf311ee	-0.11868654
178	0xbd11cfcd	-0.035598565
179	0xbe1e25ac	-0.15444058
180	0x3dd1deda	0.10247584
181	0x3d53929d	0.051653493
182	0x3d78adbe	0.06071257
183	0x3c7eefcf	0.0155601045
184	0x3ea41d17	0.32053444
185	0xbdaa10c3	-0.08303978
186	0x3e61ed5b	0.220632
187	0xbaf29dca	-0.001851016
188	0xbe21eb37	-0.15812384
189	0xbd99b0a5	-0.075043954
190	0x3e0c415b	0.13696806
191	0x3e87c21f	0.2651529
192	0x3e82b373	0.25527534
193	0xbda1ebae	-0.079062805
194	0xbbaaca39	-0.005212095
195	0xbd10b66b	-0.035330217
196	0x3e210d20	0.15727663
197	0xbe962af7	-0.29329655
198	0xbe209dea	-0.1568524
199	0x3e0a6496	0.13514933
200	0xbd9b5878	-0.075852334
201	0x3e194e23	0.14971213
202	0xbd7536d0	-0.059866726
203	0x3e0c944e	0.13728449
204	0xbe18bcb0	-0.14915729
205	0xbcf8d904	-0.030376919
206	0xbe4ecf85	-0.2019635
207	0xbe0457aa	-0.12924066
208	0x3e05a865	0.13052519
209	0xbc2f91f9	-0.010715955
210	0xbd68e212	-0.056856222
211	0xbe030826	-0.12796077
212	0x3d7ef7bf	0.062247988
213	0xbe59a3be	-0.21253869
214	0xbe1662fa	-0.14686194
215	0x3dcc8471	0.09986199
216	0xbdee11d9	-0.11624498
217	0x3ba156dc	0.0049236845
218	0x3e310232	0.17285994
219	0xbd075717	-0.03304204
220	0x3e478c2a	0.19487062
221	0xbcfb52fb	-0.030679217
222	0x3e1a5bfe	0.15074155
223	0x3e1a7478	0.15083492
224	0x3d105afc	0.03524302
225	0xbdd730e7	-0.10507374
226	0xbdc86d9e	-0.09786533
227	0x3e200b45	0.15629299
228	0x3d228ad2	0.03968317
229	0xbe1cb247	-0.15302382
230	0xba1ebf32	-0.0006055712
231	0xbe5906c5	-0.21193989
232	0x3d9527eb	0.072830044
233	0x3e106402	0.1410065
234	0xbcb15124	-0.021645136
235	0xbe5b1e71	-0.21398331
236	0xbe05beeb	-0.1306111
237	0xbdfce140	-0.123476505
238	0xbd861775	-0.06547443
239	0xbe3e7051	-0.18597533
240	0x3e3ec9a2	0.18631604
241	0x3d378209	0.044801746
242	0x3dc1440e	0.094368085
243	0x3e4dd95e	0.2010245
244	0xbdb947a2	-0.09046866
245	0x3dbd835a	0.09253569
246	0x3e10fa60	0.1415801
247	0x3dd9ae50	0.106289506
248	0xbdfd1041	-0.12356616
249	0x3d21611f	0.039399263
250	0xbdb5e5f3	-0.0888175
251	0xbda638b2	-0.081162825
252	0x3dabff33	0.08398285
253	0x3e5bb86e	0.21457073
254	0x3e0a0867	0.13479768
255	0x3e060a6a	0.1308991

rnn.bias_ih_l0 f4 [20]
0	0xbe2bd3dc	-0.16780037
1	0xbde9d140	-0.114168644
2	0x3e13fbcc	0.14451522
3	0xbdae57e0	-0.085128546
4	0x3d201b1c	0.039088354
5	0xbd5a0db4	-0.053235725
6	0xbdc4e2ca	-0.09613569
7	0x3de95405	0.113929786
8	0xbe5df7ac	-0.2167651
9	0x3dcf21a8	0.10113841
10	0x3dd1270d	0.102125265
11	0xbc956867	-0.01823826
12	0x3e4ef0b5	0.2020901
13	0xbcc07f16	-0.0234981
14	0xbd2be401	-0.04196549
15	0xbcb2d5ed	-0.021830523
16	0xbd68cc77	-0.056835618
17	0xbd312637	-0.043249335
18	0x3d6efd5d	0.058347095
19	0x3d7b6436	0.061374865

rnn.bias_hh_l0 f4 [20]
0	0xbdd13e99	-0.10217018
1	0xbd3d95b7	-0.046285357
2	0x3c2e2b6b	0.010630469
3	0x3e24cdba	0.16094103
4	0xbd8fca07	-0.070209555
5	0xbd86d668	-0.065838635
6	0x3e090d25	0.1338392
7	0xbda46a5d	-0.080281
8	0xbe592f40	-0.2120943
9	0x3e90f4ba	0.28311712
10	0xbd2fc910	-0.042916358
11	0xbd89ebb7	-0.06734412
12	0x3e00b265	0.12568052
13	0x3e39c717	0.18142353
14	0xbde3b8bb	-0.11119219
15	0x3d7d793d	0.0618832
16	0xbd386350	-0.045016587
17	0x3e849c96	0.25900716
18	0x3e5f1e26	0.21788844
19	0x3e5235a8	0.2052828

mlp.weight f4 [50, 20]
0	0x3dfc0003	0.1230469
1	0xbddfdf66	-0.10931282
2	0xbe0c5a1b	-0.13706248
3	0x3e3b82bc	0.1831159
4	0x3bda0042	0.0066528628
5	0x3e613dfb	0.219963
6	0xbe0ec231	-0.13941266
7	0xbdabda88	-0.08391291
8	0x3d8638e2	0.06553818
9	0xbd8bf55a	-0.068339065
10	0xbe20d330	-0.15705562
11	0x3e4b36bf	0.19845103
12	0x3e80027a	0.2500189
13	0x3c7d5774	0.015462745
14	0xbe31f863	-0.17379908
15	0xbe8e8d46	-0.27842158
16	0x3e72d4de	0.23714015
17	0xbe906646	-0.28203028
18	0xbd76ee52	-0.060285874
19	0x3e189420	0.14900255
20	0xbcd15fcb	-0.025558373
21	0x3cfbbb00	0.030728817
22	0x3e603547	0.21895324
23	0xbde1cb18	-0.11025065
24	0x3e31ae09	0.17351545
25	0xbded2553	-0.11579385
26	0x3e0c6614	0.13710815
27	0x3eaf8786	0.34283084
28	0xbe8560c0	-0.26050377
29	0x3eadad58	0.33921313
30	0xbdd8aa0d	-0.105793096
31	0x3e30c2f8	0.17261875
32	0xbe43fbcc	-0.19139022
33	0x3e0c9eeb	0.13732497
34	0xbe1c5b70	-0.15269256
35	0xbdcde651	-0.10053695
36	0xbd9d493b	-0.07679983
37	0xbe766c38	-0.2406472
38	0x3e5320fd	0.20618053
39	0xbe2163dc	-0.1576075
40	0xbe3dbcda	-0.18529072
41	0x3d8a1630	0.06742513
42	0xbe1614ea	-0.14656416
43	0x3e53780a	0.2065126
44	0x3e8fedce	0.28111118
45	0x3d9130c4	0.070893794
46	0xbc3e8cc2	-0.011630239
47	0x3e4ab7aa	0.19796625
48	0xbe724096	-0.2365745
49	0xbe6faf39	-0.23406686
50	0xbd998a19	-0.07497043
51	0xbe4f9d30	-0.20274806
52	0x3e9d7518	0.30753398
53	0xbc32a709	-0.010904082
54	0xbe4f3979	-0.20236768
55	0xbe89583e	-0.26825136
56	0xbe86502f	-0.2623305
57	0xbe9d707a	-0.30749875
58	0x3e142207	0.14466105
59	0x3e76d892	0.24106053
60	0x3ea31b8f	0.31856963
61	0xbdb351cf	-0.08755838
62	0xbe446b9f	-0.19181679
63	0xbe30fa18	-0.17282903
64	0x3ea5f6d3	0.32414874
65	0x391c6034	0.00014913158
66	0xbe68d788	-0.22738469
67	0x3e45fbff	0.1933441
68	0xbe62471a	-0.22097436
69	0xbdd7f71c	-0.10545179
70	0x3d1c2bd5	0.03812774
71	0x3ea0549c	0.31314552
72	0x3de62668	0.11237794
73	0xbe6c6a51	-0.23087431
74	0x3e4afa0a	0.19821945
75	0xbd0b5fe2	-0.034026988
76	0x3e62dc51	0.22154357
77	0xbe8ab41a	-0.27090532
78	0x3e5e9308	0.21735775
79	0xbd41b5a9	-0.047292385
80	0x3cf79722	0.030223433
81	0xbdac1dbe	-0.0840411
82	0x3e48e73f	0.19619463
83	0xba58759d	-0.0008257272
84	0x3ba36443	0.0049863174
85	0xbda976b3	-0.08274593
86	0xbe6e91d3	-0.23297815
87	0xbd342439	-0.043979857
88	0x3dfae856	0.12251346
89	0xbe9781ab	-0.29591116
90	0xbd833c6c	-0.06408009
91	0x3d5bbfac	0.05364959
92	0xbca57ee8	-0.020202115
93	0xbe60cfc8	-0.21954262
94	0x3e507047	0.2035533
95	0x3e3c75ac	0.18404263
96	0x3e1c83f5	0.15284713
97	0xbdca9d4e	-0.09893285
98	0x3dd32c14	0.103111416
99	0x3e6a4a09	0.22879805
100	0x3cf58b29	0.029973583
101	0xbdcc6192	-0.099795476
102	0x3e911d57	0.28342697
103	0x3d93980c	0.07206735
104	0xbdd7ed45	-0.105433024
105	0xbe1d9a9f	-0.15391015
106	0x3e4c6d8f	0.19963668
107	0xbd2fc1e8	-0.042909533
108	0x3dfd0471	0.12354363
109	0x3ecdd71e	0.40203184
110	0xbe89b47a	-0.26895505
111	0xbe0e4e42	-0.1389704
112	0xbde2ca09	-0.110736914
113	0x3bff0d3b	0.0077835596
114	0xbc3ab5a5	-0.0113958465
115	0xbbe7fd47	-0.0070797536
116	0xbe89e9f3	-0.26936302
117	0xbe148eab	-0.14507549
118	0x3e3c98e8	0.18417704
119	0x3e138505	0.14406212
120	0xbe00ca61	-0.12577201
121	0x3e2e77c5	0.17037876
122	0x3e096222	0.13416341
123	0x3e806bc9	0.25082234
124	0x3e141fc6	0.14465246
125	0xbd9ab74d	-0.07554493
126	0xbe178771	-0.1479776
127	0x3e1675f2	0.1469343
128	0x3d06eb2e	0.03293913
129	0xbd2f6033	-0.042816352
130	0x3e41e89f	0.18936394
131	0x3d113912	0.035454817
132	0x3e55158f	0.20809005
133	0x3e3baade	0.183269
134	0xbcee866f	-0.029116837
135	0xbe52cc5a	-0.20585766
136	0xbd646320	-0.055758595
137	0xbe63472d	-0.2219512
138	0xbe78e90a	-0.24307647
139	0xbe5d946d	-0.21638651
140	0xbdbe0e5e	-0.09280084
141	0x3dd1231c	0.10211775
142	0xbead7aaf	-0.33882663
143	0x3e22489a	0.15848008
144	0x3e5784b0	0.2104671
145	0xbe29fbcf	-0.16599964
146	0xbe194f99	-0.1497177
147	0x3e3bc3e1	0.1833644
148	0x3dc3d79b	0.09562608
149	0x3dce998e	0.10087882
150	0xbd97b14a	-0.07406862
151	0xbcea1ef6	-0.028579216
152	0x3e52d667	0.205896
153	0xbdaefe37	-0.085445814
154	0xbd4ecebc	-0.050490126
155	0x3e4e8794	0.20168906
156	0x3e540ebc	0.20708746
157	0xbea1cf06	-0.3160326
158	0xbe34bf9c	-0.17651218
159	0xbdd71a32	-0.10503043
160	0xbe2cde92	-0.16881779
161	0xbd88107b	-0.066437684
162	0x3d56accc	0.052410886
163	0x3d98094d	0.07423649
164	0x3d0a31f8	0.03373906
165	0xbd523ada	-0.051325656
166	0x3ac4d2e5	0.0015016465
167	0xbdabe7d5	-0.08393828
168	0x3e8a88ff	0.27057645
169	0x3e343a78	0.17600429
170	0xbe9167c7	-0.28399488
171	0x3eaba9ad	0.3352789
172	0xbcd6e982	-0.026234392
173	0x3b047ddd	0.0020216622
174	0xbe34f7c8	-0.17672646
175	0xbcfa4c4f	-0.030553965
176	0xbd814a21	-0.06312967
177	0xbe3a5820	-0.1819768
178	0x3d67f7ae	0.05663269
179	0x3eac79c4	0.3368665
180	0xbe53b2c6	-0.20673665
181	0xbe00800d	-0.12548847
182	0x3d4a3ddf	0.04937541
183	0x3df37da2	0.11889197
184	0xbe6674f0	-0.22505546
185	0xbe0cb82a	-0.13742128
186	0xbe37dc1e	-0.17955062
187	0xbd3c4975	-0.04596849
188	0x3d8485ef	0.06470858
189	0x3dce710b	0.10080155
190	0xbd9c8a3c	-0.076435536
191	0x3e9323cd	0.2873825
192	0xbcb7804d	-0.022400046
193	0x3e889672	0.2667728
194	0x3dc150c6	0.094392344
195	0x3d163716	0.036673628
196	0x3d959a2e	0.07304798
197	0xbea22bc4	-0.31674016
198	0x3e569825	0.20956476
199	0xbdca0635	-0.09864465
200	0xbe1d7124	-0.15375191
201	0xbe57c1a3	-0.2106996
202	0x3e807cf0	0.2509532
203	0xbe26ffa7	-0.16308461
204	0x3eb268b6	0.34845513
205	0x3e1da9fb	0.15396874
206	0x3e43a58b	0.19106118
207	0x3e6c5f34	0.23083192
208	0xbdafcc48	-0.085838854
209	0x3e5adbe7	0.21372949
210	0xbd90e155	-0.07074229
211	0xbe454696	-0.19265208
212	0x3e728283	0.23682599
213	0xbd975873	-0.07389917
214	0xbccc1bec	-0.024915658
215	0xbe8ecad4	-0.2788912
216	0xbc81ce7f	-0.015845535
217	0xbd08bee8	-0.033385187
218	0xbdd88ef8	-0.10574144
219	0xbd7b65db	-0.061376434
220	0x3e9e51c0	0.30921745
221	0x3e2d0529	0.168965
222	0x3e90cd85	0.282818
223	0x3ca180de	0.019714769
224	0xbdca87ed	-0.09889207
225	0xbaa69f6c	-0.0012712306
226	0x3d821cb4	0.06353131
227	0x3d01abab	0.031657856
228	0xbe122186	-0.142706
229	0x3e5b5908	0.21420681
230	0x3dfdd86d	0.123947956
231	0x3e33a631	0.17543866
232	0x3d897963	0.06712606
233	0x3e8ff15c	0.2811383
234	0xbda74e02	-0.08169176
235	0x3dc4f46a	0.09616931
236	0xbe49efd2	-0.1972039
237	0x3d74231f	0.059603807
238	0xbe6b0813	-0.22952299
239	0xbe5703eb	-0.20997588
240	0x3e954808	0.29156518
241	0xbe0bbcfa	-0.13646308
242	0x3e582109	0.21106352
243	0x3d47186d	0.04860728
244	0xbc97446a	-0.01846524
245	0x3e220182	0.15820888
246	0xbe4b06ce	-0.19826815
247	0x3d01b7f0	0.031669557
248	0xbda96864	-0.08271864
249	0xbdb70b9a	-0.0893776
250	0xbe719fbf	-0.23596095
251	0xbe31006f	-0.17285322
252	0x3ebf1f21	0.37328437
253	0xbdb625b4	-0.0889391
254	0x3dfbfe40	0.12304354
255	0x3e4a2adf	0.19742917

mlp.bias f4 [50]
0	0x3d1c00cf	0.03808671
1	0x3d49325b	0.04912029
2	0x3d076030	0.033050716
3	0x3d1ed4b5	0.038777072
4	0xbe4e2635	-0.20131762
5	0x3dc22911	0.09480489
6	0x3d331187	0.043717887
7	0xbd2174ec	-0.039418146
8	0x3d3251fc	0.043535218
9	0xbdc40994	-0.095721394
10	0x3d3696e9	0.044577513
11	0x3d4a907f	0.04945421
12	0x3d6c50ec	0.05769436
13	0xbbfa4e31	-0.0076387157
14	0xbdb74aa3	-0.08949783
15	0x3d0d5b1b	0.034510713
16	0x3d8ea511	0.06965078
17	0x3cbddced	0.023176635
18	0x3da54342	0.08069469
19	0xbdba412b	-0.09094461
20	0x3d4c8239	0.049928878
21	0x3b92c476	0.0044789864
22	0x3c312666	0.010812378
23	0x3d7c9d71	0.061673585
24	0xbe195ebb	-0.14977543
25	0x3d0c0077	0.03418013
26	0x3db66bf9	0.08907313
27	0x3d8bb765	0.06822089
28	0x3d1f64ab	0.038914364
29	0xbe0c4741	-0.13699056
30	0x3d4adbc5	0.049525995
31	0x3cd36448	0.025804654
32	0x3da2f0e3	0.07956102
33	0x3d04ac90	0.03239113
34	0xbd448523	-0.04797853
35	0x3d915e3b	0.07098051
36	0x3d481cf5	0.04885574
37	0x3d8ad63d	0.06779144
38	0x3ceafd28	0.028685167
39	0xbce5b4f5	-0.028040389
40	0x3cb23c0b	0.021757146
41	0x3cdc0186	0.026856195
42	0x3cc16f59	0.023612665
43	0x3d8ee5c2	0.069774166
44	0xbe271374	-0.16316015
45	0x3ced9eb5	0.029006341
46	0x3db8976a	0.09013255
47	0x3d38392f	0.04497641
48	0x3ddc4a9e	0.107564196
49	0xbdb838a4	-0.08995178
